app/ml_models/rnn/2019-11072021_straattaal.pth (torch, 95575 bytes, 4 tensors)

i2h.weight f4 [128, 155]
00000000: f164 4c3e 43d0 423d 263e f2bd e8cf c9bd
00000010: 287a 14be 88d0 30bc 3828 c8bd d504 e0bd
00000020: 6c11 a3bd 68f6 16bc d620 3abe ca68 ba3c
00000030: 46bd 75bc 8289 293d 72c6 823d e405 53bd
00000040: 4c9d 353e fd82 b13b c0e7 74be 96f4 27bd
00000050: c08f bb3d 77a8 2cbd 47bb 1e3e 8c3c 5f3e
00000060: 82c3 f03d 37bd 38be cf29 8e3d c031 183d
00000070: 8146 00bc d75c f9bd 5d50 a7bd 20cb a6bd
00000080: 260d 0f3c da4c 9b3d c458 2abd d422 193d
00000090: a8d9 173e 8a88 483d bda3 efbc c035 703d
000000a0: d6f1 9c3d a654 133d f8cd b3bc 8cbe d2bd
000000b0: 364d 973d c324 b43d b75c 693e 7389 d23b
000000c0: 1c71 353e 2f02 b13c e3a4 bdbb ed76 d93d
000000d0: 59be 7a3d 4739 8d3d f29a aabd 7234 5c3d
000000e0: 7b18 e5bd ab57 4fbd 9585 18bc 38f7 5abc
000000f0: 8f4e a93c c5b3 15bd 881c 21be 1131 8c3c
00000100: 91d8 0ebd 1f24 793c f13a 9b3c 9a31 0c3e
00000110: 155b 5cbd bf41 6c3d 4d59 713d 397a d73d
00000120: 61a8 0f3d 1742 22be 9703 e03b 16af 973d
00000130: c7dc 9dbc 9e69 ca3d 101e 483c dbac 18bd
00000140: 52bf 563d d0d3 71bd e744 493b 5313 033d
00000150: b93f 8abd b362 f3bd e947 97bd 756d 3abe
00000160: cb83 993b 8553 a5bd 4e20 18be 3c82 c3bc
00000170: e8ed 043e 3ae0 823d d449 febd 9583 6abc
00000180: 66ff 673e 7883 ad3c 8939 8b3d a8f1 01be
00000190: ea56 983d cb7e 8a3d 73ba b6bd 21e9 7fbd
000001a0: 4a31 2d3e cc82 90bc 9c0d 4b3d 398e abbc
000001b0: 1422 17bd 595a 2bbd 3ff8 26be a81b 8e3c
000001c0: 74f3 8bbc 4294 223a 1b91 c83d 3222 bbbc
000001d0: 3f37 89bd e154 d93d f65f 03be 95c6 4abd
000001e0: 971d 0f3e 0fb3 ea3c 304f 17be 97c0 e8bd
000001f0: e757 1b3d d1fc 403a 50b1 2c3b 2366 923d
00000200: 97d2 d83c e977 243e aace 983d 0f19 3e3c
00000210: 97f4 19bd 7d99 2f3d e011 cbbc bf83 443d
00000220: d761 0d3e 7b10 f6bd 3c4f dfbd da12 55bc
00000230: 86fb 4c3e 252c 063e 244c 45bd fe61 fdbd
00000240: 6df7 2ebd f4f1 913d 01e4 bbbd a042 47bd
00000250: 0b2d f93d 366b 1d3e 281f 133e d588 72bd
00000260: 47e7 023d b0c4 613d 746c e4bd 8eb9 fe3c
00000270: 04da ee3d 0f3f 1c3e 273a fdbe 58ee fc3d
00000280: b896 c6bd e838 5f3e 0b87 3cbd 7b8f 0fbe
00000290: 5004 b2bd fec7 fa3c 89ac c23c 740a a23b
000002a0: 8be3 8fbc e13a 24bd 7c2d 8bbd 8329 6cbe
000002b0: ee9f 623e 1c13 40bd 9615 f33c 9e92 bc3d
000002c0: 6b42 11bd b6de 36bd ae3a 073a 0967 ae3e
000002d0: c773 b23d b04f e1bb f95b 133e f395 293d
000002e0: e8fa 61bd 78be 923c 6da8 b5bc ddbc 45be
000002f0: e20e 91bd 1d9c 29bd a213 31bd a663 9b3d
00000300: fab2 d03c f22a c9bd 2fea a43c c4fa ea3c
00000310: efd7 8bbb e3a7 81bd f439 913d af16 0fbe
00000320: 08a6 e1bd 289b 083d 4fac 0cbc 7b3f 223c
00000330: 67dc 1e3d c3ad bc3c aca1 41bc 5c21 873d
00000340: 6af7 0abe ca1a 8fbd 41b3 3b3d 4075 1dbe
00000350: c800 1abd 1fcf 1bba 657a d9ba e752 5ebc
00000360: 1ab1 d33d 4420 bb3d b385 313d 2669 eabd
00000370: 8b6a a7bc 4ade bebd 12ec be3d 4ff5 f8bd
00000380: bbc8 023e 1aff 533d dd27 2838 8299 9c3d
00000390: 8794 1a3e 92f9 04bd 3b82 12bd 8b93 e63c
000003a0: 7b8a 8f3c 5a1d c1bd 479e cb3d ac12 ee3d
000003b0: c4a9 203d 0880 d93c 2893 b8bc 7889 c3bd
000003c0: df12 9b3d c817 c8bd df30 0d3e d63f c33c
000003d0: 52ed 7dbc 0e03 c23d e40a d7bd 2582 babb
000003e0: fe12 66bc 68e7 9ebd db3c 34be 60e3 d5bd
000003f0: e96c e4bd 593b 303d ebb8 08be 5a94 34bd
0.19960381 0.047561895 -0.1182826 -0.09854108 -0.14499724 -0.010791905 -0.09773296 -0.10938422
-0.07962307 -0.009214021 -0.18176588 0.022755045 -0.01499874 0.041390903 0.06385507 -0.05151929
0.17735785 0.0054172263 -0.2391653 -0.04100474 0.091582775 -0.042152848 0.15501128 0.2180044
0.1175604 -0.1804093 0.06941568 0.03715682 -0.007829309 -0.12175911 -0.08169625 -0.08144212
0.008731162 0.07583018 -0.04158856 0.03738673 0.14829123 0.04895834 -0.029252881 0.05864501
0.07663314 0.0359694 -0.0219488 -0.1029025 0.07387774 0.08796074 0.22789274 0.0064250766
0.17718929 0.021607487 -0.0057874783 0.106183864 0.061216686 0.068956904 -0.08330335 0.053760953
-0.1118631 -0.050620716 -0.009309192 -0.013364606 0.020667342 -0.036548395 -0.1573354 0.01711324
-0.034874503 0.015206366 0.018949004 0.13690796 -0.0537978 0.057679888 0.058923054 0.10521359
0.035072688 -0.15845524 0.0068363654 0.07406442 -0.019270314 0.09883426 0.012214199 -0.037274223
0.05242855 -0.05903989 0.0030711235 0.03200085 -0.067504354 -0.1188406 -0.07386763 -0.18205817
0.0046849004 -0.08072571 -0.14856073 -0.023865812 0.12981379 0.06390424 -0.12416425 -0.014313598
0.2265602 0.021180853 0.06798083 -0.12689841 0.074384525 0.06762465 -0.08922281 -0.06247819
0.16913334 -0.017640494 0.049573526 -0.02094184 -0.036897734 -0.04183421 -0.16305636 0.017347172
-0.017083861 0.00062019017 0.09793302 -0.022843454 -0.066999905 0.106118925 -0.12829575 -0.04950579
0.13976131 0.028649835 -0.14776301 -0.113648586 0.037925627 0.00073618913 0.0026350804 0.07148387
0.026467605 0.16061367 0.07461293 0.011602654 -0.037586775 0.042870987 -0.024788797 0.047977205
0.13806854 -0.12014862 -0.10903785 -0.013004983 0.20017824 0.13102777 -0.048168316 -0.12372206
-0.042716432 0.07126227 -0.09174348 -0.048647523 0.121667944 0.15372929 0.14367354 -0.059212524
0.031958845 0.055119216 -0.11153498 0.031094339 0.11662677 0.1525843 -0.4945843 0.12350148
-0.09696716 0.21799052 -0.046027225 -0.14019577 -0.08692229 0.030612942 0.023763912 0.0049450938
-0.017564556 -0.040095214 -0.06795785 -0.2306271 0.22131321 -0.046893224 0.029673379 0.092076525
-0.03546373 -0.044645987 0.0005158585 0.34062985 0.08713489 -0.0068759546 0.14390554 0.04140277
-0.055170923 0.017913088 -0.022175038 -0.19310327 -0.07082917 -0.041408647 -0.043231614 0.07587366
0.025475968 -0.09822644 0.020131199 0.028684027 -0.0042676846 -0.0633085 0.07091132 -0.13973497
-0.11017996 0.033351094 -0.008586003 0.00990283 0.03878441 0.023032075 -0.011818331 0.0659816
-0.13570943 -0.069875315 0.045825247 -0.15376759 -0.0375984 -0.0005943644 -0.0016592263 -0.01356957
0.10336514 0.091370136 0.043340396 -0.11445837 -0.020436546 -0.09319742 0.093223706 -0.12156164
0.12771885 0.051756956 4.0091447e-05 0.07646467 0.15095721 -0.03246457 -0.03576873 0.028146526
0.017522087 -0.094294265 0.099422984 0.11624655 0.0392244 0.026550308 -0.022531107 -0.095477045
0.07571959 -0.09770161 0.13788174 0.02383415 -0.015498476 0.09473239 -0.10500124 -0.005691784
-0.014042614 -0.07758981 -0.1760134 -0.10443759 -0.111535855 0.04302535 -0.1335179 -0.04408679

i2h.bias f4 [128]
00000000: 16f0 69be 823e f53c a4ed e2bd 34ca af3d
00000010: 6d64 82bb 2f42 ac3e f924 753d 027e 95be
00000020: ccfc 80be 9b83 30be 4ff7 5fbe 3cc3 a4bd
00000030: 4f87 6abd 4e49 49be a560 f3bd 6876 a3bd
00000040: 228f 37bd fabf 53bd 90c7 4f3e 1160 64be
00000050: 7cd3 c13d fc20 6dbd 17b5 1ebd 9240 a1bc
00000060: f8e6 fb3b 3147 cb3d 68db 653d 8807 56be
00000070: 341e c93d bddc 8abe c4ba c13e 26a5 433c
00000080: 467a a13d 71c7 6c3e 57bf 3cbe feda da3d
00000090: 2bf5 943c 3386 56bd 8717 04be eced 2b3d
000000a0: 6489 da3d e898 3fbd 660b cb3e c3f4 6bbe
000000b0: 9f5a 8fbe 5fe7 e43d 204a dabd 705e 9abd
000000c0: 89ca 363e 4d6e a0be 499b 163d 79e6 1ebd
000000d0: 865a b2be 3f46 273e 01a2 93be 71f5 8f3d
000000e0: 9458 9fbb 8d1b 933d 2cb9 85bd c748 16be
000000f0: fc88 debd 0323 91bd defa 9cbe 05cf 2e3e
00000100: d037 8f3e 0161 53be 7d55 03bd dfdc 343e
00000110: 78c8 6d3e 98e9 e93c 524a 78bd e27b 58bd
00000120: ba7e 6ebe 41d5 8cbd f1b6 3bbd 843d ec3d
00000130: 77af 533e cddb 63bd 724b 95bc c1fa 73bd
00000140: 087c 5dbe a18c 41bd a180 69bb 0468 86bb
00000150: 7f72 ab3d 793c c4bd 93d8 8cbd 90fa 34be
00000160: ff02 4f3e ecf7 1fbe 945e 12be ac3d 0a3e
00000170: d6a0 2cbe 2387 a63e 5c86 773d 6a6b b3bd
00000180: 3176 a7bd 5a03 a43e f324 1d3e 013b 523e
00000190: 1db4 c13d d869 0f3e d702 e93e 1832 9abd
000001a0: 1455 423c 5b07 a7bd 4fd2 51bd fbd6 203e
000001b0: 5a92 2d3e 9f71 babd a08c 8b3b c181 85be
000001c0: 77c3 5dbd b24b 813e 125d d7bc 98f3 d03d
000001d0: 096b 1bbe d9b7 3e3e 8a20 20bd 7988 4ebe
000001e0: ece6 e7bd d43a b73d 22b6 a7be 73f1 ce3d
000001f0: f0d3 38be 601f aa3e fbf1 11bd d341 6ebd
-0.22845492 0.029937033 -0.110804826 0.08583489 -0.003979257 0.33644244 0.059849713 -0.291977
-0.2519287 -0.17237704 -0.21871684 -0.080450505 -0.057257947 -0.1965687 -0.11883668 -0.079815686
-0.044814236 -0.051696755 0.20290971 -0.22302271 0.094641656 -0.057892784 -0.03874692 -0.01968411
0.0076874457 0.09925688 0.056117445 -0.2090131 0.09820214 -0.27121535 0.37837803 0.01194123
0.0788465 0.23122956 -0.18432365 0.10686301 0.018183311 -0.052374076 -0.128996 0.041974947
0.106707364 -0.046776682 0.39657134 -0.23042588 -0.27998826 0.11176943 -0.106586695 -0.07537544
0.17850699 -0.31334153 0.036769185 -0.038794015 -0.3483469 0.1633539 -0.28834537 0.07029236
-0.0048628543 0.07182989 -0.06529459 -0.146762 -0.108659714 -0.07086756 -0.30660146 0.17071159
0.2797227 -0.20642473 -0.03206395 0.1766238 0.23221004 0.028553769 -0.060617752 -0.05285252
-0.2329053 -0.068766125 -0.045828763 0.11535171 0.20672403 -0.05562954 -0.018224452 -0.05956531
-0.21629345 -0.047253255 -0.0035629647 -0.004101755 0.08371448 -0.09581847 -0.06877246 -0.17673707
0.20215987 -0.15621918 -0.14293891 0.13500088 -0.16858229 0.32524976 0.06043087 -0.08760722
-0.0817684 0.32033807 0.15346126 0.2053032 0.09458182 0.1400522 0.4550998 -0.07529086
0.0118611045 -0.081557 -0.051225957 0.15707009 0.1695036 -0.09103703 0.004258707 -0.26075557
-0.054141488 0.25253063 -0.026289497 0.10202712 -0.1517755 0.1862482 -0.03909353 -0.20169248
-0.11323342 0.089467674 -0.32756144 0.101046465 -0.18049598 0.33227062 -0.03563116 -0.058168244

i2o.weight f4 [27, 128]
00000000: d888 2f3e dd4b 693e cde4 7a3d 5893 a53d
00000010: 733f 09be 1a4e 023d 5adc dabc effb debd
00000020: 5a6d 8e3e 1f64 61bd 68e1 7abd efb7 b53c
00000030: 1f9b 84bd d358 90bd d04c 063e cb5c 06be
00000040: 7e64 b33d a22d 22bc aa1b 65be e6ca d1bd
00000050: 8ace 51be 3d16 40bd a634 d63d 20ac 23bd
00000060: 0917 08bc a631 4d3e 5861 513d fcaf 9c3c
00000070: ae07 56be f9bc 32be 9d16 e6bd df31 2a3d
00000080: 42f4 0c3e 476f 3d3c 4ff9 c2bc b720 1dbd
00000090: ec5f 3abe 2a0a 493e 015e bbbc 04c7 8dbd
000000a0: 7add 8a3c 947b 533e 4bd2 1bbe 5817 01be
000000b0: 0282 89bd fbea cebd 8a66 433e e710 96bd
000000c0: 7e7f 9abe d4f5 993b 51a4 2ebd 91b3 c0bd
000000d0: 7c44 c0bc 779e b438 ee69 313e 634e 4f3e
000000e0: 1e61 84bd a8aa 0b3e 4439 243e e2fb 9ebc
000000f0: eeb7 cd3d 6d38 ac3e b0eb 3f3e 6e54 2abb
00000100: 154a c7bc eb21 3e3c bf6f 113e 3e3d 2cbd
00000110: 1650 7abe 921d 3cbe c2e9 3a3e da81 b5bc
00000120: 43b0 6f3c 06fa 2fbe d592 f9bd 5bd1 bf3c
00000130: b43a eb3d d3c2 f9bd 2635 86bd e6bb 653e
00000140: 1f93 933d 9d3f e0bd b0ca 753e 0a91 fd3d
00000150: bf61 94bd 5915 473e 07b9 653e 2edf 4a3d
00000160: f4b7 a5bd 311b 003e fafd b63d 6716 04be
00000170: 22f8 5a3e fd85 8abd 0d4c b1bd 91b6 e4bd
00000180: 9cf3 7d3e e9ed 8ebd 2cf4 c03c 18d4 b23d
00000190: 00fd 493e 92d7 b13c dc0b 2dbe a791 56bb
000001a0: 302b 003e 0c20 4fbe 1cd9 793d 0dd5 77bc
000001b0: 3522 32bb cb9d f23d a5c0 11be 690f 3a3e
000001c0: bd52 933c 4b27 6d3d 093a 4c3e 5d69 a2bd
000001d0: 7e20 41be a8a4 de3d 90bf f8bd c0f4 96bb
000001e0: c548 353e cc85 033c d3c0 a53d 359d a8bd
000001f0: 5290 b53d d630 36be 1c6b d23c 3c36 0dbe
00000200: 3af0 5e3d b61a 2fbd 634e 51be 305b 3d3e
00000210: 90ac 07be c432 a8bd 838e 163e 6548 87be
00000220: 3323 05bf 93bc 843e 4276 63be ea8f bd3d
00000230: c7cb 4dbe 1d68 1a3c e5cf 94be d2cb d43c
00000240: edff 09be b2f8 babe e765 af3d ba52 bfbd
00000250: 9929 b53e 6a49 9bbe 5423 883e 85b9 883d
00000260: 1d43 2e3e 5358 093e 26ef 833c dd89 53bd
00000270: c5e4 cdbd cd9e c23d 26b9 96bd 9fd0 80be
00000280: 0062 7f3c adf5 2cbe 8ae9 a8be ee6f 333e
00000290: e983 7b3d 3abd 2ebe 67e4 783d 65a7 653e
000002a0: c613 6abd 6d1b d83d ea0e 933e baae 41be
000002b0: 12fa 81be 4baa 36bd 6fd6 ddbe 5c7c 58bd
000002c0: 5e10 243f 65b1 c33e e06b e8be 19f5 ce3d
000002d0: eadd 86be b5fd 12be 25fb 88be ffec 293e
000002e0: c7ba 923c 9a93 55bd e534 fdbd 7905 b8be
000002f0: e480 ad3e a117 93be d994 0cbf 1eb5 ac3c
00000300: 995d a53e e17a 7dbd 4d27 5bbe 6d5c b73e
00000310: 5c6a 663e 76ae 433e 5322 483e f60f 983e
00000320: 4a0d a1be 890e 0fbd de56 c6be 9bfa ff3d
00000330: 62e7 803e e68b ce3e b752 19bd a23a a43e
00000340: 8173 15bc 2e5a 82bd 78fc 493e a02e 81be
00000350: 444e 21be a630 b3bc 6153 13be 5730 f3bd
00000360: 0e41 f03d 3ad8 80be 48d9 27bd 8ab4 9ebe
00000370: fd95 adbe 39b8 843e e753 6c3e e100 8d3e
00000380: 5202 c4be c2f1 413e cda2 903d ecdf 113e
00000390: 9873 923e b7b9 88be d1cc c63e 76ba 1f3e
000003a0: 9cd9 9a3d 5485 563d 0daa c13d ef93 1d3e
000003b0: 382e 30be 8db2 b23e 0370 e23d b112 54be
000003c0: 30ad 7bbd 34f6 253f 7bde 173e 58cb 18be
000003d0: 0a66 1bbe 8b0c 0c3d f29b d43e 8740 b43d
000003e0: 1e9d 9f3d 9523 643e b6bb 57be 74fa 8b3e
000003f0: ea89 57bd 0a34 593e 4510 e9bc f407 803c
0.17142045 0.22782846 0.061253358 0.08084744 -0.1340311 0.031812765 -0.0267164 -0.10887896
0.27817804 -0.055027124 -0.06125012 0.022182433 -0.064748995 -0.07048192 0.13115239 -0.13121335
0.08759402 -0.009898575 -0.22373834 -0.10243778 -0.20488945 -0.046896208 0.10459261 -0.039959073
-0.008306273 0.2003847 0.051118225 0.019126885 -0.20901367 -0.174549 -0.11234782 0.041551467
0.13765052 0.011562175 -0.02380052 -0.038361277 -0.18200654 0.19632784 -0.022871973 -0.06922725
0.016951311 0.2065261 -0.15216939 -0.12606561 -0.0671425 -0.10103413 0.19082084 -0.073274426
-0.30175394 0.0046984944 -0.042637173 -0.094092496 -0.023470156 8.612585e-05 0.17325565 0.20244746
-0.06463836 0.13639319 0.1603747 -0.019407216 0.100448474 0.336368 0.18742251 -0.0025990265
-0.024327317 0.011604766 0.14202784 -0.042050593 -0.24444613 -0.18370655 0.18253234 -0.022156645
0.014629426 -0.1718522 -0.12186209 0.023415258 0.11485806 -0.12195363 -0.06553106 0.22434959
0.072057955 -0.10949633 0.240031 0.1238118 -0.07245206 0.19441737 0.22433864 0.049529247
-0.08091727 0.12510373 0.08935161 -0.12899171 0.21383718 -0.067638375 -0.08657084 -0.11167634
0.24799961 -0.069789715 0.02355393 0.0873186 0.19725418 0.021709237 -0.16899055 -0.0032740624
0.12516475 -0.20227069 0.060998067 -0.015126479 -0.0027181034 0.11846503 -0.14233644 0.18169941
0.017983789 0.0578988 0.19944014 -0.07930253 -0.18860051 0.108712494 -0.12145913 -0.004606813
0.1770354 0.008027505 0.08093419 -0.0823311 0.088654175 -0.17792067 0.02568584 -0.1379022
0.054428317 -0.042750083 -0.20440058 0.18491817 -0.13249421 -0.08212808 0.14702801 -0.2642242
-0.52006835 0.2592512 -0.2221308 0.09255965 -0.20097266 0.009424237 -0.2906486 0.025976095
-0.13476534 -0.36517864 0.08564358 -0.09341951 0.353833 -0.30329448 0.26589453 0.0667601
0.17017789 0.134126 0.016105246 -0.05164515 -0.100534 0.09502945 -0.07359533 -0.25159165
0.01558733 -0.16890593 -0.32990676 0.17523167 0.061405096 -0.17064372 0.060764696 0.22427137
-0.057147764 0.10552106 0.28722316 -0.18914309 -0.253861 -0.044595998 -0.43327662 -0.052852973
0.64087474 0.3822128 -0.45394802 0.101053424 -0.26341182 -0.14354594 -0.26754108 0.16594313
0.017911328 -0.052142717 -0.123636045 -0.35941675 0.33887398 -0.28728965 -0.54914623 0.021082457
0.32297972 -0.061884765 -0.21401711 0.35812703 0.2250151 0.1910952 0.19544344 0.29699677
-0.3145545 -0.03492597 -0.3873815 0.12498971 0.2517653 0.4034111 -0.0374324 0.32075983
-0.009121777 -0.06364857 0.19725215 -0.25230885 -0.15752512 -0.021873783 -0.14387275 -0.118744545
0.11731158 -0.25164968 -0.0409787 -0.30997115 -0.33903494 0.259218 0.23078881 0.27539733
-0.3828302 0.1893988 0.07062302 0.14245576 0.28603816 -0.2670419 0.38828138 0.15598473
0.07561037 0.052373245 0.09456263 0.15388463 -0.17205131 0.34901848 0.11056521 -0.20710255
-0.06144446 0.648288 0.14830963 -0.1492132 -0.15175644 0.03419165 0.41525227 0.0880137
0.077936396 0.22279198 -0.210677 0.27339518 -0.05262176 0.21211258 -0.02845014 0.015628792

i2o.bias f4 [27]
00000000: 4b26 30bd 95c4 1c3f 7b55 cc3e d11b f23d
00000010: cf97 9bbe 281f 5b3e 2652 2dbe 9ed2 353e
00000020: 7b86 533e 16ff 1fbf 0615 90be 5792 b9be
00000030: 9981 b7bd 7d70 d2be 0e3e ca3e b058 f3be
00000040: 8d28 12be f400 333f ff74 c8ba 16da e3bd
00000050: c99b 453e 0816 2d3e b4ff 883d c1de b73e
00000060: c159 5a3c 8987 233e 42ed 2abe
-0.04300527 0.6123746 0.39908966 0.11821712 -0.30389258 0.21398604 -0.16925868 0.17756125
0.20656769 -0.62498605 -0.2814104 -0.3624446 -0.08960266 -0.41101447 0.3950047 -0.475286
-0.14273281 0.6992333 -0.0015293657 -0.11125581 0.19297709 0.16902936 0.066893965 0.35912135
0.013327063 0.15969671 -0.16692069
