app/ml_models/rnn/2021_straattaal_epoch200.pt (torch, 277513 bytes, 13 tensors)

_embedding.weight f4 [61, 61]
0	0x3f800000	1.0
1	0x00000000	0.0
2	0x00000000	0.0
3	0x00000000	0.0
4	0x00000000	0.0
5	0x00000000	0.0
6	0x00000000	0.0
7	0x00000000	0.0
8	0x00000000	0.0
9	0x00000000	0.0
10	0x00000000	0.0
11	0x00000000	0.0
12	0x00000000	0.0
13	0x00000000	0.0
14	0x00000000	0.0
15	0x00000000	0.0
16	0x00000000	0.0
17	0x00000000	0.0
18	0x00000000	0.0
19	0x00000000	0.0
20	0x00000000	0.0
21	0x00000000	0.0
22	0x00000000	0.0
23	0x00000000	0.0
24	0x00000000	0.0
25	0x00000000	0.0
26	0x00000000	0.0
27	0x00000000	0.0
28	0x00000000	0.0
29	0x00000000	0.0
30	0x00000000	0.0
31	0x00000000	0.0
32	0x00000000	0.0
33	0x00000000	0.0
34	0x00000000	0.0
35	0x00000000	0.0
36	0x00000000	0.0
37	0x00000000	0.0
38	0x00000000	0.0
39	0x00000000	0.0
40	0x00000000	0.0
41	0x00000000	0.0
42	0x00000000	0.0
43	0x00000000	0.0
44	0x00000000	0.0
45	0x00000000	0.0
46	0x00000000	0.0
47	0x00000000	0.0
48	0x00000000	0.0
49	0x00000000	0.0
50	0x00000000	0.0
51	0x00000000	0.0
52	0x00000000	0.0
53	0x00000000	0.0
54	0x00000000	0.0
55	0x00000000	0.0
56	0x00000000	0.0
57	0x00000000	0.0
58	0x00000000	0.0
59	0x00000000	0.0
60	0x00000000	0.0
61	0x00000000	0.0
62	0x3f800000	1.0
63	0x00000000	0.0
64	0x00000000	0.0
65	0x00000000	0.0
66	0x00000000	0.0
67	0x00000000	0.0
68	0x00000000	0.0
69	0x00000000	0.0
70	0x00000000	0.0
71	0x00000000	0.0
72	0x00000000	0.0
73	0x00000000	0.0
74	0x00000000	0.0
75	0x00000000	0.0
76	0x00000000	0.0
77	0x00000000	0.0
78	0x00000000	0.0
79	0x00000000	0.0
80	0x00000000	0.0
81	0x00000000	0.0
82	0x00000000	0.0
83	0x00000000	0.0
84	0x00000000	0.0
85	0x00000000	0.0
86	0x00000000	0.0
87	0x00000000	0.0
88	0x00000000	0.0
89	0x00000000	0.0
90	0x00000000	0.0
91	0x00000000	0.0
92	0x00000000	0.0
93	0x00000000	0.0
94	0x00000000	0.0
95	0x00000000	0.0
96	0x00000000	0.0
97	0x00000000	0.0
98	0x00000000	0.0
99	0x00000000	0.0
100	0x00000000	0.0
101	0x00000000	0.0
102	0x00000000	0.0
103	0x00000000	0.0
104	0x00000000	0.0
105	0x00000000	0.0
106	0x00000000	0.0
107	0x00000000	0.0
108	0x00000000	0.0
109	0x00000000	0.0
110	0x00000000	0.0
111	0x00000000	0.0
112	0x00000000	0.0
113	0x00000000	0.0
114	0x00000000	0.0
115	0x00000000	0.0
116	0x00000000	0.0
117	0x00000000	0.0
118	0x00000000	0.0
119	0x00000000	0.0
120	0x00000000	0.0
121	0x00000000	0.0
122	0x00000000	0.0
123	0x00000000	0.0
124	0x3f800000	1.0
125	0x00000000	0.0
126	0x00000000	0.0
127	0x00000000	0.0
128	0x00000000	0.0
129	0x00000000	0.0
130	0x00000000	0.0
131	0x00000000	0.0
132	0x00000000	0.0
133	0x00000000	0.0
134	0x00000000	0.0
135	0x00000000	0.0
136	0x00000000	0.0
137	0x00000000	0.0
138	0x00000000	0.0
139	0x00000000	0.0
140	0x00000000	0.0
141	0x00000000	0.0
142	0x00000000	0.0
143	0x00000000	0.0
144	0x00000000	0.0
145	0x00000000	0.0
146	0x00000000	0.0
147	0x00000000	0.0
148	0x00000000	0.0
149	0x00000000	0.0
150	0x00000000	0.0
151	0x00000000	0.0
152	0x00000000	0.0
153	0x00000000	0.0
154	0x00000000	0.0
155	0x00000000	0.0
156	0x00000000	0.0
157	0x00000000	0.0
158	0x00000000	0.0
159	0x00000000	0.0
160	0x00000000	0.0
161	0x00000000	0.0
162	0x00000000	0.0
163	0x00000000	0.0
164	0x00000000	0.0
165	0x00000000	0.0
166	0x00000000	0.0
167	0x00000000	0.0
168	0x00000000	0.0
169	0x00000000	0.0
170	0x00000000	0.0
171	0x00000000	0.0
172	0x00000000	0.0
173	0x00000000	0.0
174	0x00000000	0.0
175	0x00000000	0.0
176	0x00000000	0.0
177	0x00000000	0.0
178	0x00000000	0.0
179	0x00000000	0.0
180	0x00000000	0.0
181	0x00000000	0.0
182	0x00000000	0.0
183	0x00000000	0.0
184	0x00000000	0.0
185	0x00000000	0.0
186	0x3f800000	1.0
187	0x00000000	0.0
188	0x00000000	0.0
189	0x00000000	0.0
190	0x00000000	0.0
191	0x00000000	0.0
192	0x00000000	0.0
193	0x00000000	0.0
194	0x00000000	0.0
195	0x00000000	0.0
196	0x00000000	0.0
197	0x00000000	0.0
198	0x00000000	0.0
199	0x00000000	0.0
200	0x00000000	0.0
201	0x00000000	0.0
202	0x00000000	0.0
203	0x00000000	0.0
204	0x00000000	0.0
205	0x00000000	0.0
206	0x00000000	0.0
207	0x00000000	0.0
208	0x00000000	0.0
209	0x00000000	0.0
210	0x00000000	0.0
211	0x00000000	0.0
212	0x00000000	0.0
213	0x00000000	0.0
214	0x00000000	0.0
215	0x00000000	0.0
216	0x00000000	0.0
217	0x00000000	0.0
218	0x00000000	0.0
219	0x00000000	0.0
220	0x00000000	0.0
221	0x00000000	0.0
222	0x00000000	0.0
223	0x00000000	0.0
224	0x00000000	0.0
225	0x00000000	0.0
226	0x00000000	0.0
227	0x00000000	0.0
228	0x00000000	0.0
229	0x00000000	0.0
230	0x00000000	0.0
231	0x00000000	0.0
232	0x00000000	0.0
233	0x00000000	0.0
234	0x00000000	0.0
235	0x00000000	0.0
236	0x00000000	0.0
237	0x00000000	0.0
238	0x00000000	0.0
239	0x00000000	0.0
240	0x00000000	0.0
241	0x00000000	0.0
242	0x00000000	0.0
243	0x00000000	0.0
244	0x00000000	0.0
245	0x00000000	0.0
246	0x00000000	0.0
247	0x00000000	0.0
248	0x3f800000	1.0
249	0x00000000	0.0
250	0x00000000	0.0
251	0x00000000	0.0
252	0x00000000	0.0
253	0x00000000	0.0
254	0x00000000	0.0
255	0x00000000	0.0

lstm.weight_ih_l0 f4 [128, 61]
0	0x3d800d62	0.062525526
1	0xbd717927	-0.05895343
2	0xbda87d49	-0.08227021
3	0xbba62627	-0.005070466
4	0x3d443b81	0.04790831
5	0xbdad316e	-0.084566936
6	0x3d814b5a	0.063132
7	0xbd2910d0	-0.0412758
8	0xbd480750	-0.0488351
9	0xbd81e48d	-0.06342421
10	0x3d00efc7	0.03147867
11	0x3d926ac5	0.07149271
12	0x3d7c7bef	0.06164163
13	0xbc3926a6	-0.011300718
14	0x3fb79a2a	1.4343922
15	0xbd1b2838	-0.037880152
16	0x3f0fd67c	0.5618665
17	0x3e88483b	0.26617607
18	0x3e9b26fb	0.30303177
19	0x3eb4616f	0.35230586
20	0x3db6e56b	0.08930477
21	0xbf3a750d	-0.72834855
22	0xbed864c7	-0.42264387
23	0xbf00681d	-0.50158864
24	0x3e353222	0.17694905
25	0x3f1b68e0	0.607069
26	0xbf55e703	-0.8355562
27	0xbcd41b43	-0.025891906
28	0xbc6aafb3	-0.0143241165
29	0x3d8cb29e	0.06870006
30	0xbd280368	-0.041018873
31	0xbf38deda	-0.72215044
32	0xbedd47db	-0.43218884
33	0x3c6c0812	0.014406221
34	0x3d02bdff	0.031919476
35	0x3ea9108f	0.33020446
36	0x3b9cf344	0.0047897417
37	0xbe8ea84b	-0.27862772
38	0xbdc7f4b9	-0.09763474
39	0x3dd1b084	0.10238746
40	0x3d268b1a	0.04066
41	0xbb6216fd	-0.0034498565
42	0xbd315137	-0.043290343
43	0x3cba8b4c	0.0227715
44	0x3c6fd9a6	0.014639294
45	0x3ce50e82	0.02796102
46	0xbd86b95b	-0.065783225
47	0x3ccb088c	0.024784349
48	0x39e5149b	0.00043693636
49	0x3cc1bab3	0.023648595
50	0x3d931b4c	0.07182941
51	0x3d9de468	0.07709581
52	0x3cb05e6d	0.0215294
53	0xbd35797a	-0.044305302
54	0xbcd59b1c	-0.026074938
55	0xbbc96f71	-0.006147318
56	0xbaf5a630	-0.0018741544
57	0x3d3f739a	0.046741106
58	0x39d3fd08	0.0004043358
59	0xbd870e3d	-0.065945126
60	0xbd533e8b	-0.051573317
61	0x3d8f43ab	0.069953285
62	0x3b68fca2	0.0035550972
63	0xbb47b20d	-0.0030471117
64	0xbc040847	-0.008058614
65	0x3d590b4d	0.052989293
66	0xbbec21da	-0.007206184
67	0xbd9a7aec	-0.07542977
68	0xbd3117b8	-0.04323551
69	0x3c8116ca	0.015757937
70	0x3c25202b	0.01007847
71	0x3d72933b	0.05922244
72	0x3da152ad	0.07877097
73	0xbd19d727	-0.0375587
74	0xbb17ae97	-0.0023144835
75	0x3fab746a	1.3394902
76	0xbed7e1db	-0.42164502
77	0xbf22e4ee	-0.6363057
78	0x3e895634	0.2682358
79	0x3fc82cc8	1.5638666
80	0xbee4fba7	-0.44723246
81	0xbe9342f1	-0.2876201
82	0x3d97ee1e	0.07418464
83	0xbf824163	-1.0176204
84	0xbddeaabb	-0.10872408
85	0xbf398ee7	-0.72483677
86	0xbf6b6bfa	-0.91961634
87	0xbf2c372f	-0.67271703
88	0xbc828ad9	-0.015935348
89	0x3eb2ed41	0.34946635
90	0xbef9b90e	-0.48773998
91	0x3bc66068	0.006053973
92	0x3f14a41e	0.5806292
93	0x3f0c232b	0.5474116
94	0xbe1e395f	-0.15451573
95	0x3e407ee0	0.18798399
96	0x3c452379	0.012032383
97	0x3f0afcb9	0.54291874
98	0x3e2c05de	0.16799113
99	0xbd3c0032	-0.045898624
100	0x3e86a1db	0.2629536
101	0xbd1b69a6	-0.03794255
102	0xbccee90f	-0.025257615
103	0x3d7d7c32	0.06188602
104	0x3c9bb70e	0.019008186
105	0xbe8071bb	-0.2508677
106	0x3d5fbe25	0.054624695
107	0xbdb4a280	-0.08820057
108	0x3dac6bb1	0.08418978
109	0x3d43cf1c	0.047804937
110	0xbbf57b52	-0.0074915076
111	0x3d9a4f71	0.075346835
112	0xbd806a0a	-0.06270225
113	0xbda43d50	-0.08019507
114	0x3dabf882	0.083970085
115	0xbd4f6005	-0.05062868
116	0x3d831b42	0.064016834
117	0xbc26c453	-0.010178643
118	0x3cb36d15	0.0219026
119	0x3d6a2012	0.05715949
120	0x3d93fd93	0.072261
121	0x3da04ef9	0.07827563
122	0x3d72ced4	0.059279278
123	0x3bbc5027	0.0057468596
124	0xbda08795	-0.0783836
125	0x3d3346bb	0.043768626
126	0xbd8717d2	-0.0659634
127	0xbcbd577c	-0.023113005
128	0xbd14ca84	-0.036325946
129	0xbd831760	-0.06400943
130	0x3d90070d	0.07032595
131	0x3c0562b7	0.008141211
132	0xbb250864	-0.0025182003
133	0xbcbf2632	-0.023333643
134	0x3d0914ba	0.033467032
135	0x3db2eef8	0.08736986
136	0xbf15a38c	-0.5845268
137	0x3dd3f068	0.10348588
138	0xbe0232dd	-0.12714715
139	0x3d3507f0	0.044197023
140	0x3f9cf60b	1.2262586
141	0xbf3efed7	-0.74607605
142	0x3f058322	0.5215322
143	0x3e66c2a8	0.22535193
144	0x3dd7abc0	0.105308056
145	0xbf1d104a	-0.6135298
146	0x3f1f6d29	0.6227594
147	0xbf171be7	-0.5902695
148	0x3e8ab28e	0.2708935
149	0xbe500ea6	-0.20318088
150	0xbfa54d80	-1.2914276
151	0x3ed4d32c	0.4156736
152	0x3d318a37	0.043344703
153	0xbe8c2ae5	-0.27376476
154	0x3e97689d	0.29572
155	0x3ebfce4f	0.37462088
156	0x3e6e7e83	0.23290448
157	0x3e1fcb43	0.15604882
158	0x3ea48127	0.32129785
159	0xbd65a865	-0.056068797
160	0xbe43caff	-0.19120406
161	0xbc39c768	-0.011339046
162	0x3d4b8995	0.049691755
163	0xbc4f8620	-0.012666255
164	0x3c0d1a98	0.0086122975
165	0xbcfb0960	-0.030644119
166	0x3c856fa5	0.016288588
167	0x3ce92af3	0.028462863
168	0x3d853701	0.06504632
169	0xbd12d6b9	-0.035849307
170	0x3d28357d	0.041066635
171	0xbd4f5249	-0.050615583
172	0xbcb3cb91	-0.021947654
173	0x3d743922	0.0596248
174	0xbca8040c	-0.020509742
175	0x3cbc4aeb	0.022984942
176	0xbcde22fc	-0.027116291
177	0xbda96eec	-0.0827311
178	0x3d9d2e8f	0.07674896
179	0x3d5d93b8	0.054095954
180	0xbc425fa2	-0.011863621
181	0xbe769d32	-0.24083403
182	0x3ce08450	0.027406842
183	0xbd354b08	-0.04426101
184	0xbd8e8be1	-0.069602735
185	0xbda4d15f	-0.08047747
186	0xbd405d64	-0.046964064
187	0xbc9b76f4	-0.01897762
188	0x3d5a661d	0.05332004
189	0xbdac5ebc	-0.08416507
190	0xbc34d741	-0.011037649
191	0xbaff8892	-0.0019495657
192	0xbd82b270	-0.063816905
193	0xbd17cfc5	-0.03706338
194	0xbd3f8099	-0.0467535
195	0xbbe5c84d	-0.007012403
196	0x3da2d08c	0.079499334
197	0x3f8a0989	1.078416
198	0x3eda1dbf	0.4260082
199	0xbeb32aa6	-0.34993476
200	0x3ebcf36e	0.36904472
201	0x3e3d7572	0.18501833
202	0xbf1f0ddc	-0.6213052
203	0x3f22b5a5	0.6355842
204	0xbef7a9c5	-0.4837171
205	0xbeec8dab	-0.46201834
206	0xbf632a6d	-0.8873661
207	0xbf870ac1	-1.0550157
208	0xbd1528fd	-0.036416043
209	0x3f846e46	1.0346153
210	0xbf89df37	-1.0771245
211	0xbf575fc5	-0.8413051
212	0x3f5d23a0	0.86382484
213	0xbc5fd56a	-0.013661722
214	0x3d905cbb	0.07048937
215	0x3ecb1545	0.39664665
216	0x3f6f42c3	0.93461245
217	0xbdf66542	-0.12031032
218	0x3e9be6c7	0.30449507
219	0xbe6548f0	-0.22391105
220	0xbd6bcd06	-0.057568572
221	0xbe46f632	-0.19429854
222	0x3d8e8564	0.06959036
223	0x3b0fe4e7	0.0021956505
224	0x3cfaca88	0.030614153
225	0x3d0c34df	0.03423011
226	0x3d5823ae	0.0527684
227	0xbe3c6e35	-0.18401416
228	0x3d15b83f	0.036552664
229	0x3da4fbcd	0.0805584
230	0x3d81e437	0.06342357
231	0xbc9eada0	-0.0193699
232	0xbd7c80a7	-0.06164613
233	0x3ce16b56	0.027517002
234	0xbda17627	-0.07883864
235	0x3d6a5b7b	0.05721615
236	0x3c135c0f	0.008994116
237	0x3d3dc51e	0.046330564
238	0xbd81bfd8	-0.063354194
239	0x3d1fdc64	0.03902854
240	0xbdb01e25	-0.085994996
241	0x3d69c7b2	0.05707521
242	0xbddd735a	-0.10813017
243	0x3c16b56d	0.009198529
244	0x3da36141	0.07977534
245	0x3b870ced	0.004121414
246	0x3b410034	0.0029449584
247	0x3db4a51f	0.08820557
248	0xbcd88a90	-0.02643326
249	0x3d7426ef	0.059607442
250	0x3d8bbacd	0.06822739
251	0xbd306d0b	-0.04307274
252	0x3d2e5a9d	0.042566884
253	0x3d189a5b	0.03725658
254	0x3d99dea9	0.07513172
255	0xbda1e7fa	-0.07905574

lstm.weight_hh_l0 f4 [128, 128]
0	0x3b48775a	0.0030588717
1	0x3e71d28d	0.23615475
2	0x3de47d22	0.1115668
3	0x3e52f3b6	0.20600781
4	0xbe874590	-0.2642026
5	0x3e1097d5	0.1412042
6	0xbd5893e9	-0.052875433
7	0xbe861ea3	-0.2619525
8	0x3e3e4ce8	0.18584025
9	0xbdb90d8b	-0.09035786
10	0x3e4099d8	0.18808687
11	0x3dbc0b84	0.09181884
12	0xbe65517b	-0.22394364
13	0xbd73e43e	-0.05954384
14	0x3e95e854	0.29278815
15	0x3d049712	0.032370634
16	0x3cf20f00	0.029548168
17	0xbe91f328	-0.28505826
18	0x3e37861e	0.17922255
19	0xbe15d849	-0.14633287
20	0x3c79d952	0.015249567
21	0x3e27e47b	0.16395752
22	0xbdbb9374	-0.09158984
23	0xbe4904fe	-0.1963081
24	0xbe12f77d	-0.14352222
25	0x3d774aa6	0.060373925
26	0xba850a45	-0.0010150155
27	0xbe76b54f	-0.24092601
28	0xbd7742ec	-0.060366556
29	0xbdca9de0	-0.098933935
30	0x3e97cb2a	0.2964719
31	0xbd7618d2	-0.060082264
32	0x3e04eb0b	0.12980287
33	0xbd039a27	-0.032129433
34	0x3dbbef9b	0.091765605
35	0xbc93c5f8	-0.018038735
36	0x3d70fe61	0.058836345
37	0xbd3712fb	-0.044695836
38	0x3e5efee5	0.21776922
39	0x3d786679	0.0606446
40	0x3db377c6	0.08763079
41	0xbe398b22	-0.18119481
42	0xbe38352c	-0.17989033
43	0xbcf55acd	-0.029950524
44	0x3d885959	0.06657667
45	0xbe698776	-0.2280558
46	0x3e582639	0.21108331
47	0xbd6164e1	-0.055027846
48	0x3eaf8e7d	0.34288397
49	0xbe39f4a4	-0.18159729
50	0x3a885fa9	0.0010404486
51	0x3e347d5a	0.17625943
52	0x3d9f5b10	0.07781041
53	0xbda19b20	-0.07890916
54	0x3c984262	0.018586341
55	0x3d3e7501	0.046498302
56	0x3e56106e	0.20904705
57	0xbddaa129	-0.1067527
58	0xbcbaaa7e	-0.022786375
59	0xbe55a428	-0.20863402
60	0x3d26d7dd	0.040733207
61	0xbe1e7e20	-0.154778
62	0xbe06bd6a	-0.13158193
63	0xbdcca496	-0.0999233
64	0x3e22ad9f	0.15886544
65	0xbe416d60	-0.1888938
66	0x3a4ed834	0.0007890493
67	0xbd540625	-0.051763672
68	0xbdcbf78a	-0.09959324
69	0x3e43ca14	0.19120055
70	0xbd28651a	-0.041112043
71	0x3e4ded92	0.20110157
72	0xbaecf4de	-0.0018078347
73	0x3db40a93	0.08791079
74	0x3d7e4da7	0.062085774
75	0x3e9f16ad	0.31071988
76	0xbe88aeca	-0.26695853
77	0x3e1fb5c3	0.1559668
78	0x3da3e5b4	0.08002797
79	0x3f16d1a6	0.5891365
80	0x3d22c996	0.03974303
81	0xbdbbc019	-0.09167499
82	0xbdf410d3	-0.119172715
83	0xbe3736d2	-0.17892006
84	0x3d5423c7	0.051791932
85	0xbde52b6b	-0.11189922
86	0xbda3ad30	-0.07992017
87	0x3d0802b2	0.033205695
88	0xbd31a541	-0.04337049
89	0x3d2c72ea	0.042101778
90	0xbd12844c	-0.0357707
91	0xbe595a7e	-0.21225926
92	0x3ed54c3f	0.41659734
93	0x3df219aa	0.11821301
94	0x3e518474	0.20460683
95	0xbead74cd	-0.33878174
96	0xbeb3ae65	-0.3509399
97	0x3dd68994	0.1047546
98	0xbe0986d0	-0.13430333
99	0xbe850ec5	-0.2598783
100	0xbe39afd6	-0.18133482
101	0xbdc5e9a8	-0.09663707
102	0xbf077236	-0.5290865
103	0x3decbaee	0.115590915
104	0x3e01b2a8	0.12665808
105	0xbdbefd59	-0.09325666
106	0xbe84e7ec	-0.25958192
107	0xbd40e133	-0.047089767
108	0x3e4fb253	0.20282869
109	0x3d22ec7e	0.039776318
110	0x3dce6424	0.10077694
111	0xbe22e6fe	-0.15908429
112	0xbe94c007	-0.29052755
113	0x3e357cf4	0.17723447
114	0xbe4b3909	-0.19845976
115	0x3d84b67a	0.06480117
116	0x3d582817	0.052772608
117	0x3e152046	0.14563093
118	0x3e863cfb	0.262184
119	0x3c52006c	0.012817483
120	0xbe08f3b4	-0.13374215
121	0xbd835e6b	-0.06414493
122	0x3da2aa49	0.079426356
123	0x3c8f4a04	0.017491348
124	0xbc98fc45	-0.018674979
125	0x3e218a2d	0.15775366
126	0xbe3477bc	-0.176238
127	0x3d4884d1	0.04895479
128	0x3d9ca950	0.07649481
129	0xbea19536	-0.3155915
130	0xbdbc7dff	-0.09203719
131	0x3d81229a	0.06305428
132	0x3dee7c0f	0.11644756
133	0x3e1c7d6d	0.15282221
134	0xbe66d4db	-0.22542135
135	0x3e1d3b67	0.15354691
136	0x3e0a4269	0.13501896
137	0x3e20863e	0.1567621
138	0xbe979773	-0.29607734
139	0xbc406213	-0.011742133
140	0xbe6963f2	-0.22792032
141	0xbe2558de	-0.16147181
142	0x3e070b46	0.13187894
143	0xbf0663c2	-0.5249597
144	0x3d07d16b	0.0331587
145	0xbe65346d	-0.2238328
146	0x3e192df4	0.14958936
147	0xbdb1ddec	-0.08684906
148	0x3c299e5a	0.010352695
149	0xbd7107fa	-0.058845498
150	0xbe9282b5	-0.28615347
151	0xbebe8044	-0.37207234
152	0xbe346aae	-0.1761882
153	0xbd2f5001	-0.042800907
154	0xbd135e90	-0.035978854
155	0x3d1da627	0.038488533
156	0x3d539fb8	0.05166599
157	0xbd0e2461	-0.034702662
158	0xbde31c66	-0.11089401
159	0x3e33b469	0.1754929
160	0xbcc9cc0b	-0.024633428
161	0x3d9bc75c	0.07606384
162	0x3db08638	0.0861935
163	0xbe631e3f	-0.22179507
164	0xbe12bc3e	-0.14329621
165	0x3e101380	0.14069939
166	0xbe9721f8	-0.29518104
167	0xbd5fcc74	-0.05463834
168	0x3d8e49e6	0.06947689
169	0xbe2f67ff	-0.17129515
170	0xbd86ca9b	-0.06581613
171	0x3e0707b4	0.13186532
172	0xbe3c47ff	-0.1838684
173	0x3dbdaade	0.09261106
174	0x3e0007af	0.12502931
175	0x3ec90dd1	0.39268354
176	0x3e5f4051	0.21801879
177	0x3cbf8ee4	0.023383565
178	0x3eb9ef55	0.36315408
179	0x3da9b3ed	0.08286271
180	0x3d8e11e5	0.06937007
181	0x3a0e56eb	0.0005429822
182	0x3d0b43b3	0.03400011
183	0x3e054ec6	0.13018331
184	0x3d0679d5	0.03283103
185	0x3cb9448d	0.022615695
186	0xbc8999df	-0.016797004
187	0xbe24a6f9	-0.1607932
188	0xbe3193ab	-0.17341487
189	0xbe5db5a3	-0.2165132
190	0x3dae816a	0.085207775
191	0x3e03bef0	0.12865806
192	0x3e02b250	0.12763333
193	0x3c4d949e	0.01254764
194	0x3e80af15	0.25133577
195	0xbeaa852a	-0.3330472
196	0xbe6c99b5	-0.2310551
197	0x3deb680c	0.11494455
198	0xbe8429ea	-0.25813228
199	0x3e20891f	0.15677308
200	0x3d05423e	0.032533877
201	0xbce4b86b	-0.027919969
202	0x3c10cf81	0.008838535
203	0xbe65e216	-0.22449526
204	0xbe5b173e	-0.21395585
205	0x3ddacdf8	0.10683817
206	0x3d0c86e5	0.034308333
207	0x3ece9601	0.4034882
208	0xbc80c7ff	-0.015720366
209	0xbda39894	-0.07988086
210	0xbd0dc77d	-0.034614075
211	0x3e4e21cd	0.20130081
212	0x3cbfaf0e	0.023398902
213	0x3d4a37ba	0.04936955
214	0x3e8e5c2a	0.2780469
215	0xbdaa3422	-0.08310725
216	0x3deaa1e0	0.114566565
217	0x3e1ea57f	0.15492819
218	0x3cdd5ee0	0.027022779
219	0x3e062cf9	0.13103093
220	0x3e2c1dc4	0.1680823
221	0x39450e3a	0.00018792684
222	0xbd860cb8	-0.06545395
223	0x3e098b6d	0.13432093
224	0x3de2a803	0.11067202
225	0xbd839ae8	-0.064260304
226	0x3d144c83	0.03620578
227	0xbd970d39	-0.07375569
228	0x3eb1de39	0.34739855
229	0xbce2c03c	-0.027679555
230	0x3da51395	0.080603756
231	0x3e502762	0.20327523
232	0xbe83c3ac	-0.25735223
233	0x3e216899	0.15762557
234	0xbdce0208	-0.10058981
235	0x3e189680	0.14901161
236	0x3d844f56	0.06460445
237	0xbe053bd4	-0.13011104
238	0x3d831175	0.06399814
239	0x3e0b69c9	0.13614573
240	0x3a21fa11	0.00061789254
241	0xbe32ec2c	-0.17472905
242	0xbc2cd6d4	-0.010549266
243	0xbe722666	-0.2364746
244	0x3c835a5a	0.016034294
245	0x3cd0c4fe	0.025484558
246	0xbda8a2b6	-0.0823416
247	0xbd2cca7d	-0.042185295
248	0xbdd73da6	-0.105098054
249	0x3da5900d	0.08084116
250	0xbd3fe274	-0.046846822
251	0x3dfc4db8	0.12319511
252	0xbeb51175	-0.3536488
253	0xbe1c1f2a	-0.15246263
254	0x3e0e7f08	0.13915646
255	0x3ce3fd42	0.027830724

lstm.bias_ih_l0 f4 [128]
0	0x3c079332	0.00827484
1	0xbd1dcace	-0.038523488
2	0x3df342ff	0.11878013
3	0x3b816bb7	0.003949608
4	0xbe88deb4	-0.2673241
5	0x3e4ece81	0.20195962
6	0x3e19dab7	0.1502484
7	0xbd9f68dd	-0.07783673
8	0xbd2f1d24	-0.0427524
9	0x3de9091e	0.11378692
10	0xbd0261ae	-0.031831436
11	0xbd93c3d8	-0.072150886
12	0xbd91a0f0	-0.071107745
13	0x3cd4baa5	0.025967905
14	0xbd019d97	-0.03164443
15	0xbdfb18f2	-0.12260617
16	0x3bb20f66	0.0054339645
17	0x3d0df440	0.034656763
18	0x3cbb2366	0.022844028
19	0x3e0e989c	0.13925403
20	0xbde08cb1	-0.10964335
21	0x3d117596	0.03551253
22	0xbe28b336	-0.16474614
23	0x3d0d7e69	0.034544382
24	0x3c1efc91	0.009703771
25	0xbc9910c4	-0.018684752
26	0x3e36fa27	0.17868863
27	0xbd28591b	-0.041100603
28	0xbdb42d4e	-0.08797704
29	0xbe15fdb2	-0.14647558
30	0xbdea5158	-0.11441296
31	0x3e8b271c	0.27178276
32	0xbe43e718	-0.19131124
33	0xbe5e91ec	-0.21735352
34	0x3b8a4ac6	0.0042203395
35	0x3d982bc3	0.07430222
36	0x3e4e2bb6	0.20133862
37	0xbd6ca1ff	-0.05777168
38	0xbc4760f9	-0.012169116
39	0x3e1c9d71	0.15294434
40	0xbd96efe3	-0.073699735
41	0x3d7c8fc7	0.061660554
42	0xbd3cd611	-0.046102587
43	0x3e5fda50	0.21860623
44	0x3cec0ea3	0.028815573
45	0x3c981909	0.018566625
46	0xbd02828a	-0.031862773
47	0x3d51e00a	0.05123905
48	0xbda946d2	-0.08265461
49	0x3e39b11a	0.18133965
50	0x3d8b82f1	0.068120845
51	0xbcd62e69	-0.026145177
52	0x3daca81b	0.08430501
53	0xbd53f496	-0.051746927
54	0x3d79e293	0.061007094
55	0xbe84b18d	-0.2591671
56	0xbdcde6f1	-0.10053814
57	0xbcf995b2	-0.030466888
58	0x3e243731	0.16036679
59	0xbe71e4d3	-0.23622446
60	0xbca22bf1	-0.019796344
61	0xbe1e5c99	-0.1546501
62	0xbe4585ad	-0.19289275
63	0xbe55011b	-0.20801203
64	0xbe633124	-0.22186714
65	0x3dced289	0.1009875
66	0xbe07eb10	-0.13273263
67	0xbd9d16be	-0.07670353
68	0x3e17b44a	0.14814869
69	0x3e2d8a41	0.16947271
70	0xbd8dbf37	-0.06921237
71	0xbe8502f7	-0.25978824
72	0xbda92cba	-0.08260484
73	0x3d72282e	0.05912035
74	0x3c73118d	0.014835727
75	0xbb934876	-0.004494722
76	0x3dec2ef1	0.11532391
77	0xbdbba297	-0.09161871
78	0xbdd86408	-0.105659544
79	0xbcf3e1a0	-0.029770672
80	0xbdc552a1	-0.09634901
81	0xbe01b4b6	-0.12666592
82	0xbda510de	-0.08059858
83	0xbd6bacf1	-0.057537977
84	0x3dc397e7	0.095504574
85	0x3e9c433e	0.30520052
86	0x3dca2c9f	0.09871792
87	0x3d6cbfac	0.05779998
88	0x3e66ba63	0.22532038
89	0x3cab33be	0.020898696
90	0xbe514e83	-0.20440106
91	0x3d05ce8b	0.032667678
92	0x3c4752f7	0.012165776
93	0x3cca69e5	0.024708698
94	0x3d8b72ef	0.06809031
95	0xbe10374a	-0.14083591
96	0x3e5d7f39	0.21630563
97	0xbdf51432	-0.119667426
98	0xbdde421a	-0.108524516
99	0x3e12161d	0.14266248
100	0xbdd808c1	-0.10548545
101	0xbd9fbc17	-0.07799547
102	0xbda26c60	-0.07930827
103	0xbe07d73e	-0.13265702
104	0x3e21b8c4	0.15793139
105	0x3d164e9f	0.036696073
106	0xbda117fd	-0.078659035
107	0xbcea5f0d	-0.028609777
108	0x3dafde68	0.085873425
109	0x3e09fd0f	0.1347544
110	0x3e14cb4c	0.14530677
111	0x3d5ba1fb	0.053621273
112	0x3e910c24	0.28329575
113	0x3d221e0b	0.039579432
114	0x3da3b850	0.07994139
115	0xbda62775	-0.081129946
116	0x3e3a34ed	0.18184252
117	0xbcbcbec2	-0.02304018
118	0xbd7e93d7	-0.06215271
119	0x3e279e31	0.16368939
120	0xbcd90af8	-0.026494488
121	0xbc8e06f3	-0.017337298
122	0x3c06403f	0.008194028
123	0x3de8d369	0.11368448
124	0x3dd13521	0.10215212
125	0x3df86008	0.121276915
126	0xbe21d5ab	-0.15804164
127	0x3acf3f6d	0.0015811749

lstm.bias_hh_l0 f4 [128]
0	0x3d1520a9	0.0364081
1	0xbd1efb92	-0.038814135
2	0x3d64b300	0.05583477
3	0x3e13b057	0.14422737
4	0xbe80ac9c	-0.2513169
5	0x3e917e91	0.28416875
6	0x3e795329	0.2434813
7	0x3d264f65	0.04060306
8	0xbdd3c553	-0.10340371
9	0x3ce29808	0.027660385
10	0xbe25b610	-0.16182733
11	0xbd25e4dc	-0.04050146
12	0xbcc3cd92	-0.023901735
13	0x3c064976	0.008196225
14	0x3d5ebd9e	0.05438005
15	0xbdd94aa8	-0.10609943
16	0x3cc79c6e	0.024366584
17	0x3d117bae	0.03551834
18	0xbdd20630	-0.102550864
19	0x3d53a9ab	0.05167548
20	0xbdf10745	-0.11768965
21	0xbc81b24f	-0.015832094
22	0xbdb9ab8b	-0.09065922
23	0x3dc7bb6d	0.097525455
24	0x3c81434b	0.015779158
25	0x3d8a0c83	0.06740668
26	0x3e0c5bd5	0.13706906
27	0xbbaaaea3	-0.0052088066
28	0xbd82e72b	-0.06391748
29	0xbd8317f4	-0.06401053
30	0xbdcad5ea	-0.09904082
31	0x3e0b58de	0.13608119
32	0xbe2dd07d	-0.16974063
33	0xbdb0946f	-0.086220615
34	0xbd66c6ce	-0.05634194
35	0x3cc36abc	0.023854606
36	0x3dbe96d3	0.09306111
37	0xbe1c18fd	-0.15243907
38	0xbdbf6a97	-0.09346502
39	0x3cd3c567	0.025850965
40	0xbd6a1bf3	-0.05715556
41	0x3e35de84	0.17760664
42	0x3d8fee72	0.07027902
43	0x3e61121f	0.21979569
44	0x3c54f328	0.012997426
45	0x3d8e3357	0.06943386
46	0x3c15fc3d	0.009154377
47	0xbd1009ce	-0.0351656
48	0xbe09447d	-0.13405032
49	0x3d39f16e	0.04539626
50	0x3dcc4ee4	0.09975985
51	0x3e026e99	0.12737502
52	0x3d91aa62	0.07112576
53	0xbc691b7c	-0.014227744
54	0x3d529168	0.0514082
55	0xbdfd5a03	-0.12370684
56	0xbd78b0af	-0.060715374
57	0xbc03172e	-0.008001132
58	0x3ced4e6f	0.028968064
59	0xbe664ede	-0.22491023
60	0xbd48b1fa	-0.048997857
61	0xbe6a9766	-0.22909316
62	0xbdaf729a	-0.085667804
63	0xbe440083	-0.1914082
64	0xbe22059e	-0.15822455
65	0x3dc09e45	0.094051875
66	0xbce60f9c	-0.028083615
67	0x3ce1c08e	0.027557638
68	0x3e086773	0.13320713
69	0x3e24e017	0.16101108
70	0xbdf5ecf3	-0.12008085
71	0xbe07e96a	-0.13272634
72	0xbe2cf784	-0.16891295
73	0x3c232d80	0.0099595785
74	0xbd41815f	-0.04724252
75	0xbda806b2	-0.08204402
76	0x3e557246	0.20844373
77	0xbdeae0ed	-0.114686824
78	0xbd8c8736	-0.06861727
79	0xbcf3b474	-0.029749133
80	0xbdce86fe	-0.100843415
81	0x3bd77455	0.006575147
82	0xbdd73527	-0.10508185
83	0xbe3c47be	-0.18386742
84	0x3dc609d0	0.0966984
85	0x3e1dc2e0	0.1540637
86	0x3d2b43cf	0.041812714
87	0x3d5fdd19	0.054654215
88	0x3e91c32b	0.28469214
89	0x3d70ea34	0.058817104
90	0xbdc8edc2	-0.09810974
91	0xbde1d850	-0.110275865
92	0xbd4573e5	-0.04820623
93	0x3d081811	0.033226077
94	0x3ca88576	0.020571452
95	0xbca4d863	-0.020122712
96	0x3e0fcb89	0.14042486
97	0xbd20fd2a	-0.039303936
98	0xbcff2736	-0.031146627
99	0x3dcbf202	0.09958269
100	0xbd9f2a79	-0.07771773
101	0xbe476cac	-0.19475049
102	0xbe539391	-0.20661761
103	0xbe53ba08	-0.20676434
104	0x3db94aba	0.09047456
105	0xbbcfcc31	-0.00634148
106	0xbd8fb7c5	-0.07017473
107	0xbdef366d	-0.11680303
108	0xbd299fb9	-0.04141209
109	0x3d742cf6	0.05961319
110	0x3dd407db	0.10353061
111	0x3d70389a	0.05864773
112	0x3e85a995	0.26105943
113	0xbcf74029	-0.030181961
114	0x3d852269	0.06500704
115	0x3c74b418	0.014935516
116	0x3e65e3fc	0.2245025
117	0xbd5d2857	-0.05399355
118	0x3a9be535	0.001189387
119	0x3d6fe9c5	0.05857255
120	0xbd078715	-0.03308781
121	0xbdd8c159	-0.10583753
122	0xbe183901	-0.14865495
123	0x3dba6b46	0.09102492
124	0x3d7aedfc	0.061262116
125	0x3e4d34c5	0.20039661
126	0xbded2e57	-0.11581104
127	0xbc985c96	-0.018598836

final.weight f4 [61, 128]
0	0x3d64ec2d	0.055889297
1	0x3cdaf183	0.02672649
2	0xbccccf6b	-0.025001248
3	0xbdf997cd	-0.12187157
4	0x3cd6a5ca	0.026202101
5	0x3d67a4fb	0.056553822
6	0xbda075c9	-0.07834966
7	0x3d3f1970	0.04665512
8	0xbc5047bd	-0.012712416
9	0xbe08f71b	-0.13375513
10	0x3d60414b	0.05474977
11	0xbe10e056	-0.14148077
12	0x3e0b8d60	0.13628149
13	0x3d2c4fe6	0.042068385
14	0xba525098	-0.00080228737
15	0xbbe667c2	-0.007031412
16	0xbd27c714	-0.04096134
17	0xbd0f6bce	-0.03501492
18	0xbd7aca48	-0.061228067
19	0xbe29aa63	-0.16568904
20	0xbbbadee5	-0.0057028406
21	0xbdcc8711	-0.099866994
22	0xbd094ccd	-0.03352051
23	0xbdfb4724	-0.12269428
24	0xbdbc9dcc	-0.09209785
25	0xbd610822	-0.054939397
26	0xbd973ea8	-0.073849976
27	0x3de4cb63	0.111716054
28	0x3d51aea1	0.05119193
29	0xbba9dd13	-0.005183825
30	0xbdcfe194	-0.101504475
31	0xbe38789c	-0.18014759
32	0x3d93a316	0.072088405
33	0xbcb52736	-0.022113424
34	0xbd88ebdc	-0.066856116
35	0xbe396ff8	-0.18109119
36	0xbe3a09e7	-0.1816784
37	0x3dd28fa0	0.102813005
38	0xbd63c662	-0.055609114
39	0xbdbf7eb5	-0.09350339
40	0x3e416c8b	0.18889062
41	0x3c8e5d11	0.017378362
42	0x3d389701	0.045065884
43	0xbd554bff	-0.05207443
44	0x3d3f6051	0.046722714
45	0xbde00e4f	-0.10940229
46	0x3e1303fd	0.1435699
47	0xbe34c3ae	-0.17652771
48	0x3e2729ce	0.16324541
49	0xbdf92830	-0.12165868
50	0xbda4effa	-0.080535844
51	0x3d709a1d	0.058740724
52	0xbd0036e8	-0.031302363
53	0xbc8ca893	-0.017170226
54	0xbd5c202a	-0.05374161
55	0x3d925e9d	0.07146952
56	0x3e3a66c5	0.18203266
57	0x3d2dd790	0.042441905
58	0x3cae40e9	0.021271186
59	0x3e1e2272	0.15442827
60	0x3e03151f	0.12801026
61	0x3d7e0bb4	0.06202288
62	0x3dce2161	0.1006496
63	0x3e085aa4	0.13315827
64	0x3dfca596	0.123362705
65	0x3d8cd141	0.068758495
66	0x3dd413dc	0.103553504
67	0xbd2bca9c	-0.04194127
68	0x3da5575a	0.080733016
69	0xbd4f219e	-0.05056917
70	0xbd13a18e	-0.036042742
71	0x3da42683	0.08015158
72	0x3d27e989	0.0409942
73	0x3e006509	0.12538542
74	0xbcdbf31c	-0.026849322
75	0xbc283090	-0.010265484
76	0xbdb39611	-0.08768857
77	0xbd8d9883	-0.06913855
78	0x3c44f50e	0.012021316
79	0x3d8f0920	0.06984162
80	0xbd3754c6	-0.04475858
81	0xbddae3db	-0.10687991
82	0xbc2fb085	-0.010723238
83	0x3c70daf9	0.014700645
84	0xbe01e341	-0.12684347
85	0xbe600d30	-0.2188003
86	0xbe1ea5a0	-0.15492868
87	0xbdfc796a	-0.123278454
88	0xbe58bdae	-0.21166107
89	0xbd82f9b4	-0.06395283
90	0x3e215d7f	0.15758322
91	0x3de951fe	0.11392592
92	0x3df0ab37	0.11751407
93	0xbd899166	-0.06717186
94	0xbca70d7e	-0.020392176
95	0xbda616b8	-0.08109802
96	0xbce657b7	-0.028117998
97	0x3dd3b8dd	0.10337994
98	0x3e365515	0.17805894
99	0xbdaad7ff	-0.08341979
100	0x3db22568	0.08698541
101	0x3e4ac3b2	0.19801214
102	0x3dc3cb4e	0.09560262
103	0x3dd008a9	0.10157902
104	0xbd03056a	-0.031987585
105	0x3d9bf70a	0.07615478
106	0x3d28b471	0.041187707
107	0x3dd0d8f7	0.10197633
108	0x3db941df	0.09045767
109	0x3cebc386	0.028779756
110	0xbe0bc764	-0.1365028
111	0x3d53a067	0.051666643
112	0xbe7a1367	-0.24421464
113	0xbdacc701	-0.084363945
114	0x3e0f6c11	0.14006068
115	0xbe0467e0	-0.1293025
116	0xbde7ecd2	-0.11324467
117	0xbd48e6d8	-0.049048275
118	0x3d28685b	0.041115146
119	0xbe216ebd	-0.157649
120	0x3d4a55bc	0.04939817
121	0xbce4e8f3	-0.02794311
122	0xbca5f324	-0.02025754
123	0xbd93e21c	-0.07220861
124	0xbd6c1e7c	-0.05764626
125	0x3c460858	0.01208695
126	0x3d6cee59	0.057844494
127	0x3d952438	0.07282299
128	0xbd2ad0c4	-0.041703
129	0x3d8bb35c	0.068213195
130	0xbdd41b36	-0.103567526
131	0xbd511c0a	-0.05105213
132	0x3cfa1321	0.0305267
133	0x3d3e65e8	0.046483904
134	0xbdbfe84e	-0.093704805
135	0x3d330793	0.043708395
136	0xbd042cfe	-0.03226947
137	0xbe01479f	-0.12624978
138	0x3d912b96	0.070883915
139	0xbd09953e	-0.033589594
140	0x3da31571	0.07963074
141	0x3daaca47	0.083393626
142	0xbd2d3b42	-0.04229284
143	0xbdc3dada	-0.09563227
144	0xbb3409d5	-0.002747168
145	0xbd8bf9ab	-0.0683473
146	0x3d83c5a2	0.0643418
147	0xbe7ef7eb	-0.2489926
148	0x3c3aadf8	0.011394016
149	0xbdce126f	-0.1006211
150	0xbdbd1a0f	-0.09233486
151	0xbb0dcd03	-0.002163709
152	0x3d824879	0.06361479
153	0xbd01ac60	-0.03165853
154	0xbdc674eb	-0.09690269
155	0x3d73114a	0.05934266
156	0x3e131e0c	0.1436693
157	0x3de75ff5	0.11297599
158	0x3ba6dd6e	0.0050923144
159	0xbe0305e4	-0.12795216
160	0x3e12b755	0.14327748
161	0xbd9a6487	-0.07538705
162	0x3c060dad	0.0081819715
163	0xbe080759	-0.13284053
164	0xbe4cb45a	-0.19990674
165	0x3e180943	0.14847283
166	0xbdea36e8	-0.11436254
167	0xbcf7b166	-0.030235957
168	0x3dbbfbc5	0.091788806
169	0x3bc52669	0.0060165417
170	0xbcecfa65	-0.028927991
171	0xbb9d53a9	-0.004801233
172	0xbc606881	-0.013696791
173	0x3c411ab2	0.01178615
174	0x3dbcd9f5	0.092212595
175	0xbdfcd0bf	-0.12344503
176	0x3dc726f3	0.09724226
177	0xbe2a6d49	-0.16643251
178	0xbdabc22e	-0.08386646
179	0x3ce9df36	0.028548818
180	0x3d2772bd	0.040880907
181	0xbd2816c9	-0.041037355
182	0xbdc623eb	-0.096748196
183	0x3e6438ba	0.22287264
184	0x3deb0934	0.11476365
185	0xbdd3a756	-0.10334651
186	0x3c1d35e8	0.009595372
187	0x3e04268f	0.12905334
188	0x3db1783d	0.08665512
189	0x3e4990aa	0.19684091
190	0x3ddb3177	0.10702794
191	0x3dc00a7a	0.09376998
192	0x3e50270e	0.20327398
193	0xbc9ab279	-0.01888393
194	0x3c6e2d69	0.014537194
195	0x3bf8337e	0.0075744977
196	0xbd7fe6aa	-0.062475838
197	0xbe59c21e	-0.21265456
198	0x3de295fd	0.11063764
199	0x3e3fd57f	0.18733786
200	0x3dae1cb0	0.085015655
201	0x3e562227	0.20911466
202	0xbcaa1f0f	-0.020766763
203	0xbced3fef	-0.02896115
204	0xbc2db560	-0.010602325
205	0x3d29a78e	0.04141956
206	0x3d179a2e	0.03701227
207	0xbc24f05e	-0.010067074
208	0xbbd17434	-0.0063920263
209	0xbd96659c	-0.07343599
210	0xbc0442b2	-0.008072542
211	0x3d85789b	0.06517144
212	0xbd87b599	-0.06626434
213	0xbdeed283	-0.11661246
214	0xbe01ff08	-0.12694943
215	0xbc596469	-0.013268569
216	0xbe56bb20	-0.2096982
217	0xbe5857cf	-0.21127246
218	0x3e67b319	0.22626914
219	0xbcbd309a	-0.023094464
220	0x3e02cf22	0.12774327
221	0xbdba24e7	-0.0908907
222	0x3c294b14	0.010332841
223	0xbc042271	-0.008064852
224	0xbd10c598	-0.03534469
225	0x3d9bb007	0.07601934
226	0x3e51937f	0.20466422
227	0xbcc2efa6	-0.023795914
228	0xbc540cec	-0.012942534
229	0x3e0cc56d	0.13747187
230	0x3d506986	0.050881885
231	0x3e2c8e64	0.16851193
232	0xbd44ee65	-0.048078913
233	0xbbd98135	-0.006637717
234	0xbc701429	-0.014653244
235	0x3d6f4921	0.05841935
236	0xbbfbc17a	-0.0076829763
237	0x3d1cd9bd	0.03829359
238	0xbdb4c202	-0.088260666
239	0x3dcbf03c	0.099579304
240	0xbdca040d	-0.09864054
241	0xbdb8ab18	-0.090170085
242	0x3d732da9	0.059369717
243	0x3cbe6bb7	0.023244722
244	0xbe1d0688	-0.15334523
245	0x3ce26934	0.027638055
246	0x3e171b2b	0.14756458
247	0xbc90b69c	-0.0176652
248	0x3df0422c	0.11731371
249	0xbdd818c4	-0.10551599
250	0xbdae4503	-0.08509257
251	0xbe6cd0f8	-0.2312659
252	0xbe064c37	-0.13115011
253	0xbc0107b0	-0.007875368
254	0x3dbab2cb	0.09116133
255	0x3defbfc8	0.11706501

final.bias f4 [61]
0	0xbf0a762b	-0.5408656
1	0xbee21b32	-0.44161373
2	0xbef925ff	-0.486618
3	0xbef71555	-0.48258463
4	0xbef424e6	-0.476844
5	0xbf101110	-0.56276035
6	0xbf03d9fe	-0.51504505
7	0xbeeee016	-0.4665534
8	0xbefc0d1b	-0.4922875
9	0xbee60362	-0.44924456
10	0xbed61b81	-0.4181786
11	0xbee68587	-0.45023748
12	0xbf05f76c	-0.5233066
13	0xbed0f71d	-0.40813532
14	0x3fe3887b	1.7776026
15	0x3fa68113	1.300814
16	0x3f4146df	0.75498766
17	0x3f5cd6ed	0.8626545
18	0x3f762bab	0.9616038
19	0x3f647463	0.8924009
20	0x3e954b96	0.2915923
21	0x3e8d36c9	0.2758086
22	0x3f74fe03	0.9570009
23	0x3eb7f1a5	0.35926548
24	0x3fa0e34e	1.2569368
25	0x3f4b5a70	0.7943487
26	0x3f3dadc0	0.74093246
27	0x3f778c07	0.9669804
28	0x3fc0a59b	1.5050539
29	0x3f61cc93	0.8820278
30	0xbf079b90	-0.52971745
31	0x3f1f346d	0.6218937
32	0x3f8345d0	1.025568
33	0x3f45ff4d	0.77342683
34	0x3eb1dffa	0.34741193
35	0x3e5594e1	0.20857574
36	0x3f166377	0.5874552
37	0xbece1b3d	-0.40255156
38	0xbf06a010	-0.52587986
39	0xbede0399	-0.4336212
40	0xbef9b668	-0.48771977
41	0xbeff5efd	-0.49877158
42	0xbee981da	-0.4560688
43	0xbee91047	-0.4552023
44	0xbd958eeb	-0.0730265
45	0xbee4ce71	-0.44688752
46	0xbefbfe4d	-0.49217454
47	0xbf02701b	-0.5095231
48	0xbeef79db	-0.46772656
49	0xbee892e5	-0.45424572
50	0xbf086abd	-0.5328787
51	0xbf00bffa	-0.50292933
52	0xbedd26c7	-0.43193647
53	0xbefb9375	-0.49135938
54	0xbf005a7b	-0.5013806
55	0xbf03963c	-0.51401114
56	0xbee7a31d	-0.45241633
57	0xbec4a1b7	-0.3840463
58	0xbf11bc4a	-0.5692793
59	0xbf045a52	-0.5170032
60	0xbecc1d70	-0.3986621

momentum_buffer f4 [128, 61]
0	0x00000000	0.0
1	0x00000000	0.0
2	0x00000000	0.0
3	0x00000000	0.0
4	0x00000000	0.0
5	0x00000000	0.0
6	0x00000000	0.0
7	0x00000000	0.0
8	0x00000000	0.0
9	0x00000000	0.0
10	0x00000000	0.0
11	0x00000000	0.0
12	0x00000000	0.0
13	0x00000000	0.0
14	0xbde626d5	-0.11237875
15	0x3e6560f3	0.22400264
16	0x3c9030b4	0.017601348
17	0xbb58e24e	-0.0033093872
18	0xbdfb8339	-0.12280888
19	0x3cd79d14	0.026320018
20	0xbdb2f156	-0.087374374
21	0x3e042fd5	0.12908871
22	0x3e2d5f27	0.16930829
23	0x3892421b	6.9741356e-05
24	0xbd60fcef	-0.054928716
25	0x3d04fbd3	0.03246672
26	0x3d5eb3fe	0.054370873
27	0xbe8521b7	-0.26002285
28	0x3e3e5639	0.18587579
29	0x3d85ceae	0.06533562
30	0x00000000	0.0
31	0xbe652675	-0.22377951
32	0x3eaaffde	0.33398336
33	0xbdb17b22	-0.08666064
34	0x3a04a4b4	0.0005059943
35	0xbea9619a	-0.33082277
36	0x3d9779cd	0.073962785
37	0x3605278b	1.9841561e-06
38	0x3d1c7ef7	0.03820702
39	0x39dfb6dd	0.00042670118
40	0x00000000	0.0
41	0x00000000	0.0
42	0x00000000	0.0
43	0x00000000	0.0
44	0xada0675d	-1.8235797e-11
45	0x00000000	0.0
46	0x00000000	0.0
47	0x00000000	0.0
48	0x00000000	0.0
49	0x00000000	0.0
50	0x00000000	0.0
51	0x00000000	0.0
52	0x00000000	0.0
53	0x00000000	0.0
54	0x00000000	0.0
55	0x00000000	0.0
56	0x00000000	0.0
57	0x00000000	0.0
58	0x00000000	0.0
59	0xc01c520d	-2.442508
60	0x00000000	0.0
61	0x00000000	0.0
62	0x00000000	0.0
63	0x00000000	0.0
64	0x00000000	0.0
65	0x00000000	0.0
66	0x00000000	0.0
67	0x00000000	0.0
68	0x00000000	0.0
69	0x00000000	0.0
70	0x00000000	0.0
71	0x00000000	0.0
72	0x00000000	0.0
73	0x00000000	0.0
74	0x00000000	0.0
75	0x3f04bea4	0.51853395
76	0x3f290441	0.66022116
77	0x3c270273	0.010193455
78	0x3c172ffd	0.00922775
79	0xbdc695ea	-0.096965626
80	0x3e8748a4	0.26422608
81	0xbe9e7327	-0.3094723
82	0x3d8de16b	0.06927761
83	0xbd35f8e0	-0.0444268
84	0x39060e15	0.00012784482
85	0x3e04e750	0.12978864
86	0xbd9a2d5a	-0.075281814
87	0x3c90edf8	0.017691597
88	0xbd3a92d8	-0.045550197
89	0x3ea9e23b	0.33180413
90	0xbdcbe0a8	-0.09954959
91	0x00000000	0.0
92	0x3e02fa52	0.12790802
93	0x3de09aa0	0.109669924
94	0xbd18f937	-0.037347045
95	0x3a020a2d	0.0004960623
96	0x3f26bc44	0.6513102
97	0x3e84692b	0.25861487
98	0xb55771df	-8.0259446e-07
99	0xbb9cf1dd	-0.0047895745
100	0xba8fe743	-0.0010978956
101	0x00000000	0.0
102	0x00000000	0.0
103	0x00000000	0.0
104	0x00000000	0.0
105	0x2e388d9c	4.196253e-11
106	0x00000000	0.0
107	0x00000000	0.0
108	0x00000000	0.0
109	0x00000000	0.0
110	0x00000000	0.0
111	0x00000000	0.0
112	0x00000000	0.0
113	0x00000000	0.0
114	0x00000000	0.0
115	0x00000000	0.0
116	0x00000000	0.0
117	0x00000000	0.0
118	0x00000000	0.0
119	0x00000000	0.0
120	0xbfe651e2	-1.7993739
121	0x00000000	0.0
122	0x00000000	0.0
123	0x00000000	0.0
124	0x00000000	0.0
125	0x00000000	0.0
126	0x00000000	0.0
127	0x00000000	0.0
128	0x00000000	0.0
129	0x00000000	0.0
130	0x00000000	0.0
131	0x00000000	0.0
132	0x00000000	0.0
133	0x00000000	0.0
134	0x00000000	0.0
135	0x00000000	0.0
136	0x3f3be0b4	0.73389745
137	0x3d419e46	0.047270082
138	0xbcbf585b	-0.02335756
139	0x3b5c0b18	0.0033575948
140	0xbbe0cb77	-0.0068601924
141	0x3e1f6acf	0.15568088
142	0x3d6d4483	0.057926666
143	0xbd18969e	-0.037253015
144	0x3e075abb	0.13218205
145	0x3a05fa9c	0.0005110891
146	0xbcd84736	-0.026401144
147	0x3cbf3ef5	0.02334545
148	0x3cd5297b	0.026020756
149	0xbf001169	-0.50026566
150	0xbe0b56c7	-0.13607322
151	0x3d2b7345	0.041857976
152	0x00000000	0.0
153	0xbe4829c8	-0.19547188
154	0xbe7c35ea	-0.24629942
155	0xbb886437	-0.004162337
156	0x3a3f23d8	0.0007291413
157	0xbf4af927	-0.79286426
158	0x3aa9a0f7	0.0012941648
159	0x33830282	6.100619e-08
160	0x3c3739c2	0.011183204
161	0x3b83e500	0.0040251017
162	0x00000000	0.0
163	0x00000000	0.0
164	0x00000000	0.0
165	0x00000000	0.0
166	0x2daf581d	1.9934327e-11
167	0x00000000	0.0
168	0x00000000	0.0
169	0x00000000	0.0
170	0x00000000	0.0
171	0x00000000	0.0
172	0x00000000	0.0
173	0x00000000	0.0
174	0x00000000	0.0
175	0x00000000	0.0
176	0x00000000	0.0
177	0x00000000	0.0
178	0x00000000	0.0
179	0x00000000	0.0
180	0x00000000	0.0
181	0x3f34741e	0.7048968
182	0x00000000	0.0
183	0x00000000	0.0
184	0x00000000	0.0
185	0x00000000	0.0
186	0x00000000	0.0
187	0x00000000	0.0
188	0x00000000	0.0
189	0x00000000	0.0
190	0x00000000	0.0
191	0x00000000	0.0
192	0x00000000	0.0
193	0x00000000	0.0
194	0x00000000	0.0
195	0x00000000	0.0
196	0x00000000	0.0
197	0xbf043662	-0.5164548
198	0x3e2fa238	0.17151725
199	0xbc5c3bf4	-0.013442028
200	0x3b0bf1ac	0.0021353764
201	0x3f04ed3b	0.51924485
202	0x3e3925f1	0.1808088
203	0xbe5ee9e2	-0.21768907
204	0xbdb6df10	-0.089292645
205	0x3d1df0ed	0.038559843
206	0x390a6ef4	0.00013202039
207	0xbe0399bd	-0.12851615
208	0x3cadd211	0.021218332
209	0xbdf7a927	-0.1209281
210	0xbd0ee6f7	-0.034888234
211	0x3e7102f0	0.23536277
212	0x3e95f2ee	0.29286903
213	0x00000000	0.0
214	0xbe10b0fb	-0.14130013
215	0x3e86db9b	0.2633942
216	0xbda482aa	-0.08032735
217	0x3a14ecc7	0.00056810345
218	0xbd87f02b	-0.06637605
219	0x3e35f99a	0.17770997
220	0xb2eee0fd	-2.780916e-08
221	0x3448d0e1	1.8702441e-07
222	0x399ffad5	0.00030513728
223	0x00000000	0.0
224	0x00000000	0.0
225	0x00000000	0.0
226	0x00000000	0.0
227	0x2d2b1d70	9.726761e-12
228	0x00000000	0.0
229	0x00000000	0.0
230	0x00000000	0.0
231	0x00000000	0.0
232	0x00000000	0.0
233	0x00000000	0.0
234	0x00000000	0.0
235	0x00000000	0.0
236	0x00000000	0.0
237	0x00000000	0.0
238	0x00000000	0.0
239	0x00000000	0.0
240	0x00000000	0.0
241	0x00000000	0.0
242	0x40542449	3.3147147
243	0x00000000	0.0
244	0x00000000	0.0
245	0x00000000	0.0
246	0x00000000	0.0
247	0x00000000	0.0
248	0x00000000	0.0
249	0x00000000	0.0
250	0x00000000	0.0
251	0x00000000	0.0
252	0x00000000	0.0
253	0x00000000	0.0
254	0x00000000	0.0
255	0x00000000	0.0

momentum_buffer f4 [128, 128]
0	0xbe08cb28	-0.13358748
1	0x3d3f6b68	0.04673329
2	0x3dfa3006	0.12216191
3	0x3d31fd35	0.043454368
4	0x3e1bbe60	0.15209341
5	0x3c6a71a6	0.014309322
6	0xbe6fa592	-0.23403004
7	0xbcf6496e	-0.03006431
8	0x3df5f0e9	0.120088406
9	0xbe5c3610	-0.21504998
10	0xbdd7526a	-0.10513766
11	0xbc98c67f	-0.018649338
12	0xbc888cfa	-0.016668785
13	0xbe5e7dfa	-0.21727744
14	0xbe9edd93	-0.31028423
15	0x3e8ed2be	0.2789516
16	0x3e858f19	0.26085737
17	0xbe63d76a	-0.22250143
18	0xbd90d526	-0.07071905
19	0x3c6ef2c6	0.014584249
20	0x3da62c17	0.08113878
21	0xbe8a0715	-0.26958528
22	0x3de057da	0.10954256
23	0x3d32373c	0.043509707
24	0xbeae38d4	-0.3402773
25	0xbe05f89c	-0.13083118
26	0xbe447f55	-0.19189198
27	0x3e617d88	0.22020543
28	0x3daf1543	0.08548977
29	0xbe1cf8f8	-0.15329349
30	0x3e58c067	0.21167146
31	0x3d9b2d96	0.07577054
32	0x3eda5a7c	0.4264716
33	0x3de4d04a	0.111725405
34	0x3e401c66	0.18760833
35	0x3dce888f	0.1008464
36	0x3ebc6ffd	0.3680419
37	0x3e461cd0	0.19346929
38	0x3d78a016	0.060699545
39	0xbe3531b0	-0.17694736
40	0xbcac7033	-0.021049595
41	0x3eb7c831	0.3589492
42	0x3ca53e4a	0.020171303
43	0xbe453b7a	-0.1926097
44	0xbbf81b10	-0.0075715855
45	0xbdb4a5b1	-0.08820666
46	0x3d3b88fe	0.045784943
47	0xbea87054	-0.328982
48	0xbe6272f0	-0.22114158
49	0x3e44450b	0.19166963
50	0x3e977c0d	0.2958683
51	0x3e0ff74b	0.14059179
52	0xbcfc0113	-0.030762231
53	0xbdfc59c7	-0.12321811
54	0x3d45fbc6	0.048335813
55	0x3dde2f22	0.108488336
56	0xbde3bc25	-0.1111987
57	0x3db3e592	0.087840214
58	0xbd1009bc	-0.035165533
59	0xbd484498	-0.04889354
60	0xbd1ed642	-0.03877855
61	0xbd19b274	-0.0375237
62	0xbd85db0f	-0.06535923
63	0xbe602789	-0.21890081
64	0x3eb687cf	0.3565049
65	0xbe8cd33f	-0.27504918
66	0x3e89d28e	0.26918453
67	0x3e16fe8f	0.14745544
68	0xbb290d90	-0.0025795437
69	0xbe351410	-0.17683434
70	0x3e8e2160	0.27759838
71	0xbd9a6dbd	-0.07540462
72	0xbc8843ed	-0.016633952
73	0xbd949a8e	-0.072560415
74	0x3d90edc5	0.07076601
75	0xbc98bc20	-0.018644392
76	0xbe58b5fa	-0.21163169
77	0x3e4cc3fa	0.19996634
78	0x3e12f82d	0.14352484
79	0x3db39d8f	0.08770286
80	0xbe1ce8e6	-0.15323219
81	0xbe21cd4e	-0.15800974
82	0x3d35a832	0.044349857
83	0x3a926d80	0.001117155
84	0x3d07a4b6	0.033116065
85	0xbbc5dbe8	-0.0060381778
86	0x3e4c08d6	0.19925246
87	0x3e7ef5de	0.24898478
88	0x3d47e2f0	0.04880041
89	0x3dc912a5	0.09818009
90	0x3cde44f8	0.027132496
91	0xbe25aca5	-0.1617914
92	0xbc995c21	-0.018720688
93	0x3aa0cbd0	0.0012267772
94	0x3e82de41	0.2556019
95	0xbd3ab8a8	-0.04558626
96	0xbe2f5245	-0.17121227
97	0xbdd95420	-0.10611749
98	0xbe3da1f8	-0.18518817
99	0x3e3b5f27	0.18298016
100	0x3d8a3430	0.06748235
101	0xbdfb9800	-0.12284851
102	0x3d8e427f	0.06946277
103	0xbdf321e8	-0.118717015
104	0xbe8c9c42	-0.27462965
105	0x3d4be41a	0.04977808
106	0x3ea23768	0.31682897
107	0xbe2440eb	-0.16040389
108	0x3e0cdd9f	0.13756417
109	0x3e17f79e	0.14840552
110	0x3e423379	0.18964948
111	0x3e74b86f	0.23898481
112	0x3dbb1bdd	0.09136174
113	0x3d28ea9e	0.041239373
114	0x3e846000	0.25854492
115	0x3ecdcaa6	0.4019367
116	0x3c2cdb28	0.010550298
117	0x3e31b62b	0.17354648
118	0xbc26cce0	-0.010180682
119	0x3e9f728c	0.3114208
120	0xbdf3b4db	-0.1189973
121	0x3e6a29b3	0.2286747
122	0xbe08ef33	-0.13372497
123	0x3d778274	0.060427144
124	0xbc9fa1e3	-0.019486373
125	0x3e40302e	0.18768379
126	0x3d7f6b11	0.062357966
127	0xbde64016	-0.11242692
128	0x3f27c33f	0.65532297
129	0xbf44da85	-0.76895934
130	0xbe8f8ab3	-0.28035507
131	0xbe992a71	-0.29915193
132	0xbf187d74	-0.59566426
133	0x3f71d2b0	0.9446211
134	0x3ea9beee	0.3315348
135	0x3d7fa03e	0.06240868
136	0xbf1327f1	-0.5748282
137	0xbf036540	-0.5132637
138	0x3e1af3d2	0.15132073
139	0xbefe918b	-0.49720415
140	0x3ea6445e	0.32474035
141	0xbf322ce2	-0.69599736
142	0xbe0c6724	-0.1371122
143	0x3d340472	0.043949552
144	0x3e5b57f7	0.21420275
145	0x3f0ad493	0.5423061
146	0x3d188e61	0.037245158
147	0x3f267cc8	0.6503415
148	0x3debfbcc	0.11522636
149	0xbeba08b2	-0.3633476
150	0x3e0556fb	0.13021462
151	0x3f024d34	0.5089905
152	0xbeece610	-0.46269274
153	0x3eec8f10	0.46202898
154	0x3ca7fb28	0.020505503
155	0xbe8a5b69	-0.27022865
156	0xbee52410	-0.44754076
157	0xbf432bd8	-0.76238775
158	0x3eabb5e2	0.33537203
159	0x3d62fa22	0.055414326
160	0x3c9b9ee0	0.018996656
161	0xbe9d49ce	-0.3072037
162	0xbe2ccd04	-0.16875082
163	0x3ec0bb6c	0.37642992
164	0x3e3e329b	0.18573992
165	0xbe6add73	-0.22936039
166	0xbc8c5b6c	-0.017133437
167	0x3f5ba066	0.85791624
168	0xbe58b552	-0.21162918
169	0xbf332f95	-0.6999448
170	0x3ee6c0ca	0.4506896
171	0x3f36edbc	0.71456504
172	0x3e85a30e	0.26100963
173	0x3ddbf8b7	0.10740798
174	0x3ea5b5d0	0.32365274
175	0x3e51f652	0.2050412
176	0x3edcf2ac	0.43153894
177	0x3cef78d0	0.029232413
178	0xbead9212	-0.33900505
179	0x3e62dc8a	0.22154441
180	0x3ea081c2	0.31348997
181	0xbeee4e96	-0.4654433
182	0x3e6bc4ea	0.23024336
183	0xbecf454c	-0.40482557
184	0x3e50e8e2	0.20401338
185	0x3f33df95	0.70263034
186	0x3d4ec277	0.050478425
187	0x3e71ea01	0.23624422
188	0x3e801d9f	0.250226
189	0xbf249b1a	-0.64299166
190	0xbefe4903	-0.4966508
191	0xbea3b176	-0.3197133
192	0xbf257b18	-0.6464095
193	0xbe82290e	-0.25421947
194	0x3e8025f9	0.2502897
195	0x3db0da87	0.08635431
196	0xbefeebba	-0.4978922
197	0x3ef80040	0.4843769
198	0xbe731396	-0.2373794
199	0xbdd8b038	-0.10580486
200	0xbeb88d21	-0.36045173
201	0x3ec19afc	0.37813556
202	0xbf0bd0bf	-0.54615396
203	0x3e31a207	0.17346965
204	0xbd7b6ca0	-0.06138289
205	0xbe8d2644	-0.27568257
206	0x3eb1521d	0.3463296
207	0x3e52ef6c	0.20599145
208	0x3e14b3b0	0.1452167
209	0x3db2f276	0.08737652
210	0x3f40b959	0.7528282
211	0xbe9b630a	-0.30348998
212	0x3f86c373	1.0528396
213	0x3f65b323	0.89726466
214	0x3d5ce93e	0.053933375
215	0xbe0d66f5	-0.13808806
216	0x3f43598e	0.76308525
217	0x3e8492a7	0.25893137
218	0xbf1a2fef	-0.6022939
219	0xbe3f86cc	-0.18703765
220	0x3c953f34	0.018218614
221	0xbd2878e6	-0.041130923
222	0x3e737ac5	0.23777302
223	0xbf10d9b2	-0.56582177
224	0x3e12feec	0.14355057
225	0x3e4811c8	0.19538033
226	0x3c2e25e0	0.010629147
227	0xbe0ceb7a	-0.13761702
228	0xbba16c18	-0.004926216
229	0xbf879f22	-1.0595438
230	0xbe8a2de2	-0.2698813
231	0xbe8bc36a	-0.27297527
232	0x3ef666fe	0.48125452
233	0xbf30afb0	-0.6901808
234	0xbee35a21	-0.444047
235	0xbf02977c	-0.51012397
236	0xbca93883	-0.02065683
237	0xbe8fcec1	-0.28087428
238	0x3e58d4ce	0.21174929
239	0x3ef81417	0.48452827
240	0x3ee797a0	0.45232868
241	0xbe0e7e12	-0.1391528
242	0xbe604c2e	-0.2190406
243	0xbe7289e5	-0.23685415
244	0x3f656142	0.8960153
245	0xbe6c3e20	-0.23070574
246	0xbe03fedd	-0.12890191
247	0x3ea00375	0.31252638
248	0xbe7e8761	-0.2485633
249	0x3c8bb6f5	0.017055014
250	0x3d061362	0.03273333
251	0x3d452064	0.048126593
252	0x3f8d4cc6	1.1039054
253	0x3f09d34b	0.5383803
254	0xbf3fccc8	-0.74921846
255	0xbf085416	-0.53253305

momentum_buffer f4 [128]
0	0xc017e050	-2.373066
1	0x3f252e29	0.6452356
2	0xbccb6900	-0.024830341
3	0x4073cbff	3.809326
4	0x3f9a4425	1.2052046
5	0xbf7ff224	-0.9997885
6	0xc021ac47	-2.52614
7	0x401ed3eb	2.4816844
8	0x3f3c2688	0.73496294
9	0x3f3fd223	0.7493002
10	0xbe4fb7c8	-0.2028495
11	0x3f26fdde	0.6523112
12	0x3eaa8a90	0.3330884
13	0xc0463484	-3.0969553
14	0xbede50c0	-0.43420982
15	0x3f8bd546	1.0924461
16	0x3f2fe1c2	0.68703854
17	0xbfa3a9e0	-1.2786217
18	0x3ee0e3ea	0.43923885
19	0x3f13ebf9	0.5778194
20	0x3fe1e9b8	1.764945
21	0x4089cfc6	4.306613
22	0x3e8301fa	0.25587445
23	0xbfc1132d	-1.5083977
24	0xbdb1109e	-0.086457476
25	0x3f4a87be	0.79113376
26	0xbf0d7d4a	-0.552693
27	0x3ed0a464	0.4075042
28	0x3f8bd94f	1.0925692
29	0xbec08690	-0.37602663
30	0xbe5bd6a4	-0.21468598
31	0x3f5dba83	0.8661272
32	0x3ff9f02d	1.9526421
33	0x401c1941	2.4390414
34	0xc00e42f8	-2.2228374
35	0xbf9a4b3a	-1.2054207
36	0x3f49991a	0.7874924
37	0xbe791366	-0.24323806
38	0xbec78258	-0.38966632
39	0xbfd859ef	-1.6902446
40	0x40076fe7	2.116205
41	0xbfd3490e	-1.650667
42	0xc0232c94	-2.5495958
43	0xbfdcfe78	-1.7265158
44	0xbf029c7f	-0.51020044
45	0xbfe062d2	-1.7530158
46	0xbec7a9e0	-0.38996792
47	0xbf05b3d4	-0.5222752
48	0xc008d003	-2.137696
49	0xbee75eba	-0.45189458
50	0x3f3544fb	0.7080838
51	0xbfcf8368	-1.6211977
52	0xbf15b7c6	-0.5848354
53	0xbfc25b40	-1.5184097
54	0x3fcd6b71	1.6048414
55	0xbfceef80	-1.616684
56	0xbfb2abbc	-1.3958659
57	0x3efac3f4	0.48977625
58	0x3ebf20ec	0.37329805
59	0xbf5d70aa	-0.86500037
60	0xbf8c9bde	-1.0985067
61	0xc0694a60	-3.6451645
62	0xbf1e4fe6	-0.61840665
63	0x3fcd29b3	1.602835
64	0xbdc4bb78	-0.09606069
65	0xbfa745d0	-1.306818
66	0x40096f91	2.1474345
67	0xbf291f65	-0.6606353
68	0xba33ada0	-0.000685418
69	0xc043eba4	-3.0612574
70	0x3db7572d	0.08952174
71	0x3f39d2d6	0.72587335
72	0x3eb8afdc	0.3607167
73	0xc075bb69	-3.8395636
74	0x3f9f17de	1.2429159
75	0x3f124d29	0.5714899
76	0x3ff8e8a8	1.9446001
77	0xbf2aaa32	-0.6666595
78	0x3f5c8c53	0.8615162
79	0x3f932111	1.1494466
80	0xbfcc720c	-1.5972304
81	0xbf7af5ac	-0.98031116
82	0x3f0a7519	0.54084927
83	0x3e92703c	0.28601253
84	0xbe82d2ca	-0.25551444
85	0xbec9b142	-0.3939305
86	0xc01de5de	-2.467155
87	0xbc682700	-0.014169455
88	0x40164000	2.3476562
89	0x400f1014	2.2353563
90	0xbed677b8	-0.41888213
91	0x40353af7	2.831724
92	0x3f0eb26e	0.5574101
93	0xc05920fa	-3.3926377
94	0xbf747dfc	-0.95504737
95	0xbedb54f8	-0.42838264
96	0x3f79e864	0.97620225
97	0xbf7bdcbc	-0.9838369
98	0x3e415688	0.18880665
99	0xbfec288a	-1.8449872
100	0x4061310b	3.5186183
101	0xbf4fa3ee	-0.8110951
102	0x4027fc1f	2.6247633
103	0xbfa84cf0	-1.314848
104	0xbe25af42	-0.16180137
105	0x3fcfc60b	1.6232313
106	0xbfa394f9	-1.2779838
107	0xbfa0b98c	-1.2556624
108	0xc0154cff	-2.3328245
109	0xc0749ea7	-3.8221834
110	0xbfb3267c	-1.399612
111	0xbf8c6ca5	-1.0970656
112	0x3f26eac8	0.65202
113	0x3fc65665	1.5495116
114	0x3f46144d	0.77374727
115	0xbf8ecb46	-1.1155784
116	0x3fcc9193	1.5981926
117	0xbf3f4c17	-0.7472548
118	0xc02928c9	-2.6431143
119	0x3f8b6bab	1.0892233
120	0xc01ed517	-2.481756
121	0xbed4b6cf	-0.41545722
122	0xbf21d2ba	-0.6321217
123	0x3dfb81d0	0.12280619
124	0xbf760004	-0.96093774
125	0xbf9dc9de	-1.232723
126	0xbfb357d9	-1.4011184
127	0xc0558330	-3.336132
