app/ml_models/rnn/2021_straattaal.pt (torch, 277513 bytes, 13 tensors)

_embedding.weight f4 [61, 61]
00000000: 0000 803f 0000 0000 0000 0000 0000 0000
00000010: 0000 0000 0000 0000 0000 0000 0000 0000
00000020: 0000 0000 0000 0000 0000 0000 0000 0000
00000030: 0000 0000 0000 0000 0000 0000 0000 0000
00000040: 0000 0000 0000 0000 0000 0000 0000 0000
00000050: 0000 0000 0000 0000 0000 0000 0000 0000
00000060: 0000 0000 0000 0000 0000 0000 0000 0000
00000070: 0000 0000 0000 0000 0000 0000 0000 0000
00000080: 0000 0000 0000 0000 0000 0000 0000 0000
00000090: 0000 0000 0000 0000 0000 0000 0000 0000
000000a0: 0000 0000 0000 0000 0000 0000 0000 0000
000000b0: 0000 0000 0000 0000 0000 0000 0000 0000
000000c0: 0000 0000 0000 0000 0000 0000 0000 0000
000000d0: 0000 0000 0000 0000 0000 0000 0000 0000
000000e0: 0000 0000 0000 0000 0000 0000 0000 0000
000000f0: 0000 0000 0000 0000 0000 803f 0000 0000
00000100: 0000 0000 0000 0000 0000 0000 0000 0000
00000110: 0000 0000 0000 0000 0000 0000 0000 0000
00000120: 0000 0000 0000 0000 0000 0000 0000 0000
00000130: 0000 0000 0000 0000 0000 0000 0000 0000
00000140: 0000 0000 0000 0000 0000 0000 0000 0000
00000150: 0000 0000 0000 0000 0000 0000 0000 0000
00000160: 0000 0000 0000 0000 0000 0000 0000 0000
00000170: 0000 0000 0000 0000 0000 0000 0000 0000
00000180: 0000 0000 0000 0000 0000 0000 0000 0000
00000190: 0000 0000 0000 0000 0000 0000 0000 0000
000001a0: 0000 0000 0000 0000 0000 0000 0000 0000
000001b0: 0000 0000 0000 0000 0000 0000 0000 0000
000001c0: 0000 0000 0000 0000 0000 0000 0000 0000
000001d0: 0000 0000 0000 0000 0000 0000 0000 0000
000001e0: 0000 0000 0000 0000 0000 0000 0000 0000
000001f0: 0000 803f 0000 0000 0000 0000 0000 0000
00000200: 0000 0000 0000 0000 0000 0000 0000 0000
00000210: 0000 0000 0000 0000 0000 0000 0000 0000
00000220: 0000 0000 0000 0000 0000 0000 0000 0000
00000230: 0000 0000 0000 0000 0000 0000 0000 0000
00000240: 0000 0000 0000 0000 0000 0000 0000 0000
00000250: 0000 0000 0000 0000 0000 0000 0000 0000
00000260: 0000 0000 0000 0000 0000 0000 0000 0000
00000270: 0000 0000 0000 0000 0000 0000 0000 0000
00000280: 0000 0000 0000 0000 0000 0000 0000 0000
00000290: 0000 0000 0000 0000 0000 0000 0000 0000
000002a0: 0000 0000 0000 0000 0000 0000 0000 0000
000002b0: 0000 0000 0000 0000 0000 0000 0000 0000
000002c0: 0000 0000 0000 0000 0000 0000 0000 0000
000002d0: 0000 0000 0000 0000 0000 0000 0000 0000
000002e0: 0000 0000 0000 0000 0000 803f 0000 0000
000002f0: 0000 0000 0000 0000 0000 0000 0000 0000
00000300: 0000 0000 0000 0000 0000 0000 0000 0000
00000310: 0000 0000 0000 0000 0000 0000 0000 0000
00000320: 0000 0000 0000 0000 0000 0000 0000 0000
00000330: 0000 0000 0000 0000 0000 0000 0000 0000
00000340: 0000 0000 0000 0000 0000 0000 0000 0000
00000350: 0000 0000 0000 0000 0000 0000 0000 0000
00000360: 0000 0000 0000 0000 0000 0000 0000 0000
00000370: 0000 0000 0000 0000 0000 0000 0000 0000
00000380: 0000 0000 0000 0000 0000 0000 0000 0000
00000390: 0000 0000 0000 0000 0000 0000 0000 0000
000003a0: 0000 0000 0000 0000 0000 0000 0000 0000
000003b0: 0000 0000 0000 0000 0000 0000 0000 0000
000003c0: 0000 0000 0000 0000 0000 0000 0000 0000
000003d0: 0000 0000 0000 0000 0000 0000 0000 0000
000003e0: 0000 803f 0000 0000 0000 0000 0000 0000
000003f0: 0000 0000 0000 0000 0000 0000 0000 0000
1.0 0.0 0.0 0.0 0.0 0.0 0.0 0.0
0.0 0.0 0.0 0.0 0.0 0.0 0.0 0.0
0.0 0.0 0.0 0.0 0.0 0.0 0.0 0.0
0.0 0.0 0.0 0.0 0.0 0.0 0.0 0.0
0.0 0.0 0.0 0.0 0.0 0.0 0.0 0.0
0.0 0.0 0.0 0.0 0.0 0.0 0.0 0.0
0.0 0.0 0.0 0.0 0.0 0.0 0.0 0.0
0.0 0.0 0.0 0.0 0.0 0.0 1.0 0.0
0.0 0.0 0.0 0.0 0.0 0.0 0.0 0.0
0.0 0.0 0.0 0.0 0.0 0.0 0.0 0.0
0.0 0.0 0.0 0.0 0.0 0.0 0.0 0.0
0.0 0.0 0.0 0.0 0.0 0.0 0.0 0.0
0.0 0.0 0.0 0.0 0.0 0.0 0.0 0.0
0.0 0.0 0.0 0.0 0.0 0.0 0.0 0.0
0.0 0.0 0.0 0.0 0.0 0.0 0.0 0.0
0.0 0.0 0.0 0.0 1.0 0.0 0.0 0.0
0.0 0.0 0.0 0.0 0.0 0.0 0.0 0.0
0.0 0.0 0.0 0.0 0.0 0.0 0.0 0.0
0.0 0.0 0.0 0.0 0.0 0.0 0.0 0.0
0.0 0.0 0.0 0.0 0.0 0.0 0.0 0.0
0.0 0.0 0.0 0.0 0.0 0.0 0.0 0.0
0.0 0.0 0.0 0.0 0.0 0.0 0.0 0.0
0.0 0.0 0.0 0.0 0.0 0.0 0.0 0.0
0.0 0.0 1.0 0.0 0.0 0.0 0.0 0.0
0.0 0.0 0.0 0.0 0.0 0.0 0.0 0.0
0.0 0.0 0.0 0.0 0.0 0.0 0.0 0.0
0.0 0.0 0.0 0.0 0.0 0.0 0.0 0.0
0.0 0.0 0.0 0.0 0.0 0.0 0.0 0.0
0.0 0.0 0.0 0.0 0.0 0.0 0.0 0.0
0.0 0.0 0.0 0.0 0.0 0.0 0.0 0.0
0.0 0.0 0.0 0.0 0.0 0.0 0.0 0.0
1.0 0.0 0.0 0.0 0.0 0.0 0.0 0.0

lstm.weight_ih_l0 f4 [128, 61]
00000000: d7b2 a93d e4de 703b e4d8 593c b52d 1abd
00000010: 78a8 133d d3b0 87bd 0945 453d 6723 833d
00000020: 161a 24bd 514a 32bd e963 6c3d 8341 6d3d
00000030: 3dd1 413d a1a0 0c3d 67f1 653d cb5e 87be
00000040: dd18 acbe f728 803e adfc c53d 4227 95be
00000050: 4888 27be e78a dc3b 9e43 263d aaee 86bc
00000060: 4b6b e3bd 29c0 373c e2ef 9fbd a36e a03e
00000070: 88d5 88bc cea8 b03c 7822 7fbd 392c 863d
00000080: 3322 133e 6934 a13e f943 943e 0be2 c5bd
00000090: cb6e 12be 8c89 8bbd a903 edbd f979 253e
000000a0: 14e2 2e3d e7a7 7f3c 0f42 76bd 8415 a2bd
000000b0: 9240 f0bd 8a84 523c 2e8d adbd b98e d33c
000000c0: 80d7 81bb 18db 96bd 468f 9a3d 8b0b 7f3c
000000d0: 566b 9ebd 73bd 8b3d 1a98 af3c 7874 92bd
000000e0: f299 3cbd 49a3 0b3d 71ed 7fbd 43a4 443e
000000f0: 2d5e 80bd 8a45 6e3d 46e0 2d3d 244f 72bd
00000100: f598 78bd 4241 a7bb 1120 86bd efde 38bd
00000110: bc2b 9f3d 8c21 2cbd 3163 31bc 68da 4abd
00000120: c9c2 4ebc 214c b8bc 7845 903d 3112 7cbd
00000130: d92b a8bd 8beb 39bd 8329 103e 1ad8 e5bd
00000140: 00e4 0dbe 4106 55bd 16a7 65bd dc34 eebd
00000150: 0c95 7c3d 9b54 ed3b 77ef 12bb 650b bbbd
00000160: 0866 58bd e149 84bd 489e 073e 4194 86bc
00000170: a976 36be 2e7e b13d e7b7 c03b e779 0e3d
00000180: dc11 1fbd 1907 bcbd ccd8 c03c ce10 10bc
00000190: 6cab 3a3d 022d 27bd 2a8b 033c 36b2 9c3d
000001a0: 52b3 80bd 866f 00bd 06fe 2bbd b530 b43c
000001b0: 87b5 463d 387c 903d cd16 533d 892b 2c3d
000001c0: 64aa 5bbd 4b5e 083d 3dfc 373d 8f49 943b
000001d0: 6ddd bb3b b51d ffbb 8dd5 a53d e75c 403c
000001e0: 338c 283e 2c6f 90bd 50ce ae3a ed3f 8d3d
000001f0: cbca 44bd 9882 393d b290 473d 9656 8dbd
00000200: dd92 4d3c 3cfc ad3d 5d87 833d 33b7 b6bb
00000210: 3e02 33bd a798 dabc 8fc1 57bd d553 55bd
00000220: 8203 403e 75ea ef3c d18b 423e 05c6 cebd
00000230: cc05 cb3d fa69 aa3d 5ec1 98be c327 27be
00000240: f843 573e 6ee5 a0bd 5ce1 273e f0b4 2f3e
00000250: af4b d53d 92dd a4be 2da1 883e 1ce6 d73b
00000260: 04a4 35bd 6a9d 07be 9466 0dbd c979 65be
00000270: e9cf 5dbe 251e 213d 82d5 d5bc 0203 ea3d
00000280: 661c f73c d61a ecbd 3e25 873d 552a 1fbd
00000290: a3b0 5e3d 5702 a93c e7d5 acbd 6931 973d
000002a0: 72de 273d 9953 efbc cf79 f2bc ab59 b13d
000002b0: d50f 893c b6a8 b93c 504f cd3c ebb5 aebd
000002c0: c68f 6abd d895 003d 1b83 97bd 8f25 9d3d
000002d0: 19da 4a3d 5f29 8b3d 72ae 26bc 2bad 9fbd
000002e0: cb31 16bd c8af ae3d fe78 87bd e8fa 10bd
000002f0: 4344 193d 8045 3abd 6128 753d 013f 32bd
00000300: 0722 8bbd 2153 b1bc 4b51 07bc 0970 0abd
00000310: de0f 633d db86 4bbe 500c 6a3d 3d48 5c3e
00000320: 6614 483e 481f e1bd 40ea 21bd e093 28bd
00000330: 31fe 063e 4110 2fbd 0d67 123d ca26 bfbd
00000340: db44 53bd 2a9e b8bd 744d 973c c541 40be
00000350: 968a 44bd 3bbb eb3b 9946 cbbc 9ef0 d53d
00000360: 0f3f 913d 5b37 48bd 971c 203d d3a2 80bd
00000370: 138a f1bd 421d 01ba 935d c0bc 1c28 653d
00000380: b244 36bc 06da fab9 092b a13d 2ed4 f8bc
00000390: c757 b83b fca2 4f3c 5aeb 363c 0fe0 9bbd
000003a0: 19de 313d d249 47bd 741a 97bc c262 fb3c
000003b0: 50b0 a3bd 1e22 e3bc 52f5 f43b c152 4e3c
000003c0: c55b d2bc 0a96 463d 8a42 043e d0a5 1a3d
000003d0: a234 813d 2e5b a2bd e903 8cbd 9968 4abd
000003e0: b696 6a3c 24cd acbd 0ddc 813d 08be 513d
000003f0: 4a20 b0bd a310 3e3c eb62 26bd bd8d f7b8
0.08286064 0.0036753947 0.01329634 -0.037641246 0.036049336 -0.066255234 0.04816154 0.06403237
-0.04006394 -0.043527905 0.05771247 0.057923805 0.047318686 0.034332875 0.056138422 -0.2643951
-0.3361272 0.25031254 0.09667335 -0.29131514 -0.16360581 0.0067304256 0.04059183 -0.016471226
-0.11104449 0.011215248 -0.07809426 0.3133441 -0.016703382 0.021564867 -0.06228873 0.065514036
0.14368515 0.31485298 0.2895811 -0.09662255 -0.14300077 -0.06813344 -0.11572964 0.1615981
0.042696074 0.015603996 -0.060121592 -0.0791426 -0.11731066 0.012848983 -0.084741935 0.025824891
-0.003962457 -0.073660076 0.075468585 0.015566717 -0.077353165 0.06823244 0.021434832 -0.07151121
-0.04604525 0.034091268 -0.0624823 0.19203286 -0.062679626 0.058171786 0.042450212 -0.059157506
-0.060692746 -0.005104215 -0.06549085 -0.04513448 0.077720135 -0.04202418 -0.010826872 -0.049524695
-0.012619683 -0.022497239 0.070445 -0.061540786 -0.08211488 -0.045390647 0.14078335 -0.11222859
-0.13856506 -0.052007917 -0.05606755 -0.11631176 0.06166558 0.007242752 -0.0022420564 -0.09133033
-0.05283168 -0.06459404 0.13243973 -0.016428115 -0.17818703 0.08666645 0.005881298 0.034784224
-0.03883539 -0.09181041 0.023540877 -0.008793069 0.045573637 -0.040814407 0.008028785 0.076511785
-0.06284203 -0.031356357 -0.041990303 0.021995882 0.04851296 0.07054943 0.051535416 0.042033706
-0.053629294 0.03329305 0.044918288 0.0045253704 0.005733183 -0.007785524 0.08097372 0.0117409
0.16459732 -0.07052454 0.0013336632 0.068969585 -0.04804496 0.04529056 0.048721977 -0.069012806
0.012547222 0.084953755 0.06422303 -0.0055760383 -0.04370331 -0.026684118 -0.052674826 -0.0520819
0.18751338 0.029286603 0.18998648 -0.10096363 0.09913215 0.08320995 -0.29835027 -0.16323762
0.21022022 -0.0785626 0.16394562 0.17158866 0.10414826 -0.32200295 0.26685467 0.0065887105
-0.04434587 -0.13243642 -0.034521654 -0.22409739 -0.21661343 0.03933539 -0.026102785 0.11426355
0.030164909 -0.11528556 0.065989 -0.03885873 0.054367673 0.020630999 -0.08439236 0.07382471
0.040983625 -0.029214667 -0.029599098 0.08659681 0.016731182 0.022663455 0.025062233 -0.08530792
-0.05726602 0.031392902 -0.07398053 0.07673179 0.0495244 0.06795 -0.010173427 -0.07796701
-0.03666858 0.08529621 -0.06614874 -0.035395533 0.037418615 -0.045476437 0.05985296 -0.043517116
-0.067935996 -0.021646084 -0.008259128 -0.03379825 0.055435054 -0.19875662 0.05714065 0.21511932
0.19539031 -0.109922945 -0.03953004 -0.04115665 0.13182904 -0.04274011 0.035742808 -0.0933357
-0.051579338 -0.090145424 0.01846955 -0.18775089 -0.04798373 0.0071939505 -0.024813937 0.10446285
0.070921056 -0.048880916 0.039089765 -0.06281056 -0.11793914 -0.0004925319 -0.02348212 0.055946454
-0.011124777 -0.00047846156 0.078695364 -0.030374613 0.0056256982 0.012673136 0.011164511 -0.07611095
0.0434247 -0.048654385 -0.018445231 0.03068674 -0.07992613 -0.02772623 0.0074755335 0.012592972
-0.025678525 0.048482932 0.12916008 0.037755787 0.06308867 -0.079275474 -0.06836683 -0.04941616
0.014318159 -0.08437565 0.063407995 0.05120662 -0.08599909 0.011600646 -0.04062168 -0.000118042786

lstm.weight_hh_l0 f4 [128, 128]
00000000: f38c ae3d d9a7 fd3c dea5 abbc 76db 3fbc
00000010: 88db 3ebc e189 bfbb 98ca 1abd b5c5 cd3c
00000020: 57c6 23bd 809c eebc 5042 8ebd 4c8d 7fbd
00000030: 8152 a53c 8132 203d b5b0 903d 8d6a df3c
00000040: 81f9 663d 032d a9bd 1617 b6bc c1f3 843d
00000050: 555e 0fbd 6608 153d 332c 1bbc 33d2 0f3d
00000060: c0c2 85bc db99 043d 66db e8bb 483a aa3c
00000070: de34 89bc 4e7b 87bd c6bb aabc 8e55 9dbd
00000080: 66f3 df3c a565 df3b a4e2 863d cdc8 9f3c
00000090: 6aba e73c f3c3 003d a24b 953d 9ea6 083d
000000a0: e510 a9bd 90cb cdbc ea60 253d d39e d4bc
000000b0: 8f52 543d 9d73 85bd ede9 0e3c 4a09 2b3c
000000c0: d8a2 37bd b20f 01bc d3d8 25bd 2d44 97bd
000000d0: 52b3 3f3d 3fda d8bb 70f3 713d 9b25 1a3d
000000e0: 223e 2b3d cf62 aebc b1c0 b33d 68c8 acbd
000000f0: fd7e 14bc 10be 1d3d a15d 9fbd b43c 28bd
00000100: d1cc 83bd 22b4 793d 59fb 213c 7f85 3abd
00000110: 554d 863d c2e8 fbbc 9c18 8dbd 6601 a9bd
00000120: c5e2 96bd 73c2 8c3d 2ca3 933d dc1b 94bd
00000130: e341 413d dea7 cf3c d719 b0bd a8f6 183d
00000140: 3db4 9c3d a70f 963d b42e 8d3b 7a42 6cbd
00000150: b87d 333d ca12 40bb c568 96bc 0a40 5fbc
00000160: 418e dc3c 5e8a 16bd 172c 93bd 3c7b 423d
00000170: a33c 78bd ccbe 46bd a727 0b3d 1363 a9bd
00000180: 54ef a6bd 3317 adbd 4162 1a3d ed72 74bd
00000190: 73c4 38bd 1e3f 46bd 7f57 3f3c 9783 87bd
000001a0: 9256 883c bb13 943c 3896 3d3b ce6b c73c
000001b0: 9f59 4fbc 5f43 1cbd a64e 873d eef4 143d
000001c0: 2992 ea3c 29ad a3bc bd38 993d 7a4b 8ebd
000001d0: c29c 3b3d ce0a 4cbd ac4b 9e3b c630 73bc
000001e0: 5db0 8bbd 8de5 f7bc 4d3d a9bd 0387 24bd
000001f0: 0f34 1c3d 260e 293d 992d 22bd 77d3 a63d
00000200: 766b 9abd 189a 37bb 2a90 2ebd 0f7c 88bd
00000210: 4a01 55bd 4a3a 123d 7063 763d 4c62 0dbd
00000220: 4e90 5fbd 75a0 76bc 2d43 f4bc e85d 713d
00000230: 2aae 6f3d ca75 80bc 2e9f 89bd 7693 d13b
00000240: b4e6 d5ba bb45 0a3d 190a b4bd 185e a43d
00000250: 1a6f 79bd 43b5 313c a93c 2cbd 4e46 7abd
00000260: b92b 2cbd c0be 8abd e5b0 a83d d6b0 a1bd
00000270: 84a4 023d 0817 903d c3c6 b23d c40d 46bd
00000280: bb1b 88bd 85a4 bc3c c481 48bd 1684 0d3b
00000290: f2b7 53bd 8cd0 9f3d c3e8 7e3c 5610 4dbd
000002a0: 9987 b2bd 1978 9f3d 0d6b 04bc 6b7b bcbc
000002b0: 20e0 943c ef7f 763d 0df5 47bb bc81 15bd
000002c0: 0934 75bd 5238 e83b 402b 4fbd e364 c7bc
000002d0: d015 d6bb 2662 0a3d a522 68bd 113b 00bd
000002e0: 3912 b0bd 95bb a43b 9169 6e3b 4eba 8dbd
000002f0: 1578 cdbb c34c 4d3d 14cd 7d3d 32e4 9abd
00000300: 6319 073c 1b2f f9bc cca9 1d3d c096 8d3d
00000310: e94e a3bd 871c 463a 6d97 713d c169 823d
00000320: 5a62 95bd 8cd8 943c 32c0 3aba 4db7 8fbd
00000330: d69e 993d 29bd ff3c baf4 173d 305a 8bbd
00000340: 9eeb abbd 365a a63b b1be febb 1daa 85bc
00000350: 0e22 6bbc dc67 8a3c be38 803d fbdf 063d
00000360: ac61 6bbd bcf0 afbd c373 163d 7b6e 8abd
00000370: 7a0e a93d 0ef0 54bc d9e9 b63b 39fc 16bb
00000380: 4b52 efbb 7854 a7bd 95d5 80bd df38 10bb
00000390: 01d9 8b3d 7fe4 043c 541d 643d 7a60 74bc
000003a0: d8ec 983d 183d bebb ef14 3e3d d00e 913d
000003b0: 697c 49bd 73eb 86bc 6015 6a3d 69f7 22bd
000003c0: bb69 8fbd bdcc 6e3d ebfc 89bd 4b55 8b3a
000003d0: 3536 173b c333 9cbd a247 89bd 4dc0 743d
000003e0: a80b 5d3d 136a ad3d ac2a 90bd c4bb d5bc
000003f0: f304 93bd 4288 383d 1cdb 4bbd c319 073d
0.08522978 0.030963825 -0.020953115 -0.011710038 -0.01164902 -0.005845294 -0.037790865 0.025118688
-0.039984073 -0.02912736 -0.06946242 -0.06239061 0.020180942 0.039110664 0.07064954 0.027272487
0.05639029 -0.082605384 -0.022227805 0.06491805 -0.03500207 0.036384962 -0.009470987 0.03511257
-0.016328216 0.03237329 -0.0071062325 0.020779744 -0.016748842 -0.066153154 -0.02084149 -0.07682334
0.027337741 0.006817537 0.06586197 0.019504929 0.028287131 0.03143687 0.072898164 0.033362024
-0.082551755 -0.02512148 0.040375628 -0.02595464 0.051836547 -0.06516192 0.008722764 0.010439226
-0.044833034 -0.007877277 -0.040489983 -0.073860504 0.046801873 -0.006617814 0.05907005 0.03763352
0.0418073 -0.02128735 0.08776987 -0.08436662 -0.0090634795 0.038511336 -0.0778153 -0.041073516
-0.0643555 0.060962804 0.009886586 -0.045537468 0.06557719 -0.030750636 -0.068894595 -0.0825222
-0.073674716 0.06873026 0.07208857 -0.07231876 0.047181975 0.0253486 -0.085986786 0.037344605
0.07651565 0.07327204 0.004308546 -0.057680584 0.043821067 -0.0029308074 -0.018360505 -0.013626108
0.0269233 -0.03675305 -0.07186144 0.047480807 -0.060604703 -0.0485218 0.033973362 -0.0827085
-0.08151117 -0.084516905 0.03769136 -0.059679914 -0.045109224 -0.048400037 0.011678576 -0.06616896
0.016642842 0.018075814 0.0028928649 0.024343397 -0.012655645 -0.038150188 0.06606798 0.036366396
0.028634148 -0.01998003 0.07481525 -0.0694799 0.045803793 -0.04981499 0.004830798 -0.014843171
-0.06820748 -0.030260826 -0.08263645 -0.04016782 0.038135584 0.04127326 -0.039594267 0.081458025
-0.07540028 -0.002801543 -0.042617954 -0.06664287 -0.052003182 0.03570012 0.060153425 -0.03451757
-0.05458098 -0.015052904 -0.029817188 0.058927447 0.058515705 -0.015681166 -0.06719814 0.0063957525
-0.0016319365 0.033757906 -0.087909885 0.080257595 -0.06089697 0.010846439 -0.042050038 -0.061102204
-0.042033885 -0.06774664 0.08236865 -0.07895057 0.031895176 0.07035643 0.08729317 -0.04835297
-0.06645914 0.023027668 -0.04895188 0.0021593622 -0.051689096 0.07803449 0.015558424 -0.050064407
-0.087172695 0.07786579 -0.0080821635 -0.023008069 0.018173277 0.0601806 -0.0030511052 -0.036500677
-0.059864078 0.007086792 -0.050578356 -0.024340099 -0.006533362 0.033785008 -0.056673665 -0.03130633
-0.08597226 0.0050272443 0.003637884 -0.069203004 -0.0062704184 0.050122034 0.061963156 -0.07563056
0.008245799 -0.03041797 0.03849201 0.06913519 -0.07974035 0.00075573515 0.0589823 0.06367827
-0.0729415 0.018169664 -0.0007123976 -0.07017384 0.07500999 0.031218128 0.037098624 -0.06804311
-0.0839455 0.005076672 -0.007774197 -0.016316468 -0.014351381 0.016895227 0.06260823 0.03292845
-0.057466194 -0.08590838 0.036731493 -0.06759354 0.08254714 -0.012996687 0.005582076 -0.002303852
-0.0073035113 -0.08170408 -0.062907375 -0.0022006554 0.068284996 0.008111118 0.055692032 -0.01491558
0.07467049 -0.005805623 0.046406683 0.070829034 -0.049190912 -0.016469693 0.05714929 -0.03978673
-0.07002588 0.058300722 -0.067376934 0.0010630278 0.0023073081 -0.0762706 -0.06703116 0.059753705
0.053966194 0.08467498 -0.07039389 -0.02609051 -0.07178678 0.04505182 -0.049769506 0.032983553

lstm.bias_ih_l0 f4 [128]
00000000: f1e6 cdbd 79ad a3be f12e 6c3d 1372 c6be
00000010: 39a7 9dbc b03c b7bc 29b3 72bc 1ca9 1d3d
00000020: a789 cebc 1b58 23bd f59a 2d3c 6f42 90bc
00000030: b07f a2bb 0a2b 7f3d ed50 9bbe b9cf 43bd
00000040: 3f33 ad3d d4fa 403c d448 e03d b2b9 cabd
00000050: 6f81 cdbd d1d8 d3bd f730 ad3d 042b 163e
00000060: 136a 963e b9a3 2cbd 1467 03bd 870b 8bbc
00000070: f3dd 9c3d 2fa4 de3e bd6a 1b3e 2155 fabd
00000080: d3b1 72bd 309d 5d3d 4690 1fbd ad86 17bf
00000090: 3355 9fbe edde c93d e52b 8a3d 1c3d c9bd
000000a0: fe12 d8be 3c20 6bbc f63a 8fbd 1c8a 7bbc
000000b0: cc1f 4fbd 2b72 6fbd b562 ebbd 9b85 46bd
000000c0: a750 083e 1a83 c43e 08a4 7ebc 2de6 143e
000000d0: 97ed b5bd cec9 dfbb da3b 443e 1a2d e1bc
000000e0: 63ea f9be 2c3e e0be ff8a 54bd 03f2 623d
000000f0: f619 da3d 05a4 953d f0b0 5cbd b0a4 ca3e
00000100: c0b2 22bd 2ea3 36bd f9d2 54bd f71a 48be
00000110: dac5 93be 0284 083d 8edb 023e 5a0c 413d
00000120: 2953 3abd dae3 343e 37df 143e 0041 38be
00000130: 164c 8dbd 08ab 1c3c cf7d 12bd 6cf7 d83c
00000140: 72a8 743c 2068 b4bc 8757 5ebd caad b03d
00000150: d2b4 66bc 1201 563d ea5d d9be 743c 193d
00000160: 0fdf 08bc 0187 9cbe c1e2 ff3d 4d39 c7b9
00000170: 8731 e1b9 3c65 97be ba62 10bf 49f1 a9bd
00000180: 7764 acbe 38ba 06be f359 cdbd a42b 1bbd
00000190: f701 0abe 741d 43bd cf62 26bd 5f58 4f3c
000001a0: 97e4 0e3d 416a 153e 64cf 833c 8ccc ea3e
000001b0: 4536 973d 1eec 8ebe bc81 bebe fc3a 1e3e
000001c0: 5ffb 5e3e dc73 233d ffd3 7c3d 3105 01bd
000001d0: e679 95bd 2d60 09be dab8 df3c 3175 3a3d
000001e0: 33b5 fd3e adaf f23d 8aa1 75bd 2c4a a2bd
000001f0: ed23 a03c 3af8 163e 4be2 27bd 9ad6 0cbd
-0.10053814 -0.31968287 0.057661954 -0.38758907 -0.019244777 -0.022367805 -0.014813223 0.038491353
-0.025212122 -0.039878946 0.010596027 -0.017609803 -0.004959069 0.062296905 -0.3033518 -0.04780552
0.0845704 0.011778552 0.10951391 -0.098987 -0.10034453 -0.10344089 0.08456605 0.14664847
0.29377803 -0.042148326 -0.032080725 -0.01697327 0.07659521 0.43484637 0.15177436 -0.12223268
-0.059251618 0.054104984 -0.03895595 -0.59189874 -0.3111969 0.09856973 0.067466535 -0.09826109
-0.4220199 -0.014350947 -0.06993668 -0.015352752 -0.050567433 -0.05845849 -0.11493436 -0.04846726
0.13312016 0.38381273 -0.015542038 0.1454093 -0.08883207 -0.006829477 0.19163457 -0.027487326
-0.48811635 -0.43797433 -0.05189037 0.05540658 0.10649483 0.07306675 -0.05387968 0.39578772
-0.03972125 -0.044589214 -0.05195901 -0.19541536 -0.28861886 0.033329017 0.12779066 0.04713092
-0.045489464 0.17665043 0.14538275 -0.17993546 -0.06899278 0.009562261 -0.03576451 0.026485167
0.014932739 -0.022022307 -0.05428269 0.08626898 -0.014081197 0.052247114 -0.42454463 0.03741117
-0.008353963 -0.3057175 0.12494422 -0.0003799893 -0.00042952245 -0.29569423 -0.56400645 -0.082979746
-0.336704 -0.13156974 -0.10026922 -0.037883416 -0.13477312 -0.04763551 -0.040621575 0.012655347
0.03488597 0.14591314 0.016090102 0.45859182 0.07383398 -0.27914518 -0.37208354 0.15452188
0.21775578 0.039905414 0.061725613 -0.03149909 -0.07298641 -0.13415594 0.027309824 0.04552192
0.49552307 0.11849914 -0.05996851 -0.079243034 0.01954838 0.14743128 -0.040987294 -0.034384347

lstm.bias_hh_l0 f4 [128]
00000000: 4375 05be 8c8a babe bdc6 9f3d 79cb d8be
00000010: 9c82 343d f4e7 2d3d 7754 e8bb 7c5e 80bd
00000020: 4c5b c43d ba10 45bd d7a5 fcbc 535b 12be
00000030: fda8 debc d682 9a3d 5116 64be d905 c53d
00000040: e732 32bd e223 113d 2d84 1f3e a299 55be
00000050: 16fd b3bd 3933 95bd 0cc4 53bd 9132 eb3c
00000060: 8dd0 c73e aa64 14be 130d 903c a5d6 613c
00000070: a4fc d23c 9d61 d03e 0ed8 033e c3ba 4abe
00000080: 4444 9b3c 658e 98bd d686 0a3d 5bee 0fbf
00000090: 2baa 84be 3471 a0bc 73cf f53c 668b ca3c
000000a0: 6ca3 e8be 815f 8e3b be7d c93c 01bd e03b
000000b0: ffef 82bc b3c7 983d 8ced 4ebd 00ff f63c
000000c0: 6eb8 113e 4741 c83e b29d 12bd 18be d5bb
000000d0: 3452 e53c 958d a83d 9124 6f3e bb8f f13c
000000e0: b27a e9be 2743 dbbe 51b5 283c dd6c 45bd
000000f0: 4faf 173b fc89 083d 1bf3 a13d d685 c93e
00000100: 19cd 83bb 609e b63d b802 a5bd fafd d0bd
00000110: a8a8 6fbe 1bf7 7cbc ff75 2a3e 2f57 17bd
00000120: 648e 1cbd f7d7 033e 89cd c23d 8aba 0fbd
00000130: 02a2 153d 2e16 953d f134 75bd ed28 d8bd
00000140: 4e4f 40bc 6e70 0d3e bae0 01be 6ea9 de3d
00000150: 41d7 233c c443 02bd 4896 e8be 8e83 9a3d
00000160: 14fc 81bd 1d91 9abe 2beb 543d 1096 23be
00000170: 78af 7f3c e802 a8be 5041 03bf 21fb 513d
00000180: 8893 c8be 1296 99bd 032b 97bd 32e2 c3bd
00000190: 13e3 11bd af92 813d cd14 41bd 1f21 babd
000001a0: 18ca 9b3c 83e0 643e f1fb 2c3c 9ed8 e03e
000001b0: b9a2 213e c66c 82be 59e1 cebe fbdd 593d
000001c0: 80b1 423e 7ebb 113d 4ca0 1a3c abd6 23bc
000001d0: a5fc 433c ecee cebd 840e 62bd 9b86 f63b
000001e0: be51 0f3f 928f 14bd 464b 8ebc c4ec b5bd
000001f0: 8d71 c5bb f3cb a9bc 6c88 84bd 170a 9fbd
-0.13033013 -0.36433828 0.07801578 -0.42342737 0.04406987 0.042457536 -0.007090147 -0.062680215
0.09587726 -0.048111655 -0.030840797 -0.1429265 -0.02718019 0.07544486 -0.22274138 0.09620256
-0.043505576 0.03543461 0.15577765 -0.20859388 -0.08788507 -0.072851606 -0.051700637 0.028710635
0.390263 -0.14491525 0.01758436 0.013784085 0.025755234 0.40699473 0.12875387 -0.19797806
0.01895345 -0.074490346 0.033819996 -0.56223077 -0.25911078 -0.01958523 0.030006146 0.024724673
-0.4543718 0.004344881 0.024596091 0.0068584685 -0.01598358 0.074599646 -0.05051951 0.03015089
0.1423051 0.39112303 -0.03579492 -0.006522905 0.027993299 0.0823013 0.23353793 0.029487481
-0.45601422 -0.4282467 0.010297135 -0.048199523 0.0023145264 0.033334717 0.07907697 0.3935992
-0.0040222523 0.089169264 -0.08057159 -0.10204692 -0.23404181 -0.015439774 0.16646574 -0.03694838
-0.03822173 0.12875353 0.09511859 -0.035090007 0.036531456 0.07279621 -0.059864942 -0.10554681
-0.011737658 0.1381242 -0.12683383 0.1087216 0.010000051 -0.031802908 -0.45427155 0.07544623
-0.06346908 -0.30188838 0.051982086 -0.15975213 0.0156058 -0.32814717 -0.51271534 0.051264886
-0.39175057 -0.07499327 -0.07381251 -0.09564628 -0.035616945 0.06326806 -0.047138978 -0.090883486
0.019017264 0.2235127 0.010558114 0.43915266 0.1578473 -0.25473613 -0.40406302 0.053190213
0.19013023 0.035579197 0.009437632 -0.009999911 0.011962091 -0.101041645 -0.055189624 0.0075233704
0.55984104 -0.03626973 -0.017369878 -0.0888305 -0.006025499 -0.020727133 -0.06471333 -0.07765596

final.weight f4 [61, 128]
00000000: a190 e4bb ebfa d53d 9b79 ffbc 28cb a13d
00000010: 72f4 a8bd a319 8b3d 7d87 8cbc 04a8 123e
00000020: 71b0 c8bd eccf 713d a268 7c3d 3474 5d3d
00000030: 2de2 943d 2309 8cbc 2cfe 8b3d 29d5 d5bd
00000040: f4c2 b73c e872 9f3d 4500 ebbd da92 f6b9
00000050: 1494 e43d c577 d139 85e4 e6bc e6c7 5abc
00000060: 08cf 68bd 2c28 3b3d eddc cebc 5fd1 843d
00000070: 7335 f93d b5c1 2fbe 1c41 e63b f9a8 cd3d
00000080: df6e 8d3d 6cba 43bd 9c83 3f3d 14b6 b33d
00000090: 5ea8 193e 225d 0dbd 0b82 12be 5704 8cbc
000000a0: d874 043e 7e16 7cbd 2599 8d3d b70b e23d
000000b0: 04c8 53bd 4e25 19be d330 ff3d cdde 2bbd
000000c0: c946 97bc 4859 ffbd 137a 5b3d b622 82bd
000000d0: 2776 693d 461c 3ebd 1e86 a0bd f865 e4bc
000000e0: 7b0d 853d 639f 7f3d 2704 eebc 55cb 423c
000000f0: e33d bfbd 54aa 72bd abe6 9cbd fa05 a8bd
00000100: 8403 6cbd 8bf7 7dbd d49b 94bd 4ca1 c73d
00000110: 7bb3 003e 57c4 86bd 7379 52bd 09a9 2e3b
00000120: ae7a 39bd 42aa 25bd fdf6 d1bd f1da 4ebd
00000130: 1707 e13d 332e bcbd be2d ed3c bf2d ac3d
00000140: cc76 913d 460c 3dbd a2fc c2bb 9d13 4dbd
00000150: 2060 39bd 4a33 e9bd 8691 433e 53c7 34bd
00000160: 250b aa3d 4f32 ea3c 74ef debd c613 d13d
00000170: 6924 4fbb c0ef 9e3c ed2e 163e 7c2d 2d3d
00000180: da33 e13d c1f0 883d c989 31bd 88a3 b63d
00000190: 864d 0e3e 341a c9bd 104b f93d 32d7 313c
000001a0: cd6c dfbb b2e8 07be 0cab 27ba 804b 5ebe
000001b0: f5fc 75bd 5c4b a63d ecbd 903d f641 4fbd
000001c0: abe8 dabd e383 973d b381 1e3d 842c 823c
000001d0: 63ca acbc 0ec2 263e 3878 06bd e282 7dbb
000001e0: bebd 82bd 02fd 0dbd c68d 123c acb4 d33d
000001f0: 4050 80bd ee10 38bd 11be c1bc 55fa 80bd
00000200: 8b5c 373c 507a 243d 3862 8bbd 41b6 573d
00000210: d2e4 d1bd b15b 19bd 4203 ca3d 8426 b93d
00000220: 9bb4 083d 787d 10bc 04b2 0f3d 0ab8 123e
00000230: b898 69bb 9fc5 0a3e 0b17 143e 86d5 bcbd
00000240: fe94 a1bd d12d d03d 0aa8 4dbd 71e8 073e
00000250: ee42 823c 0fdc c53d 0b9c bbbd 474e 89bd
00000260: af00 1dbd 93b6 f43d 91a4 bd3c f862 ddbc
00000270: 2a9f cf3c b2ca 13be e90b 12be 3561 603b
00000280: 2125 c7bc f363 543d c841 83bd eae6 323e
00000290: 0889 883d e7cf 61bd 616c be3c 3d1a babd
000002a0: b648 dc3d 5aa6 dbbd cf90 fcbc 5a1e e23d
000002b0: aae7 97ba 1f6e 8cbd 71d4 133d 18e3 a7bc
000002c0: 125c 08bd 4e51 93bd f807 febc ca77 32bc
000002d0: 8985 34bb 71f1 80bd 1766 9a3b ab86 6abc
000002e0: 22f0 1d3e a94b d53d f83c e2bc 92d8 ed3d
000002f0: f87a 0a3d 673b a33c c008 eebd 110e 29bd
00000300: d931 7bbd d2d8 85bc d210 39bc d575 c93d
00000310: 4253 b93d 86ec 76bb a127 d43c ea85 a93d
00000320: 23a4 24bd b97d 13be 3f61 fdbd 5367 1ebb
00000330: 2882 c13d af9a 10bd 9770 703d ecf1 183e
00000340: a79f 93bd 1b70 97bd c62c 263d 5cf4 c4bc
00000350: 6274 a93d bb9a 1a3c a731 3d3e 586f 923d
00000360: 4bc7 f93d 194d 293d ea1e 8fbd 4a52 923d
00000370: 414f 9fbd 4266 f23d 3d8c 1d3e 96b1 343d
00000380: 270a c53d d6b7 103d 6808 a43d 45a0 0f3e
00000390: c348 0d3e fb8d 6e3c 9653 343d dc70 5c3d
000003a0: 6f8a 5c3c 83e2 d3bc 4769 573d c492 ffbd
000003b0: e2fb 7abd 079a 983c b636 b53d 6301 42bd
000003c0: d5be 6ebc 90d6 1dbd 70a8 563d 1ca2 af3d
000003d0: b7d8 633d 7836 073e 233b 853d 1a70 9a3d
000003e0: 48d4 46be 5a3a d03c d537 133e cbec 773d
000003f0: 7857 94bb 4275 b2bd ea61 cdbc 8e73 a53d
-0.006975249 0.104482494 -0.031185916 0.07900077 -0.08249749 0.06791999 -0.01715445 0.14321905
-0.097992785 0.05903618 0.061623223 0.054065898 0.07269702 -0.0170942 0.06835589 -0.10441048
0.022431828 0.077855885 -0.11474661 -0.0004703019 0.11161056 0.00039952822 -0.028185138 -0.013353324
-0.056838065 0.045692608 -0.02525183 0.06485247 0.12168398 -0.17163737 0.0070268046 0.100419946
0.069059126 -0.047785208 0.04675637 0.08774963 0.15005633 -0.034512646 -0.1430742 -0.017091913
0.12935197 -0.061544888 0.069139756 0.11037391 -0.05170442 -0.14955637 0.12460484 -0.041960526
-0.01846637 -0.12468201 0.053583216 -0.06354277 0.056997444 -0.046413682 -0.07838081 -0.027880654
0.06496712 0.062407862 -0.029054714 0.011889298 -0.09337976 -0.05924447 -0.07661184 -0.08204265
-0.05762054 -0.062003653 -0.07256284 0.09747562 0.12568466 -0.065804176 -0.051385354 0.0026651046
-0.045283012 -0.040445574 -0.102521874 -0.050501768 0.109876804 -0.09188499 0.028952476 0.08407163
0.07102737 -0.046154283 -0.0059505263 -0.050067533 -0.045257688 -0.11386736 0.19098482 -0.044135403
0.08302907 0.028588442 -0.10885516 0.102088496 -0.0031607396 0.019401431 0.14666338 0.042279705
0.10996218 0.06686545 -0.043344293 0.0891791 0.1389676 -0.09819451 0.1217252 0.010854529
-0.00681839 -0.1327236 -0.00063960324 -0.21708488 -0.06005569 0.081198424 0.07067475 -0.050600015
-0.10688909 0.07398202 0.03869791 0.015890367 -0.0210926 0.16284963 -0.032829493 -0.0038682749
-0.06383847 -0.034665115 0.008944934 0.10337195 -0.062653065 -0.04493802 -0.023650201 -0.06297747
0.011191498 0.04015571 -0.06805843 0.052664045 -0.10248722 -0.03744096 0.09863903 0.090405494
0.033375364 -0.008818977 0.03508188 0.14328018 -0.0035644006 0.13551949 0.14461915 -0.09220414
-0.07889746 0.10164989 -0.050209083 0.13272263 0.015901055 0.096611135 -0.09160622 -0.06704383
-0.03833073 0.11948886 0.02314976 -0.027024731 0.02534445 -0.14432791 -0.14262356 0.0034237627
-0.024309697 0.05185313 -0.06409031 0.17470899 0.06666762 -0.05512991 0.023245038 -0.09087036
0.10756056 -0.107250884 -0.030830769 0.11040945 -0.0011589427 -0.068569414 0.03609127 -0.020494029
-0.03329093 -0.07193242 -0.03100966 -0.010892818 -0.0027545413 -0.06296051 0.004711877 -0.014314334
0.15423635 0.10414822 -0.027616963 0.11613573 0.03380868 0.019925786 -0.11622763 -0.04127318
-0.061326835 -0.01633874 -0.011295514 0.09836928 0.09049083 -0.00376776 0.025897803 0.08277495
-0.040195595 -0.14403428 -0.12372064 -0.0024170473 0.094486535 -0.035303768 0.058701124 0.14936036
-0.07208186 -0.07394429 0.040570043 -0.0240423 0.082741514 0.009436305 0.18475972 0.071501434
0.12196215 0.04133329 -0.06988318 0.07144602 -0.07778788 0.118359104 0.15385528 0.04411467
0.09621077 0.03533157 0.08009416 0.14025982 0.13797288 0.014560218 0.044025026 0.05381857
0.0134607395 -0.025864845 0.052590635 -0.12479165 -0.06127537 0.018628133 0.08848326 -0.047364604
-0.014571865 -0.0385347 0.05240673 0.08575842 0.055626597 0.13204372 0.0650542 0.07540913
-0.19416916 0.02541845 0.14376767 0.060528558 -0.0045270287 -0.087137714 -0.025071103 0.08078681

final.bias f4 [61]
00000000: afde 8cbe ce05 94be 5177 9abe d2e6 a4be
00000010: 0cdd 50be cae5 87be d771 50be e15a 3cbe
00000020: ccc4 78be 15a4 5bbe 73dc 70be 9968 5bbe
00000030: 8f30 5bbe 6412 95be 177f 2f3f aaac 813e
00000040: c110 353e 8cca 8d3e ed68 203f 9188 513e
00000050: 3015 803e 376a b33e 60d9 e23e 364f 0a3e
00000060: 8081 f83e 73e0 d73e fdca 883e bb7b c13e
00000070: 1462 0d3f a2fb 963e b923 b1be cc9a af3e
00000080: 3b16 fe3e 0d8a be3e a8d2 363e 8d69 063e
00000090: 5a1b 173e fb67 52bc 45fc 383e 6d51 9d3d
000000a0: 29eb 38be 6c80 60be 386f 98be f9fe 3dbe
000000b0: bc0d 23be effb a7be f4bb 67be 74f6 9bbe
000000c0: 39cb aebe 8bd9 87be f533 4fbe c30b 3fbe
000000d0: 8d55 8ebe 24eb b2be a526 42be 26a0 a4be
000000e0: f2a2 4ebe e780 65be 1a82 99be e74a 95be
000000f0: dd38 423f
-0.27513644 -0.2891068 -0.30169156 -0.32207352 -0.20396823 -0.26542503 -0.20355926 -0.18394043
-0.24293822 -0.21449311 -0.23521595 -0.2142662 -0.21405242 -0.29115593 0.685533 0.25327045
0.17682172 0.27693594 0.62660104 0.20462252 0.25016165 0.35041973 0.4430647 0.13506779
0.485363 0.4216343 0.26717368 0.3778971 0.5522778 0.29488856 -0.34597567 0.34297788
0.49626336 0.372147 0.17853796 0.13126202 0.14756528 -0.012842174 0.18064983 0.07681546
-0.18058456 -0.21923989 -0.29772353 -0.18554296 -0.15923208 -0.32809398 -0.22630292 -0.30461466
-0.34139422 -0.2653316 -0.20234664 -0.1865683 -0.27799645 -0.34945023 -0.18960054 -0.32153434
-0.20179346 -0.22412454 -0.29982072 -0.29158708 0.75868016

momentum_buffer f4 [128, 61]
00000000: 0000 0000 0000 0000 0000 0000 0000 0000
00000010: 0000 0000 0000 0000 0000 0000 0000 0000
00000020: 0000 0000 0000 0000 0000 0000 0000 0000
00000030: 0000 0000 0000 0000 c2e3 bcbc 1730 f2bb
00000040: 97a8 af39 ece6 b5ba aae3 8e3d 9e0a cabc
00000050: 934b 5038 0cf0 093c e85c 5f3b 4dd4 053b
00000060: 9aa5 21bd c4f1 96bc c077 6cbb 9982 cabc
00000070: 9a27 6f3b f212 d43a 0000 0000 5cac fd3b
00000080: ae84 373d 6cb8 c9bc e241 4abc 1d00 cd3a
00000090: a36e 96bc 28cd 893a 5c38 02bb 7945 c5b5
000000a0: 0000 0000 0000 0000 0000 0000 0000 0000
000000b0: 79a5 9237 0000 0000 0000 0000 0000 0000
000000c0: 0000 0000 0000 0000 0000 0000 0000 0000
000000d0: 0000 0000 0000 0000 0000 0000 0000 0000
000000e0: 0000 0000 0000 0000 0000 0000 bd59 393d
000000f0: 0000 0000 0000 0000 0000 0000 0000 0000
00000100: 0000 0000 0000 0000 0000 0000 0000 0000
00000110: 0000 0000 0000 0000 0000 0000 0000 0000
00000120: 0000 0000 0000 0000 0000 0000 10bf 5cbb
00000130: 5b8f 80ba d97c 1cb9 f37d 80ba 1b24 a73b
00000140: 21e5 53bb 3bab a6b8 9f67 2f3a c51f 81bb
00000150: a478 cfba fd6f 8bbb 97f3 a9bb 24bf a1b9
00000160: 3ecb 02bb a290 923b fa52 613a 0000 0000
00000170: f42e 0a3b 5157 013c b764 2ebb c754 563a
00000180: ee23 9339 63ac 03bb 164c 3139 8548 0f39
00000190: db73 8833 0000 0000 0000 0000 0000 0000
000001a0: 0000 0000 0702 aa35 0000 0000 0000 0000
000001b0: 0000 0000 0000 0000 0000 0000 0000 0000
000001c0: 0000 0000 0000 0000 0000 0000 0000 0000
000001d0: 0000 0000 0000 0000 0000 0000 0000 0000
000001e0: 38fd ecba 0000 0000 0000 0000 0000 0000
000001f0: 0000 0000 0000 0000 0000 0000 0000 0000
00000200: 0000 0000 0000 0000 0000 0000 0000 0000
00000210: 0000 0000 0000 0000 0000 0000 0000 0000
00000220: 87de a4bc 3638 5a3c 3d9a b43b 3f4f 90ba
00000230: 9802 04bd a467 ce3c 6759 3dbb a172 0e3a
00000240: 47d4 3bbc eb0a 8d3c f70f a73c b634 c0bc
00000250: 3c0f b83b f497 92bc ed70 553b ff4a 263b
00000260: 0000 0000 ff7c 943c 7d9e 8ebb 7ecd 483c
00000270: cf56 d43b 23e9 b2ba c649 dc3c 42d2 77aa
00000280: 3178 2fbb df77 ee34 0000 0000 0000 0000
00000290: 0000 0000 0000 0000 c118 fab4 0000 0000
000002a0: 0000 0000 0000 0000 0000 0000 0000 0000
000002b0: 0000 0000 0000 0000 0000 0000 0000 0000
000002c0: 0000 0000 0000 0000 0000 0000 0000 0000
000002d0: 0000 0000 e441 e7bb 0000 0000 0000 0000
000002e0: 0000 0000 0000 0000 0000 0000 0000 0000
000002f0: 0000 0000 0000 0000 0000 0000 0000 0000
00000300: 0000 0000 0000 0000 0000 0000 0000 0000
00000310: 0000 0000 6bfa aebb 59e4 8ab8 bc39 623b
00000320: 3e01 6b39 67e4 94bb 99ee 0a3b cb38 dcb9
00000330: ec19 ae3a 58f8 c2ba 6f70 f3b9 dc06 c7ba
00000340: d359 2539 c3b3 9a39 6ee7 98bb e54d 353b
00000350: 3e42 d939 0000 0000 75a4 ff3a 9312 c33c
00000360: de0f 50bc 2367 5139 a50a d5b8 ef5d 813a
00000370: 51b1 8239 9f42 093a b7cd dab4 0000 0000
00000380: 0000 0000 0000 0000 0000 0000 ee8a b835
00000390: 0000 0000 0000 0000 0000 0000 0000 0000
000003a0: 0000 0000 0000 0000 0000 0000 0000 0000
000003b0: 0000 0000 0000 0000 0000 0000 0000 0000
000003c0: 0000 0000 0000 0000 9a7f d13a 0000 0000
000003d0: 0000 0000 0000 0000 0000 0000 0000 0000
000003e0: 0000 0000 0000 0000 0000 0000 0000 0000
000003f0: 0000 0000 0000 0000 0000 0000 0000 0000
0.0 0.0 0.0 0.0 0.0 0.0 0.0 0.0
0.0 0.0 0.0 0.0 0.0 0.0 -0.023057822 -0.0073909867
0.0003350421 -0.0013878024 0.06977017 -0.024663266 4.966145e-05 0.008419048 0.0034082476 0.002042073
-0.03946457 -0.01842583 -0.0036082119 -0.024720477 0.003649211 0.0016179963 0.0 0.007741494
0.044804268 -0.024624072 -0.012344809 0.0015640293 -0.018363303 0.0010513412 -0.0019870019 -1.4697863e-06
0.0 0.0 0.0 0.0 1.748161e-05 0.0 0.0 0.0
0.0 0.0 0.0 0.0 0.0 0.0 0.0 0.0
0.0 0.0 0.0 0.045251597 0.0 0.0 0.0 0.0
0.0 0.0 0.0 0.0 0.0 0.0 0.0 0.0
0.0 0.0 0.0 -0.0033683218 -0.0009808348 -0.00014923829 -0.0009803161 0.0051007397
-0.0032332616 -7.947391e-05 0.0006691161 -0.003940555 -0.00158288 -0.0042552934 -0.005186509 -0.00030850724
-0.0019957568 0.004472808 0.00085954333 0.0 0.0021085115 0.007894353 -0.0026610324 0.0008176085
0.00028064795 -0.0020091764 0.0001690838 0.00013664558 6.3540675e-08 0.0 0.0 0.0
0.0 1.2666577e-06 0.0 0.0 0.0 0.0 0.0 0.0
0.0 0.0 0.0 0.0 0.0 0.0 0.0 0.0
-0.0018080836 0.0 0.0 0.0 0.0 0.0 0.0 0.0
0.0 0.0 0.0 0.0 0.0 0.0 0.0 0.0
-0.02012564 0.013319066 0.0055115507 -0.0011009945 -0.032229036 0.025195904 -0.00288924 0.0005433951
-0.011464185 0.01721712 0.020393355 -0.023462635 0.0056170505 -0.017894723 0.003256853 0.002537429
0.0 0.018126009 -0.0043523894 0.012256024 0.006480075 -0.0013649802 0.026890647 -2.2010955e-13
-0.002677452 4.4418172e-07 0.0 0.0 0.0 0.0 -4.658414e-07 0.0
0.0 0.0 0.0 0.0 0.0 0.0 0.0 0.0
0.0 0.0 0.0 0.0 0.0 -0.0070574153 0.0 0.0
0.0 0.0 0.0 0.0 0.0 0.0 0.0 0.0
0.0 0.0 0.0 0.0 0.0 -0.0053399107 -6.622886e-05 0.0034519276
0.00022411809 -0.0045438292 0.0021199344 -0.00042003984 0.0013282872 -0.0014875038 -0.0004643234 -0.0015184539
0.00015769088 0.00029507102 -0.0046662604 0.0027664837 0.0004143882 0.0 0.0019503968 0.023812568
-0.0126990955 0.00019970215 -0.00010158614 0.0009869913 0.00024927643 0.00052360626 -4.0755342e-07 0.0
0.0 0.0 0.0 1.3749502e-06 0.0 0.0 0.0 0.0
0.0 0.0 0.0 0.0 0.0 0.0 0.0 0.0
0.0 0.0 0.0015983463 0.0 0.0 0.0 0.0 0.0
0.0 0.0 0.0 0.0 0.0 0.0 0.0 0.0

momentum_buffer f4 [128, 128]
00000000: 0000 0000 0000 0000 0000 0000 0000 0000
00000010: 0000 0000 0000 0000 0000 0000 0000 0000
00000020: 0000 0000 0000 0000 0000 0000 0000 0000
00000030: 0000 0000 0000 0000 0000 0000 0000 0000
00000040: 0000 0000 0000 0000 0000 0000 0000 0000
00000050: 0000 0000 0000 0000 0000 0000 0000 0000
00000060: 0000 0000 0000 0000 0000 0000 0000 0000
00000070: 0000 0000 0000 0000 0000 0000 0000 0000
00000080: 0000 0000 0000 0000 0000 0000 0000 0000
00000090: 0000 0000 0000 0000 0000 0000 0000 0000
000000a0: 0000 0000 0000 0000 0000 0000 0000 0000
000000b0: 0000 0000 0000 0000 0000 0000 0000 0000
000000c0: 0000 0000 0000 0000 0000 0000 0000 0000
000000d0: 0000 0000 0000 0000 0000 0000 0000 0000
000000e0: 0000 0000 0000 0000 0000 0000 0000 0000
000000f0: 0000 0000 0000 0000 0000 0000 0000 0000
00000100: 0000 0000 0000 0000 0000 0000 0000 0000
00000110: 0000 0000 0000 0000 0000 0000 0000 0000
00000120: 0000 0000 0000 0000 0000 0000 0000 0000
00000130: 0000 0000 0000 0000 0000 0000 0000 0000
00000140: 0000 0000 0000 0000 0000 0000 0000 0000
00000150: 0000 0000 0000 0000 0000 0000 0000 0000
00000160: 0000 0000 0000 0000 0000 0000 0000 0000
00000170: 0000 0000 0000 0000 0000 0000 0000 0000
00000180: 0000 0000 0000 0000 0000 0000 0000 0000
00000190: 0000 0000 0000 0000 0000 0000 0000 0000
000001a0: 0000 0000 0000 0000 0000 0000 0000 0000
000001b0: 0000 0000 0000 0000 0000 0000 0000 0000
000001c0: 0000 0000 0000 0000 0000 0000 0000 0000
000001d0: 0000 0000 0000 0000 0000 0000 0000 0000
000001e0: 0000 0000 0000 0000 0000 0000 0000 0000
000001f0: 0000 0000 0000 0000 0000 0000 0000 0000
00000200: 0000 0000 0000 0000 0000 0000 0000 0000
00000210: 0000 0000 0000 0000 0000 0000 0000 0000
00000220: 0000 0000 0000 0000 0000 0000 0000 0000
00000230: 0000 0000 0000 0000 0000 0000 0000 0000
00000240: 0000 0000 0000 0000 0000 0000 0000 0000
00000250: 0000 0000 0000 0000 0000 0000 0000 0000
00000260: 0000 0000 0000 0000 0000 0000 0000 0000
00000270: 0000 0000 0000 0000 0000 0000 0000 0000
00000280: 0000 0000 0000 0000 0000 0000 0000 0000
00000290: 0000 0000 0000 0000 0000 0000 0000 0000
000002a0: 0000 0000 0000 0000 0000 0000 0000 0000
000002b0: 0000 0000 0000 0000 0000 0000 0000 0000
000002c0: 0000 0000 0000 0000 0000 0000 0000 0000
000002d0: 0000 0000 0000 0000 0000 0000 0000 0000
000002e0: 0000 0000 0000 0000 0000 0000 0000 0000
000002f0: 0000 0000 0000 0000 0000 0000 0000 0000
00000300: 0000 0000 0000 0000 0000 0000 0000 0000
00000310: 0000 0000 0000 0000 0000 0000 0000 0000
00000320: 0000 0000 0000 0000 0000 0000 0000 0000
00000330: 0000 0000 0000 0000 0000 0000 0000 0000
00000340: 0000 0000 0000 0000 0000 0000 0000 0000
00000350: 0000 0000 0000 0000 0000 0000 0000 0000
00000360: 0000 0000 0000 0000 0000 0000 0000 0000
00000370: 0000 0000 0000 0000 0000 0000 0000 0000
00000380: 0000 0000 0000 0000 0000 0000 0000 0000
00000390: 0000 0000 0000 0000 0000 0000 0000 0000
000003a0: 0000 0000 0000 0000 0000 0000 0000 0000
000003b0: 0000 0000 0000 0000 0000 0000 0000 0000
000003c0: 0000 0000 0000 0000 0000 0000 0000 0000
000003d0: 0000 0000 0000 0000 0000 0000 0000 0000
000003e0: 0000 0000 0000 0000 0000 0000 0000 0000
000003f0: 0000 0000 0000 0000 0000 0000 0000 0000
0.0 0.0 0.0 0.0 0.0 0.0 0.0 0.0
0.0 0.0 0.0 0.0 0.0 0.0 0.0 0.0
0.0 0.0 0.0 0.0 0.0 0.0 0.0 0.0
0.0 0.0 0.0 0.0 0.0 0.0 0.0 0.0
0.0 0.0 0.0 0.0 0.0 0.0 0.0 0.0
0.0 0.0 0.0 0.0 0.0 0.0 0.0 0.0
0.0 0.0 0.0 0.0 0.0 0.0 0.0 0.0
0.0 0.0 0.0 0.0 0.0 0.0 0.0 0.0
0.0 0.0 0.0 0.0 0.0 0.0 0.0 0.0
0.0 0.0 0.0 0.0 0.0 0.0 0.0 0.0
0.0 0.0 0.0 0.0 0.0 0.0 0.0 0.0
0.0 0.0 0.0 0.0 0.0 0.0 0.0 0.0
0.0 0.0 0.0 0.0 0.0 0.0 0.0 0.0
0.0 0.0 0.0 0.0 0.0 0.0 0.0 0.0
0.0 0.0 0.0 0.0 0.0 0.0 0.0 0.0
0.0 0.0 0.0 0.0 0.0 0.0 0.0 0.0
0.0 0.0 0.0 0.0 0.0 0.0 0.0 0.0
0.0 0.0 0.0 0.0 0.0 0.0 0.0 0.0
0.0 0.0 0.0 0.0 0.0 0.0 0.0 0.0
0.0 0.0 0.0 0.0 0.0 0.0 0.0 0.0
0.0 0.0 0.0 0.0 0.0 0.0 0.0 0.0
0.0 0.0 0.0 0.0 0.0 0.0 0.0 0.0
0.0 0.0 0.0 0.0 0.0 0.0 0.0 0.0
0.0 0.0 0.0 0.0 0.0 0.0 0.0 0.0
0.0 0.0 0.0 0.0 0.0 0.0 0.0 0.0
0.0 0.0 0.0 0.0 0.0 0.0 0.0 0.0
0.0 0.0 0.0 0.0 0.0 0.0 0.0 0.0
0.0 0.0 0.0 0.0 0.0 0.0 0.0 0.0
0.0 0.0 0.0 0.0 0.0 0.0 0.0 0.0
0.0 0.0 0.0 0.0 0.0 0.0 0.0 0.0
0.0 0.0 0.0 0.0 0.0 0.0 0.0 0.0
0.0 0.0 0.0 0.0 0.0 0.0 0.0 0.0

momentum_buffer f4 [128]
00000000: 900c 29bc 0c50 24bc 730b 063d a2ba 0f3c
00000010: d509 62bd e294 243e fccb 9ebd 8ed9 1cbd
00000020: 1d0d 283e 020a de3d 9c0a 8f3d c2ed 06be
00000030: ad09 5abe b9ca 2bbe cc6d f33b 0abd 8f3d
00000040: 1899 253e 6a9d 64be 664c c93c 7427 0f3d
00000050: b2f3 6c3d 9693 143d 48c5 4cbc 78fa 27be
00000060: b3e1 f63c 28b7 d83d 5ffc 2ebe 1d60 3b3e
00000070: 62cc ed3d f593 77bb a427 f7bd 93d4 bb3c
00000080: 58a8 7abe 60ae d03c 1dd0 09be 262c 3fbb
00000090: fa77 363d ec9b 3abe cd06 c43d a88c 213e
000000a0: 54a9 a03b 7237 8ebd 2014 3a3b e8ad ccbd
000000b0: 6950 e63d e6d1 0e3d 068f cfbd e39b 9cbd
000000c0: f4a4 6bbe 304d aa3c 2a80 debc 1080 35bc
000000d0: 3689 f63d 354f 0f3e f992 c63c 5f40 cfbd
000000e0: 1669 a93a 6702 8d3c 4831 a93e 2f36 183e
000000f0: 19b0 d8bd 60a0 26bb ab60 60be 9f30 8b3b
00000100: 8031 5e3e 10da 2d3b 8f0a 25be cc9e 033e
00000110: 3aac 563d b699 ee3c 4008 08be d241 f7bd
00000120: 8ccf 75be 42ca 03be 9ea2 a13d 4ff0 363d
00000130: 2069 e3bb 4cfc a5bd e83b 113e 6806 50bc
00000140: 82a8 00be 318c 91be 33e1 f6bc 63b7 8b3d
00000150: 0010 05b9 d963 be3d 14dc 963b ec82 613e
00000160: ccc5 56bd 15ab f4bb 4c2a afbb 88a1 0dbd
00000170: e812 0abe daa3 9bbc 45a6 0bbc 9feb a33d
00000180: f054 113d b29a 86bc 284b 5e3c c55d a93d
00000190: 2044 403d 5e64 d13c fdd4 4f3d 1ec8 3abe
000001a0: 4023 7ebc aa99 01bd 855b 91bd 261d d3ba
000001b0: 13d2 01be 17e6 223d a390 f63c 96ff 9fbe
000001c0: 1dd2 f0bc 1167 46be 2002 a53d 50ad debd
000001d0: c49c 1b3e 3022 4fbc b6bf 883d 3d72 0dbe
000001e0: 8e5d 943b 9042 423d eb1d 1e3e 2cfb 6a3d
000001f0: c8c6 61be 8a87 323d 9f72 a63d 006e 6a3b
-0.010317937 -0.01002885 0.032725763 0.008772524 -0.055185158 0.1607242 -0.07753751 -0.038293414
0.16411252 0.108417526 0.069844455 -0.13176635 -0.21292754 -0.16776551 0.0074288603 0.07018478
0.16171682 -0.22325674 0.024572562 0.034949735 0.057849593 0.03627356 -0.012498207 -0.1640414
0.030136919 0.10581809 -0.1708846 0.18298383 0.116112486 -0.0037777398 -0.12068108 0.022928512
-0.2447828 0.025473773 -0.13458295 -0.0029170602 0.044548012 -0.18223542 0.0957161 0.15776312
0.004902998 -0.06944169 0.0028393343 -0.099941075 0.11245806 0.034868143 -0.101347014 -0.076469205
-0.23012143 0.020788759 -0.027160723 -0.011077896 0.1203789 0.13995059 0.024240004 -0.101197
0.0012924995 0.01721306 0.3304541 0.1486442 -0.10580463 -0.002542518 -0.21911876 0.0042477394
0.2169857 0.002652768 -0.16117309 0.12853545 0.05241034 0.02912603 -0.13284397 -0.12073101
-0.24004954 -0.12870124 0.07892345 0.04466277 -0.006940022 -0.081047624 0.14183009 -0.01269684
-0.1256428 -0.2842727 -0.03013668 0.068220876 -0.00012689829 0.09296388 0.004603872 0.22022599
-0.052434728 -0.0074666836 -0.0053456184 -0.034577876 -0.13483775 -0.018999029 -0.008523528 0.080039255
0.035481393 -0.016431186 0.013567723 0.08269838 0.04693997 0.025560554 0.05074023 -0.18240401
-0.015511334 -0.031640686 -0.07097534 -0.0016106709 -0.12677793 0.039770212 0.030098265 -0.31249684
-0.029397065 -0.19375254 0.08057046 -0.108729005 0.1519652 -0.012642428 0.06677191 -0.1381311
0.004527754 0.04742676 0.154411 0.057368442 -0.22048485 0.04358629 0.08127331 0.0035771132

momentum_buffer f4 [128]
00000000: 900c 29bc 0c50 24bc 730b 063d a2ba 0f3c
00000010: d509 62bd e294 243e fccb 9ebd 8ed9 1cbd
00000020: 1d0d 283e 020a de3d 9c0a 8f3d c2ed 06be
00000030: ad09 5abe b9ca 2bbe cc6d f33b 0abd 8f3d
00000040: 1899 253e 6a9d 64be 664c c93c 7427 0f3d
00000050: b2f3 6c3d 9693 143d 48c5 4cbc 78fa 27be
00000060: b3e1 f63c 28b7 d83d 5ffc 2ebe 1d60 3b3e
00000070: 62cc ed3d f593 77bb a427 f7bd 93d4 bb3c
00000080: 58a8 7abe 60ae d03c 1dd0 09be 262c 3fbb
00000090: fa77 363d ec9b 3abe cd06 c43d a88c 213e
000000a0: 54a9 a03b 7237 8ebd 2014 3a3b e8ad ccbd
000000b0: 6950 e63d e6d1 0e3d 068f cfbd e39b 9cbd
000000c0: f4a4 6bbe 304d aa3c 2a80 debc 1080 35bc
000000d0: 3689 f63d 354f 0f3e f992 c63c 5f40 cfbd
000000e0: 1669 a93a 6702 8d3c 4831 a93e 2f36 183e
000000f0: 19b0 d8bd 60a0 26bb ab60 60be 9f30 8b3b
00000100: 8031 5e3e 10da 2d3b 8f0a 25be cc9e 033e
00000110: 3aac 563d b699 ee3c 4008 08be d241 f7bd
00000120: 8ccf 75be 42ca 03be 9ea2 a13d 4ff0 363d
00000130: 2069 e3bb 4cfc a5bd e83b 113e 6806 50bc
00000140: 82a8 00be 318c 91be 33e1 f6bc 63b7 8b3d
00000150: 0010 05b9 d963 be3d 14dc 963b ec82 613e
00000160: ccc5 56bd 15ab f4bb 4c2a afbb 88a1 0dbd
00000170: e812 0abe daa3 9bbc 45a6 0bbc 9feb a33d
00000180: f054 113d b29a 86bc 284b 5e3c c55d a93d
00000190: 2044 403d 5e64 d13c fdd4 4f3d 1ec8 3abe
000001a0: 4023 7ebc aa99 01bd 855b 91bd 261d d3ba
000001b0: 13d2 01be 17e6 223d a390 f63c 96ff 9fbe
000001c0: 1dd2 f0bc 1167 46be 2002 a53d 50ad debd
000001d0: c49c 1b3e 3022 4fbc b6bf 883d 3d72 0dbe
000001e0: 8e5d 943b 9042 423d eb1d 1e3e 2cfb 6a3d
000001f0: c8c6 61be 8a87 323d 9f72 a63d 006e 6a3b
-0.010317937 -0.01002885 0.032725763 0.008772524 -0.055185158 0.1607242 -0.07753751 -0.038293414
0.16411252 0.108417526 0.069844455 -0.13176635 -0.21292754 -0.16776551 0.0074288603 0.07018478
0.16171682 -0.22325674 0.024572562 0.034949735 0.057849593 0.03627356 -0.012498207 -0.1640414
0.030136919 0.10581809 -0.1708846 0.18298383 0.116112486 -0.0037777398 -0.12068108 0.022928512
-0.2447828 0.025473773 -0.13458295 -0.0029170602 0.044548012 -0.18223542 0.0957161 0.15776312
0.004902998 -0.06944169 0.0028393343 -0.099941075 0.11245806 0.034868143 -0.101347014 -0.076469205
-0.23012143 0.020788759 -0.027160723 -0.011077896 0.1203789 0.13995059 0.024240004 -0.101197
0.0012924995 0.01721306 0.3304541 0.1486442 -0.10580463 -0.002542518 -0.21911876 0.0042477394
0.2169857 0.002652768 -0.16117309 0.12853545 0.05241034 0.02912603 -0.13284397 -0.12073101
-0.24004954 -0.12870124 0.07892345 0.04466277 -0.006940022 -0.081047624 0.14183009 -0.01269684
-0.1256428 -0.2842727 -0.03013668 0.068220876 -0.00012689829 0.09296388 0.004603872 0.22022599
-0.052434728 -0.0074666836 -0.0053456184 -0.034577876 -0.13483775 -0.018999029 -0.008523528 0.080039255
0.035481393 -0.016431186 0.013567723 0.08269838 0.04693997 0.025560554 0.05074023 -0.18240401
-0.015511334 -0.031640686 -0.07097534 -0.0016106709 -0.12677793 0.039770212 0.030098265 -0.31249684
-0.029397065 -0.19375254 0.08057046 -0.108729005 0.1519652 -0.012642428 0.06677191 -0.1381311
0.004527754 0.04742676 0.154411 0.057368442 -0.22048485 0.04358629 0.08127331 0.0035771132
