app/ml_models/rnn/2337-26062021_model.pth (torch, 95575 bytes, 4 tensors)

i2h.weight f4 [128, 155]
0	0x3d880832	0.06642188
1	0x3e77ef0f	0.24212287
2	0x3e724ed9	0.2366289
3	0xbde1c3f6	-0.11023705
4	0xbf49a83a	-0.7877232
5	0xbe076f99	-0.13226165
6	0xbde5ba53	-0.11217179
7	0x3f2e191a	0.6800705
8	0xbda23603	-0.07920458
9	0xbe0543fc	-0.13014215
10	0xbf276ed8	-0.6540351
11	0xbe576238	-0.21033561
12	0x3e856601	0.26054385
13	0x3dffb13d	0.124849774
14	0x3dd978af	0.10618722
15	0xbe44e5a6	-0.19228229
16	0x3f004451	0.5010424
17	0x3d808904	0.06276134
18	0xbc952dff	-0.01821041
19	0x3e6c20ab	0.23059337
20	0x3d07b890	0.033134997
21	0x3e79c933	0.24393158
22	0xbe743f94	-0.23852378
23	0x3cfd4082	0.030914549
24	0xbeb8afe0	-0.36071682
25	0x3f0c6139	0.5483585
26	0xbca64b54	-0.020299591
27	0x3e725383	0.2366467
28	0x3e334422	0.1750646
29	0x3d79b5ab	0.060964268
30	0x3d76dc79	0.060268853
31	0x3cbafc95	0.022825519
32	0xbd75f552	-0.06004841
33	0x3e1d63ec	0.15370148
34	0x3e604457	0.2190107
35	0xbd425509	-0.047444377
36	0xbdbcf867	-0.092270665
37	0x3dd584f4	0.104257494
38	0xbd486ac0	-0.04892993
39	0x3e2cbf0c	0.16869754
40	0x3d5a28ef	0.053261694
41	0x3d86d51d	0.06583617
42	0xbd09fcb9	-0.03368828
43	0xbcebb5d7	-0.028773231
44	0x3e26d218	0.16291082
45	0xbc704fa5	-0.014667426
46	0xbe296a84	-0.16544539
47	0xbea151da	-0.3150776
48	0xbc519bf2	-0.012793528
49	0x3e64c075	0.22339042
50	0xbcfb8305	-0.030702123
51	0xbe36d506	-0.178547
52	0xbc7117fc	-0.014715191
53	0x3d52626a	0.051363386
54	0x3d7ebbe8	0.06219092
55	0xbdcb6dc7	-0.09933048
56	0xbc8062db	-0.015672138
57	0x3dfb737b	0.122778855
58	0xbdc0fd1d	-0.094232775
59	0x3b95c0bc	0.004570095
60	0x3e23534c	0.15949744
61	0x3d0e6cdb	0.03477178
62	0x3a2642df	0.0006342362
63	0x3d2f72d2	0.04283411
64	0x3c8d48cd	0.017246628
65	0xbd1ca74b	-0.03824548
66	0x3e2910ed	0.16510363
67	0x3d881d63	0.0664623
68	0xbe5f2b53	-0.2179387
69	0xbcacadb9	-0.021078931
70	0xbbce47fe	-0.006295203
71	0x3cfc1026	0.030769419
72	0x3e437770	0.1908853
73	0xbe0fca05	-0.14041908
74	0xbc886b1d	-0.016652638
75	0x3da7f5fb	0.08201214
76	0x3dc50f6b	0.09622081
77	0xbda9529a	-0.08267708
78	0xbd54b6fc	-0.05193232
79	0xbd2489ec	-0.040170595
80	0xbc097c33	-0.008391428
81	0x3d9880e5	0.0744646
82	0xbde6be10	-0.1126672
83	0xbe0299e7	-0.12754022
84	0xbd2f385a	-0.04277835
85	0x3dcb8f69	0.09939463
86	0x3e84cc31	0.25937036
87	0xbbf24174	-0.0073930565
88	0xbdcf127d	-0.10110948
89	0x3ba17961	0.0049277996
90	0xbe496274	-0.19666463
91	0x3e809049	0.2511008
92	0xbe7d31f7	-0.24726091
93	0xbe624965	-0.2209831
94	0xbe705cf4	-0.23472959
95	0xbcf3985e	-0.02973574
96	0xbe0f5e4c	-0.14000815
97	0x3e07d612	0.13265255
98	0x3d106edf	0.035261985
99	0xbcb61e07	-0.022231115
100	0xbe0444f2	-0.12916926
101	0xbe47e23d	-0.19519897
102	0x3c2cbeaf	0.010543509
103	0xbd5098f1	-0.050927106
104	0x3d11446e	0.03546565
105	0xbe19473f	-0.14968584
106	0x3dde4b07	0.10854154
107	0xbe3353a2	-0.17512372
108	0x3df0f61f	0.11765694
109	0x3c970859	0.018436598
110	0xbe138a70	-0.14408278
111	0xbe888ac5	-0.26668373
112	0x3d79a094	0.060944155
113	0x3e4f1b84	0.2022534
114	0x3e780389	0.24220099
115	0xbdf7bf8d	-0.12097082
116	0xbd620388	-0.05517915
117	0xbdfaabc8	-0.12239796
118	0x3d94aa6e	0.072590694
119	0xbc944e20	-0.01810366
120	0x3e4664fc	0.1937446
121	0x3e71eef1	0.23626305
122	0x3e489464	0.19587857
123	0xbd56880c	-0.05237584
124	0x3d94c7de	0.07264684
125	0x3ead2184	0.33814633
126	0xbe0a4fd4	-0.13507015
127	0xbc64a681	-0.013955713
128	0xbc7731b4	-0.015087534
129	0xbbe0da19	-0.0068619368
130	0xbd8acd84	-0.0677748
131	0x3e7fde8f	0.24987243
132	0xbdb289a5	-0.0871766
133	0x3dc57af5	0.09642593
134	0x3e29c1d8	0.16577852
135	0x3caffcb9	0.021482812
136	0xbddc108e	-0.10745345
137	0x3c0b04a2	0.008484991
138	0x3c5943d5	0.013260801
139	0x3e4856ce	0.19564363
140	0xbdfd4292	-0.12366213
141	0x3e13845d	0.14405961
142	0xbe3f757c	-0.1869716
143	0xbd8a2f1c	-0.06747267
144	0xbdbb8de6	-0.09157924
145	0x3e64f47e	0.22358891
146	0x3dfe80bf	0.124269
147	0xbd45ea16	-0.048318945
148	0x3e52fcf2	0.20604303
149	0xbd5641f6	-0.052309
150	0xbe15130e	-0.1455805
151	0xbd92b57b	-0.07163521
152	0x3dadc5ed	0.08485017
153	0x3e662690	0.22475648
154	0xbd9d107e	-0.07669161
155	0x3d475603	0.04866601
156	0x3ed03f1e	0.40673155
157	0x3ea40fb6	0.32043236
158	0x3bac7964	0.0052634943
159	0xbef7a777	-0.48369953
160	0x3dccb53c	0.09995505
161	0x3e22f445	0.15913494
162	0x3e87c64f	0.26518485
163	0x3de79dba	0.11309381
164	0xbe034f47	-0.1282321
165	0x3d69a8ee	0.05704587
166	0xbdc08639	-0.09400601
167	0xbd9f16c8	-0.07768017
168	0x3d17bc04	0.03704454
169	0xbee18b3a	-0.44051534
170	0xbead152e	-0.3380522
171	0x3d83c26e	0.06433569
172	0xbd256775	-0.040381867
173	0x3dc65187	0.09683519
174	0x3f1ce734	0.6129029
175	0xbd687f4e	-0.056762032
176	0xbe50f4db	-0.20405905
177	0xbe838bc0	-0.25692558
178	0x3d86f8f9	0.065904565
179	0xbe8fe03d	-0.28100768
180	0x3eb3066a	0.3496583
181	0xbd7ba9dc	-0.061441287
182	0x3eaae3d8	0.33376956
183	0x3c8af107	0.016960634
184	0x3d1e4f69	0.03864995
185	0xbdea223c	-0.11432311
186	0xbd24c1e9	-0.04022399
187	0x3d2a2b9f	0.041545507
188	0x3d5b6642	0.053564318
189	0xbd5cbfea	-0.05389396
190	0x3e1175a5	0.14205034
191	0xbe37a339	-0.17933358
192	0x3e0cc921	0.137486
193	0x3da95d4f	0.0826975
194	0xbd4afeec	-0.04955952
195	0xba490924	-0.00076689036
196	0xbd77b080	-0.060471058
197	0xbe0c3790	-0.1369307
198	0x3e4d5671	0.20052506
199	0xbc247f44	-0.010040108
200	0x3e3d19ac	0.18466824
201	0xbe1d4be0	-0.15360975
202	0x3de7a784	0.11311248
203	0x39509a32	0.00019893868
204	0x3e5d1b99	0.21592559
205	0xbddee07e	-0.10882662
206	0xbd9c2013	-0.07623305
207	0xbd407ffd	-0.04699706
208	0xbb98f51a	-0.0046678903
209	0x3d31c2f4	0.043398812
210	0x3c2e425f	0.010635941
211	0xbe466566	-0.19374618
212	0x3e6d0e9c	0.23150104
213	0xbdbe22eb	-0.09284004
214	0xbcabb2f0	-0.020959347
215	0x3db017b0	0.08598268
216	0xbddc1b2b	-0.107473694
217	0x3c410ce1	0.011782856
218	0x3d2fe732	0.042945094
219	0x3e91354a	0.2836097
220	0x3c449a99	0.01199975
221	0x3e578dfd	0.21050258
222	0x3d41fe29	0.047361527
223	0xbcfbe4c4	-0.030748732
224	0x3db1ef5f	0.086882345
225	0xbc9e4b22	-0.019322935
226	0xbd78d567	-0.06075039
227	0x3d5f540b	0.05452351
228	0x3e267fb8	0.16259658
229	0xbddc5973	-0.107592486
230	0x3d80ca94	0.06288639
231	0xbcea102d	-0.028572166
232	0xbe9941b4	-0.2993294
233	0x3d881e6c	0.066464275
234	0x3d5daa44	0.054117456
235	0xbddf9ebf	-0.1091895
236	0x3e22bccb	0.15892331
237	0xbc06f73f	-0.008237659
238	0xbcf7911a	-0.030220557
239	0xbd810fa2	-0.0630181
240	0x3db8c405	0.09021763
241	0x3e2af239	0.16693963
242	0xbdda1426	-0.10648374
243	0xbbabfefd	-0.005248903
244	0xbdc5111d	-0.09622405
245	0xbe65ea99	-0.22452773
246	0x3e88143c	0.26577938
247	0xbe0892d8	-0.13337266
248	0xbc947926	-0.018124174
249	0xbdd01250	-0.10159743
250	0xbe1bcb75	-0.15214331
251	0x3e46fdc2	0.19432738
252	0x3e016d60	0.1263938
253	0x3ba926e8	0.0051621087
254	0x3d833035	0.06405679
255	0x3e839c15	0.2570502

i2h.bias f4 [128]
0	0x3e69b88a	0.22824302
1	0xbe6ebbc6	-0.23313817
2	0x3e946548	0.2898352
3	0x3f233c15	0.6376355
4	0x3e468d10	0.19389749
5	0x3e557299	0.20844497
6	0x3e564595	0.20924981
7	0xbd7cfbd8	-0.061763614
8	0x3de21d26	0.11040716
9	0x3df1fb8c	0.11815557
10	0xbebb308b	-0.36560473
11	0xbe01fc22	-0.12693837
12	0xbe87a9c1	-0.264967
13	0xbecba604	-0.39775097
14	0xbd9f50d3	-0.07779088
15	0xbd225d89	-0.039639983
16	0x3ebd55e5	0.36979595
17	0xbded72bd	-0.1159415
18	0x3dcfb52a	0.10141976
19	0xbe3c5bf5	-0.18394454
20	0xbc871c80	-0.016493082
21	0xbe3a5ae6	-0.18198738
22	0x3ead3d60	0.33835888
23	0xbe443677	-0.19161402
24	0x3dc7c6ed	0.09754739
25	0x3e22d1e5	0.15900381
26	0x3e9ba7fe	0.30401605
27	0xbeaad9d4	-0.33369315
28	0xbe6fec06	-0.2342988
29	0x3ea243c5	0.3169233
30	0x3e0a2d4c	0.13493842
31	0x3e7abc07	0.24485789
32	0x3e7a77f3	0.2445982
33	0x3dba5da2	0.0909989
34	0xbe0f4040	-0.13989353
35	0x3d8cfd1a	0.06884213
36	0x3dac9a07	0.08427816
37	0xbe10f3d2	-0.1415551
38	0xbd8eae54	-0.06966844
39	0xbba33f28	-0.004981894
40	0x3eb39b22	0.35079294
41	0xbe595e6c	-0.21227425
42	0xbe35febb	-0.17772953
43	0x3ec38759	0.381892
44	0x3edef0d4	0.43543112
45	0x3dfbe31e	0.122991785
46	0xbe709269	-0.23493351
47	0x3c16e894	0.009210724
48	0x3e92f404	0.28701794
49	0xbef2d369	-0.47426918
50	0x3d52a639	0.051428054
51	0xbf03d39f	-0.51494783
52	0xbc9eacec	-0.019369565
53	0x3d0eb1dd	0.034837592
54	0x3f09f365	0.53887016
55	0x3d8453b7	0.0646128
56	0xbd8881b9	-0.06665368
57	0x3edb65ac	0.42851007
58	0xbd34786b	-0.044060152
59	0x3e8fd9db	0.28095898
60	0x3d640d7b	0.05567692
61	0xbe1997ee	-0.14999363
62	0x3d700186	0.058595203
63	0xbe8e0bf2	-0.2774349
64	0x3e9d0d6b	0.306743
65	0x3e11d027	0.1423956
66	0xbe87208c	-0.2639202
67	0xbe9b555b	-0.3033856
68	0xbe978031	-0.2958999
69	0x3e7ec8b1	0.24881245
70	0xbe1ab53d	-0.151082
71	0xbe65be47	-0.22435866
72	0x3d9601a6	0.07324533
73	0xbd8e265a	-0.06940909
74	0x3e9c4662	0.30522448
75	0x3e865e8a	0.26244003
76	0x3e2b381c	0.16720623
77	0x3e4ccb72	0.19999483
78	0x3d923998	0.071398914
79	0x3e483fc6	0.19555578
80	0xbc62fb0f	-0.013853802
81	0x3d2cc4ce	0.042179875
82	0xbd3f0afe	-0.046641342
83	0x3eb7119b	0.3575562
84	0xbe925812	-0.28582817
85	0x3e0d0862	0.13772729
86	0xbece5b7c	-0.40304172
87	0x3e5dd11c	0.216618
88	0x3f1e49db	0.61831445
89	0xbe4f93cd	-0.20271225
90	0x3c4c88db	0.012483801
91	0x3daaeb07	0.08345609
92	0xbe82979f	-0.25506303
93	0xbe92811b	-0.28614125
94	0x3f130eed	0.5744465
95	0x3eeed244	0.46644795
96	0x3e35086d	0.17678995
97	0x3e6a5308	0.22883236
98	0x3eb05435	0.34439245
99	0xbe6f2d18	-0.23357046
100	0xbe898c4e	-0.26864856
101	0x3f06834b	0.5254409
102	0xbe11722d	-0.14203711
103	0xbdd2dc96	-0.1029598
104	0x3e6cc511	0.2312205
105	0x3d5afebc	0.05346559
106	0x3db9116d	0.09036527
107	0xbeba8c76	-0.36435288
108	0x3dc576d7	0.096418075
109	0x3e211ce4	0.15733677
110	0x3da51a1e	0.08061622
111	0xbe621bdd	-0.22080941
112	0x3cc8abb9	0.024495946
113	0x3f25c495	0.64753085
114	0xbf04c5af	-0.5186414
115	0x3e826b5e	0.2547254
116	0xbd6cf041	-0.05784631
117	0x3d9a1242	0.07523014
118	0xbe4d4f09	-0.20049681
119	0x3ebf2d40	0.3733921
120	0x3e90675d	0.2820386
121	0x3d3ae779	0.045630906
122	0x3e14f2e2	0.14545777
123	0xbdca82c7	-0.09888225
124	0x3eb81d28	0.35959744
125	0xbe82c2ea	-0.25539333
126	0xbdc021dc	-0.09381458
127	0x3e8c7205	0.2743074

i2o.weight f4 [27, 128]
0	0xbd35730f	-0.04429918
1	0xbd504a67	-0.050852206
2	0xbc13b758	-0.0090158805
3	0xbd9efb8c	-0.077628225
4	0xbf09114b	-0.5354201
5	0xbea9fb9f	-0.33199784
6	0x3dba27ee	0.09089647
7	0x3d7ae52f	0.061253723
8	0x3e47b60f	0.19503044
9	0x3e9762a7	0.29567453
10	0x3e8d3eae	0.27586883
11	0x3dcada84	0.0990496
12	0x3e4bdb1e	0.19907805
13	0x3eb25522	0.34830576
14	0xbdcef968	-0.10106164
15	0x3ead8565	0.33890834
16	0xbe00e7dd	-0.12588449
17	0x3ec3f92f	0.3827605
18	0x3e195da4	0.14977127
19	0x3d81971b	0.06327649
20	0x3d04786e	0.032341413
21	0xbe51fb85	-0.20506103
22	0xbc1786fc	-0.009248491
23	0x3c416120	0.011802942
24	0x3e8eb052	0.27868897
25	0xbef3912b	-0.47571692
26	0xbedb87f8	-0.42877173
27	0x3e8fcd06	0.28086108
28	0x3ec21304	0.37905133
29	0x3e4be284	0.19910628
30	0x3d9b1a2e	0.07573353
31	0xbe0bc580	-0.13649559
32	0xbf206fd3	-0.6267063
33	0x3d32dc24	0.043666974
34	0xbf000b46	-0.500172
35	0xbeb749fd	-0.35798636
36	0x3f2d0435	0.67584544
37	0x3e534624	0.20632225
38	0x3e315af8	0.17319858
39	0xbe9e7384	-0.30947506
40	0x3e0025b6	0.12514386
41	0x3e770cf5	0.24126036
42	0x3eda6be7	0.42660448
43	0xbeddcdd0	-0.43321085
44	0xbd175121	-0.036942605
45	0xbe2bdeaa	-0.16784158
46	0xbda1b650	-0.078961015
47	0x3dc708cc	0.09718475
48	0x3e2ca9e0	0.16861677
49	0x3f0dac85	0.5534137
50	0x3ec73fb8	0.389158
51	0x3d89c05d	0.067261435
52	0x3ec669d4	0.38752615
53	0x3e40e6c3	0.18838029
54	0xbe528ccb	-0.20561521
55	0x3ec193e2	0.37808138
56	0xbd606f08	-0.054793388
57	0xbf3fbf1c	-0.74900985
58	0xbe3afa06	-0.18259439
59	0x3d3e8b2b	0.04651944
60	0x3e7514f5	0.23933776
61	0x3e01e253	0.12683992
62	0xbe9e1c17	-0.30880806
63	0x3e94b9ae	0.29047912
64	0xbee0ed23	-0.4393092
65	0x3c440b37	0.011965564
66	0xbdd6bb79	-0.10484976
67	0xbd267081	-0.040634636
68	0xbe8e87a5	-0.27837864
69	0xbd2cbd87	-0.042172935
70	0x3ececb3f	0.4038944
71	0x3edb4f42	0.42833906
72	0xbf2d8e6a	-0.6779543
73	0x3d61dc72	0.055141874
74	0xbf0eed97	-0.55831283
75	0xbebfe4ca	-0.3747924
76	0x3ef95d1f	0.48703858
77	0xbecb4709	-0.39702633
78	0x3e608c67	0.21928559
79	0x3e14a6dc	0.14516777
80	0x3e3ed365	0.18635328
81	0x3ea2b47d	0.31778327
82	0xbeb8ab25	-0.36068073
83	0xbe79ee7e	-0.24407384
84	0x3e947f22	0.29003245
85	0x3e8a95df	0.27067468
86	0x3d035412	0.032062598
87	0xbca9bce9	-0.020719962
88	0xbddfd1db	-0.10928699
89	0x3d8efd9a	0.069819644
90	0x3cf8181f	0.03028494
91	0x3e354d6a	0.17705312
92	0xbe2e26d3	-0.17006998
93	0xbe7d42a2	-0.2473245
94	0xbee4a075	-0.4465367
95	0x3dd27a52	0.10277237
96	0x3e083495	0.13301308
97	0xbe08846b	-0.13331763
98	0xbe3498fd	-0.17636485
99	0x3e51a978	0.20474803
100	0x3ec1325a	0.37733728
101	0xbf086fc0	-0.53295517
102	0xbcab07e6	-0.02087779
103	0xbf15a5a3	-0.58455867
104	0x3dc2537c	0.0948858
105	0xbecbca24	-0.3980266
106	0xbede8c0b	-0.4346622
107	0x3e3d0254	0.1845792
108	0x3e816b79	0.25277308
109	0xbbe23c2e	-0.0069041466
110	0xbf16f59b	-0.58968514
111	0xbf2a1783	-0.66442126
112	0x3e3a58ef	0.18197988
113	0xbd76b4e2	-0.060231097
114	0x3eb3871d	0.3506402
115	0xbc46ea4a	-0.01214082
116	0x3e4782ae	0.19483444
117	0x3e3418b2	0.17587546
118	0x3ea6ba2e	0.3256392
119	0xbe3639b9	-0.17795457
120	0xbf092022	-0.53564656
121	0xbdeb7507	-0.114969306
122	0xbee37313	-0.44423732
123	0x3e3d3aaa	0.1847941
124	0x3de72413	0.112861775
125	0x3e1d05b1	0.15334202
126	0x3e10cc85	0.14140518
127	0xbe9af6ce	-0.30266422
128	0x3e2cd97c	0.16879839
129	0x3e52fc7a	0.20604125
130	0x3e8d3700	0.27581024
131	0x3dded682	0.10880758
132	0xbeac54e4	-0.33658516
133	0xbed94ba7	-0.4244053
134	0xbef25cc8	-0.4733641
135	0xbd6b3e96	-0.057432733
136	0x3dceb61c	0.10093328
137	0x3c829b09	0.015943067
138	0x3f28ffbc	0.6601522
139	0xbe1eb330	-0.15498042
140	0x3c02388e	0.007948054
141	0x3d1fc4ce	0.039006047
142	0xbc0e1406	-0.008671766
143	0x3e45c5ab	0.19313686
144	0xbed797d4	-0.42108023
145	0xbc61ed0a	-0.013789425
146	0xbd08b9ad	-0.0333802
147	0x3dedc6e6	0.116102025
148	0x3dc0605d	0.0939338
149	0xbe6e1317	-0.2324947
150	0xbebca396	-0.36843556
151	0xbde28a83	-0.11061575
152	0xbeb24ac9	-0.34822682
153	0xbd82c3bd	-0.0638499
154	0x3d968f77	0.073515825
155	0x3d88a451	0.06671966
156	0x3e43efca	0.19134441
157	0xbe4d3a5a	-0.2004179
158	0x3e19d45a	0.15022412
159	0xbed81a83	-0.42207727
160	0x3e7476f9	0.2387351
161	0xbf27ec92	-0.6559535
162	0xbe468ca1	-0.19389583
163	0xbe713577	-0.23555551
164	0xbba486a4	-0.005020933
165	0x3b653e05	0.0034979593
166	0x3e16dd30	0.14732814
167	0x3dcba3ef	0.09943377
168	0xbe189bed	-0.14903231
169	0x3df41f22	0.119200006
170	0xbe364a85	-0.17801864
171	0xbf445898	-0.76697683
172	0xbe092376	-0.13392434
173	0xbbe263e7	-0.006908882
174	0xbd40e33a	-0.0470917
175	0xbd37b250	-0.044847786
176	0xbf170576	-0.5899271
177	0x3ec63753	0.38714084
178	0xbf2029ce	-0.6256379
179	0xbc7982be	-0.015228925
180	0xbe53a410	-0.20668054
181	0xbe7a9b81	-0.24473383
182	0xbd5cf387	-0.053943183
183	0x3f0cadb7	0.5495257
184	0x3e740f0d	0.23833866
185	0x3e480133	0.19531707
186	0x3eaa026e	0.3320498
187	0x3f018da4	0.5060675
188	0x3ec72582	0.38895804
189	0xbdc94f08	-0.09829527
190	0xbed41b9b	-0.4142731
191	0xbe2bd44d	-0.16780205
192	0xbaf4031f	-0.0018616653
193	0xbc80e6c8	-0.015735045
194	0x3e136017	0.14392124
195	0x3efe64ce	0.49686283
196	0x3ea0a8a2	0.31378657
197	0xbe89d747	-0.26922056
198	0xbe8b5f73	-0.2722126
199	0xbecf5a30	-0.40498495
200	0xbebda787	-0.37041876
201	0xbe476859	-0.19473399
202	0xbe99702d	-0.29968396
203	0x3e2733f1	0.16328408
204	0x3e2074da	0.15669575
205	0x3eaf4b9a	0.34237367
206	0x3e85eb30	0.26155996
207	0x3e7cc9fa	0.24686423
208	0x3ece3442	0.40274245
209	0x3e77b094	0.24188453
210	0x3ec356c8	0.38152146
211	0x3e5277a7	0.20553456
212	0x3f2f33f6	0.6843866
213	0x3e9203d3	0.28518543
214	0x3b75dd4b	0.0037515934
215	0x3e326453	0.17421083
216	0xbe9c1320	-0.3048334
217	0x3e52e336	0.20594487
218	0x3eba1069	0.36340645
219	0xbe0e20c0	-0.1387968
220	0x3f1b1b92	0.60588944
221	0xbe8aa1c1	-0.27076533
222	0xbca818f3	-0.02051971
223	0xbe86f6e5	-0.2636024
224	0x3e8d8220	0.2763834
225	0xbe733411	-0.2375033
226	0xbdc5a4d8	-0.09650582
227	0xbe101799	-0.14071502
228	0xbd12eeff	-0.035872456
229	0xbda02c17	-0.078209095
230	0x3e8005a3	0.250043
231	0xbe961204	-0.2931062
232	0xbe52865e	-0.2055907
233	0xbe94140d	-0.28921548
234	0xbec9f4c6	-0.3944456
235	0x3f0e6eaf	0.5563764
236	0x3ec89943	0.3917943
237	0xbdf2b539	-0.11850972
238	0xbd490c43	-0.04908396
239	0xbe8f6a75	-0.28010908
240	0x3e1734f4	0.14766294
241	0xbe61635a	-0.22010556
242	0x3e10e4d4	0.14149791
243	0x3f054681	0.52060705
244	0x3f12dcfd	0.5736845
245	0x3e004b50	0.1252873
246	0x3caa9378	0.020822272
247	0xbe2fe677	-0.17177759
248	0xbea948be	-0.3306331
249	0xbed7a9c1	-0.421217
250	0xbe37480d	-0.17898579
251	0xbd6b9545	-0.0575154
252	0xbe98d126	-0.29847068
253	0xbe5b99e1	-0.21445419
254	0xbe505474	-0.20344716
255	0x3ce40eea	0.027839143

i2o.bias f4 [27]
0	0xbf088b56	-0.5333761
1	0xbe4b74d8	-0.19868791
2	0xbe8b0c35	-0.2715775
3	0xbe68aa8e	-0.22721311
4	0xbeaa223c	-0.33229244
5	0xbef44b7e	-0.47713846
6	0xbf608ee1	-0.87718016
7	0x3e2baea9	0.16765846
8	0xbe1ca78e	-0.15298292
9	0xbf053a1d	-0.520418
10	0xbee80ee4	-0.4532386
11	0xbf4a4f7a	-0.7902752
12	0xbe929588	-0.28629708
13	0xbe413fea	-0.18872038
14	0xbe23b2e8	-0.15986216
15	0x3e40b951	0.18820693
16	0xbe93ed0a	-0.28891784
17	0xbea4077a	-0.32036954
18	0xbf1079ff	-0.5643615
19	0xbea79161	-0.32728103
20	0xbf437d2c	-0.7636287
21	0xbeabeeb5	-0.33580557
22	0xbeb9617a	-0.3620718
23	0xbf3c2a3f	-0.7350196
24	0xbe885d0b	-0.26633486
25	0xbdab44f9	-0.08362765
26	0xbf4dbce7	-0.8036637
