app/ml_models/rnn/pretrained_NL_epoch5.pt (torch, 277513 bytes, 13 tensors)

_embedding.weight f4 [61, 61]
1.0 0.0 0.0 0.0 0.0 0.0 0.0 0.0
0.0 0.0 0.0 0.0 0.0 0.0 0.0 0.0
0.0 0.0 0.0 0.0 0.0 0.0 0.0 0.0
0.0 0.0 0.0 0.0 0.0 0.0 0.0 0.0
0.0 0.0 0.0 0.0 0.0 0.0 0.0 0.0
0.0 0.0 0.0 0.0 0.0 0.0 0.0 0.0
0.0 0.0 0.0 0.0 0.0 0.0 0.0 0.0
0.0 0.0 0.0 0.0 0.0 0.0 1.0 0.0
0.0 0.0 0.0 0.0 0.0 0.0 0.0 0.0
0.0 0.0 0.0 0.0 0.0 0.0 0.0 0.0
0.0 0.0 0.0 0.0 0.0 0.0 0.0 0.0
0.0 0.0 0.0 0.0 0.0 0.0 0.0 0.0
0.0 0.0 0.0 0.0 0.0 0.0 0.0 0.0
0.0 0.0 0.0 0.0 0.0 0.0 0.0 0.0
0.0 0.0 0.0 0.0 0.0 0.0 0.0 0.0
0.0 0.0 0.0 0.0 1.0 0.0 0.0 0.0
0.0 0.0 0.0 0.0 0.0 0.0 0.0 0.0
0.0 0.0 0.0 0.0 0.0 0.0 0.0 0.0
0.0 0.0 0.0 0.0 0.0 0.0 0.0 0.0
0.0 0.0 0.0 0.0 0.0 0.0 0.0 0.0
0.0 0.0 0.0 0.0 0.0 0.0 0.0 0.0
0.0 0.0 0.0 0.0 0.0 0.0 0.0 0.0
0.0 0.0 0.0 0.0 0.0 0.0 0.0 0.0
0.0 0.0 1.0 0.0 0.0 0.0 0.0 0.0
0.0 0.0 0.0 0.0 0.0 0.0 0.0 0.0
0.0 0.0 0.0 0.0 0.0 0.0 0.0 0.0
0.0 0.0 0.0 0.0 0.0 0.0 0.0 0.0
0.0 0.0 0.0 0.0 0.0 0.0 0.0 0.0
0.0 0.0 0.0 0.0 0.0 0.0 0.0 0.0
0.0 0.0 0.0 0.0 0.0 0.0 0.0 0.0
0.0 0.0 0.0 0.0 0.0 0.0 0.0 0.0
1.0 0.0 0.0 0.0 0.0 0.0 0.0 0.0
00000000: 0000 803f 0000 0000 0000 0000 0000 0000
00000010: 0000 0000 0000 0000 0000 0000 0000 0000
00000020: 0000 0000 0000 0000 0000 0000 0000 0000
00000030: 0000 0000 0000 0000 0000 0000 0000 0000
00000040: 0000 0000 0000 0000 0000 0000 0000 0000
00000050: 0000 0000 0000 0000 0000 0000 0000 0000
00000060: 0000 0000 0000 0000 0000 0000 0000 0000
00000070: 0000 0000 0000 0000 0000 0000 0000 0000
00000080: 0000 0000 0000 0000 0000 0000 0000 0000
00000090: 0000 0000 0000 0000 0000 0000 0000 0000
000000a0: 0000 0000 0000 0000 0000 0000 0000 0000
000000b0: 0000 0000 0000 0000 0000 0000 0000 0000
000000c0: 0000 0000 0000 0000 0000 0000 0000 0000
000000d0: 0000 0000 0000 0000 0000 0000 0000 0000
000000e0: 0000 0000 0000 0000 0000 0000 0000 0000
000000f0: 0000 0000 0000 0000 0000 803f 0000 0000
00000100: 0000 0000 0000 0000 0000 0000 0000 0000
00000110: 0000 0000 0000 0000 0000 0000 0000 0000
00000120: 0000 0000 0000 0000 0000 0000 0000 0000
00000130: 0000 0000 0000 0000 0000 0000 0000 0000
00000140: 0000 0000 0000 0000 0000 0000 0000 0000
00000150: 0000 0000 0000 0000 0000 0000 0000 0000
00000160: 0000 0000 0000 0000 0000 0000 0000 0000
00000170: 0000 0000 0000 0000 0000 0000 0000 0000
00000180: 0000 0000 0000 0000 0000 0000 0000 0000
00000190: 0000 0000 0000 0000 0000 0000 0000 0000
000001a0: 0000 0000 0000 0000 0000 0000 0000 0000
000001b0: 0000 0000 0000 0000 0000 0000 0000 0000
000001c0: 0000 0000 0000 0000 0000 0000 0000 0000
000001d0: 0000 0000 0000 0000 0000 0000 0000 0000
000001e0: 0000 0000 0000 0000 0000 0000 0000 0000
000001f0: 0000 803f 0000 0000 0000 0000 0000 0000
00000200: 0000 0000 0000 0000 0000 0000 0000 0000
00000210: 0000 0000 0000 0000 0000 0000 0000 0000
00000220: 0000 0000 0000 0000 0000 0000 0000 0000
00000230: 0000 0000 0000 0000 0000 0000 0000 0000
00000240: 0000 0000 0000 0000 0000 0000 0000 0000
00000250: 0000 0000 0000 0000 0000 0000 0000 0000
00000260: 0000 0000 0000 0000 0000 0000 0000 0000
00000270: 0000 0000 0000 0000 0000 0000 0000 0000
00000280: 0000 0000 0000 0000 0000 0000 0000 0000
00000290: 0000 0000 0000 0000 0000 0000 0000 0000
000002a0: 0000 0000 0000 0000 0000 0000 0000 0000
000002b0: 0000 0000 0000 0000 0000 0000 0000 0000
000002c0: 0000 0000 0000 0000 0000 0000 0000 0000
000002d0: 0000 0000 0000 0000 0000 0000 0000 0000
000002e0: 0000 0000 0000 0000 0000 803f 0000 0000
000002f0: 0000 0000 0000 0000 0000 0000 0000 0000
00000300: 0000 0000 0000 0000 0000 0000 0000 0000
00000310: 0000 0000 0000 0000 0000 0000 0000 0000
00000320: 0000 0000 0000 0000 0000 0000 0000 0000
00000330: 0000 0000 0000 0000 0000 0000 0000 0000
00000340: 0000 0000 0000 0000 0000 0000 0000 0000
00000350: 0000 0000 0000 0000 0000 0000 0000 0000
00000360: 0000 0000 0000 0000 0000 0000 0000 0000
00000370: 0000 0000 0000 0000 0000 0000 0000 0000
00000380: 0000 0000 0000 0000 0000 0000 0000 0000
00000390: 0000 0000 0000 0000 0000 0000 0000 0000
000003a0: 0000 0000 0000 0000 0000 0000 0000 0000
000003b0: 0000 0000 0000 0000 0000 0000 0000 0000
000003c0: 0000 0000 0000 0000 0000 0000 0000 0000
000003d0: 0000 0000 0000 0000 0000 0000 0000 0000
000003e0: 0000 803f 0000 0000 0000 0000 0000 0000
000003f0: 0000 0000 0000 0000 0000 0000 0000 0000

lstm.weight_ih_l0 f4 [128, 61]
0.0020029761 -0.07369754 -0.19638036 0.10482979 0.023492321 0.08629919 0.08763164 0.03141059
-0.052438736 0.009694872 0.070791684 0.0326861 -0.031605482 -0.053891238 0.11517446 -0.27967313
0.4278738 0.057298955 -0.065265395 0.1967602 0.003292422 0.22105777 -0.52249736 0.20435452
0.14685003 0.09289976 -0.004481238 0.023813311 -0.5676858 -0.17852806 0.076914005 0.030488348
-0.013047433 0.013710933 0.11946939 0.04955364 0.20033523 0.049952876 -0.07865023 0.3061858
-0.06494398 -0.044979546 0.021100035 0.06339041 -0.0037824914 -0.037337687 -0.060024526 -0.07851703
-0.012879256 0.041488055 0.06790186 -0.037091333 -0.03168417 -0.051817592 0.057726644 0.023144402
0.03375403 -0.06587444 -0.047479667 -0.24542448 -0.008104027 -0.014968681 -0.07808454 0.07519832
0.07452178 0.032163393 0.024474613 0.025416946 0.0020248452 0.025655232 0.011519192 -0.07518957
-0.04483399 -0.008349539 -0.038988095 0.07313688 -0.2502927 0.1283879 0.07953142 0.20226483
-0.27860254 -0.09904746 -0.16603284 0.01599934 -0.11811266 -0.070169665 -0.28612608 -0.15245451
0.02294776 0.45367196 -0.037179746 0.008867649 -0.030574111 -0.10434455 -0.12994935 0.13304044
-0.25676915 -0.18856062 0.02440368 0.06505116 -0.34110692 0.035433628 -0.06793848 0.00026789773
-0.040597815 -0.020395307 0.09515644 0.072963685 -0.06706001 0.28765154 -0.020438023 -0.019846184
0.1549459 0.04990812 0.050822504 0.028628286 0.00810406 -0.029273795 -0.009130037 -0.041063525
0.10580503 -0.021686124 -0.05641828 0.054206327 0.030193722 0.05810397 -0.01588231 0.04138876
0.065736145 -0.047922548 -0.07680458 -0.071643695 -0.04026216 0.0471591 0.07893443 -0.0880188
0.19169676 -0.2023961 -0.07558406 -0.02901588 0.20562068 -0.17825592 0.16969061 -0.18579774
0.19609027 0.06001729 -0.11167291 -0.12360921 0.15062046 0.19942957 0.1330591 0.12469367
-0.043310538 -0.009657429 0.13876882 -0.14833832 -0.00082321797 -0.29811522 -0.09831628 -0.0031539463
0.11223344 -0.15648349 -0.06718518 -0.0647543 -0.07093583 -0.05686739 0.0151904905 -0.060542576
-0.027479062 -0.03719799 0.1066355 -0.0017091443 -0.06616875 -0.0019176003 -0.058985166 0.050497763
-0.031553917 0.020966688 0.03790498 0.014049808 -0.02568724 0.1350942 0.07481226 0.052404463
-0.07499892 -0.10655041 -0.11994985 0.0078086583 0.051020596 -0.058494452 0.019548137 -0.060702756
0.029847108 0.05191299 -0.0006386983 0.082549356 -0.025998773 -0.6391517 0.3998769 -0.15949543
0.22382341 -0.05583851 0.31472886 0.14388435 0.036474317 -0.029196734 -0.019020405 -0.014370247
0.19863564 -0.0200708 -0.039021675 0.078219034 0.12462532 0.12030426 0.011168971 -0.1092863
0.15454899 -0.19078274 0.45923793 0.28834614 -0.1578209 -0.20379177 0.22804005 0.005167323
-0.040694047 0.010419037 -0.06725825 0.06628106 -0.041349396 -0.050303377 -0.13356052 -0.22742909
0.06855834 -0.0707115 -0.15147342 -0.030326841 0.032998577 -0.056858562 -0.122684486 -0.060132757
-0.008936783 -0.0018265843 -0.11316584 -0.03868519 -0.022527259 0.061153345 -0.008088679 0.13251576
0.06262943 0.011282855 0.015305882 -0.03908747 0.034643177 -0.023750018 -0.038461108 0.011823249
00000000: 5d44 033b bcee 96bd ef17 49be 00b1 d63d
00000010: f872 c03c a1bd b03d 3878 b33d 64a8 003d
00000020: 00ca 56bd 3ed7 1e3c 3bfb 903d dce1 053d
00000030: c074 01bd 0fbd 5cbd 96e0 eb3d 5131 8fbe
00000040: 4612 db3e 4fb2 6a3d dda9 85bd 827b 493e
00000050: adc5 573b f85c 623e 63c2 05bf 5042 513e
00000060: db5f 163e 3b42 be3d 59d7 92bb 2214 c33c
00000070: db53 11bf 0fd0 36be 1785 9d3d b3c2 f93c
00000080: e7c4 55bc d2a3 603c 5eac f43d c2f8 4a3d
00000090: ae24 4d3e 639b 4c3d 5f13 a1bd 63c4 9c3e
000000a0: 5901 85bd 793c 38bd fbd9 ac3c d5d2 813d
000000b0: ade3 77bb 67ef 18bd 47dc 75bd 89cd a0bd
000000c0: 8403 53bc 61ef 293d 2110 8b3d 15ed 17bd
000000d0: 43c7 01bd af3e 54bd c672 6c3d 5499 bd3c
000000e0: aa41 0a3d 2ee9 86bd 0a7a 42bd 8e50 7bbe
000000f0: c1c6 04bc 333f 75bc caea 9fbd 9401 9a3d
00000100: e09e 983d c3bd 033d fc7e c83c 3337 d03c
00000110: 44b3 043b ec2a d23c feba 3c3c fdfc 99bd
00000120: d9a3 37bd 81cc 08bc fbb1 1fbd cac8 953d
00000130: 5d26 80be 1e78 033e 5ee1 a23d 831e 4f3e
00000140: fea4 8ebe 65d9 cabd 8304 2abe 0c11 833c
00000150: 0de5 f1bd 1db5 8fbd 1e7f 92be 091d 1cbe
00000160: f1fc bb3c b147 e83e ca49 18bd 9e49 113c
00000170: 8f76 fabc 98b2 d5bd 7111 05be c13b 083e
00000180: 3f77 83be 0916 41be 3aea c73c 8b39 853d
00000190: 91a5 aebe da22 113d 5423 8bbd a074 8c39
000001a0: e549 26bd 0f14 a7bc 61e1 c23d fc6d 953d
000001b0: c256 89bd 1047 933e a46d a7bc 7794 a2bc
000001c0: 23aa 1e3e 756c 4c3d 422b 503d de85 ea3c
000001d0: e4c6 043c 99cf efbc 2796 15bc 3a32 28bd
000001e0: 4fb0 d83d 19a7 b1bc db16 67bd 7407 5e3d
000001f0: d358 f73c 6efe 6d3d 9e1b 82bc 4387 293d
00000200: aca0 863d 6f4a 44bd b84b 9dbd eeb9 92bd
00000210: efe9 24bd e729 413d 60a8 a13d 3343 b4bd
00000220: 284c 443e ec40 4fbe d1cb 9abd b6b2 edbc
00000230: 3a8e 523e b888 36be 60c3 2d3e c341 3ebe
00000240: e3cb 483e b1d4 753d c4b4 e4bd d326 fdbd
00000250: 403c 1a3e 4437 4c3e a540 083e 655f ff3d
00000260: 6466 31bd 313a 1ebc 6a19 0e3e 00e6 17be
00000270: 39cd 57ba 8fa2 98be 0c5a c9bd 70b2 4ebb
00000280: a5da e53d 353d 20be 6298 89bd e79d 84bd
00000290: ce46 91bd c8ed 68bd 89e1 783c 7efb 77bd
000002a0: c51b e1bc eb5c 18bd b763 da3d 5e05 e0ba
000002b0: 7b83 87bd fd57 fbba 6e9a 71bd bed6 4e3d
000002c0: ae3e 01bd 55c2 ab3c 4142 1b3d 2a31 663c
000002d0: 0c6e d2bc 2256 0a3e 2c37 993d 10a6 563d
000002e0: 0999 99bd 1a37 dabd 44a8 f5bd c6df ff3b
000002f0: f9fa 503d e197 6fbd 6a23 a03c 74a3 78bd
00000300: ec81 f43c b7a2 543d 516e 27ba a30f a93d
00000310: 61fb d4bc 729f 23bf aabc cc3e c552 23be
00000320: f731 653e ecb6 64bd 2424 a13e 6b56 133e
00000330: 1866 153d fd2d efbc aed0 9bbc 2f71 6bbc
00000340: 2467 4b3e 856b a4bc 31d5 1fbd 4d31 a03d
00000350: 8f3b ff3d 1462 f63d 0ffe 363c 7fd1 dfbd
00000360: 1742 1e3e 8d5c 43be 3c21 eb3e 1ba2 933e
00000370: cd9b 21be caae 50be 5583 693e a652 a93b
00000380: cdae 26bd 9cb4 2a3c b2be 89bd 5dbe 873d
00000390: fc5d 29bd ea0a 4ebd 17c4 08be 2ce3 68be
000003a0: 5168 8c3d 31d1 90bd d91b 1bbe ff6f f8bc
000003b0: 8429 073d 86e4 68bd 0142 fbbd c44d 76bd
000003c0: 966b 12bc 006a efba 7ec3 e7bd 5d74 1ebd
000003d0: 168b b8bc ee7b 7a3d 6186 04bc 36b2 073e
000003e0: dc43 803d b9db 383c 86c5 7a3c 2f1a 20bd
000003f0: 01e6 0d3d 668f c2bc 6589 1dbd 4db6 413c

lstm.weight_hh_l0 f4 [128, 128]
-0.045700375 -0.067686796 0.063232765 -0.07631991 0.072927825 -0.06626223 0.003700841 -0.0267788
0.085724875 0.06817434 0.080669 0.03451159 -0.025830233 0.04655643 -0.0024758324 -0.03047903
0.06091604 -0.012791105 -0.08359981 -0.036035165 0.08108765 -0.0054027727 -0.06406976 0.0709926
0.066056736 0.07970554 0.04652204 -0.033848334 -0.04983875 -0.069264464 -0.054348655 -0.0156128155
-0.023547076 -0.08311312 0.05880051 -0.023813369 0.06883684 -0.051177356 -0.046041228 0.02510027
0.08394857 -0.0035911012 -0.010685469 -0.086721726 -0.002299669 -0.056980062 0.08014161 -0.019085683
0.03233697 0.030525139 -0.0038400942 0.06902949 0.075553365 0.051328212 -0.08669151 -0.07232262
0.010012447 0.054101717 -0.039658763 0.00966286 -0.05499647 0.0068487152 0.0655708 -0.0021986852
0.075994425 -0.046963286 0.024051784 -0.073905826 0.08322809 0.025371728 -0.022707889 0.05112658
-0.031091709 -0.044995405 -0.028549537 -0.026235422 0.06184485 0.07527644 0.077229396 -0.02286573
-0.084407926 0.054292463 -0.060872007 0.08224108 0.065387376 0.03242729 0.040094454 0.062136717
-0.07563335 0.035360985 0.020124951 -0.07883563 0.036702793 0.088085935 -0.06225098 0.056457125
-0.014370031 -0.0786928 0.045605313 0.009483389 -0.03677087 0.07887146 -0.036236502 0.041899003
0.051114284 -0.0055325325 -0.06221544 0.037726875 -0.03388868 0.0032678032 -0.0012861637 0.023267895
0.06873742 0.0075881607 0.059394088 0.08416816 0.08542524 0.010900945 0.03861159 0.034173854
-0.036500413 0.060356446 0.07328934 0.08469863 0.077748455 0.020265015 0.016050648 -0.08298489
0.01571482 0.0729543 0.03577314 -0.04230789 0.062098198 0.0092825275 0.0044917264 -0.05590494
-0.035494696 0.00042430285 0.002075174 -0.03145155 0.038145237 -0.023658628 -0.0017821478 0.016641894
-0.08830689 -0.027726378 0.002444517 -0.065447435 -0.009237114 -0.045051355 -0.07178652 -0.0066125346
0.056159135 0.035408977 -0.0556902 0.06564558 0.0437575 -0.027981734 -0.08494909 0.05919116
0.07804673 -0.049181484 -0.004114586 -0.08334231 0.012566472 0.016316878 0.0023902005 0.037901882
-0.011697636 0.049974814 -0.026327513 0.03879043 0.078626506 0.035738114 0.05466443 -0.05734992
-0.057616733 0.006602093 0.03890972 0.009804526 -0.08451503 -0.06973406 0.045343053 -0.07327021
-0.03825386 0.01902968 0.06779825 -0.0779892 0.06045745 0.067110665 0.058520824 -0.0848795
0.08059406 0.05867977 -0.061551016 0.057074733 -0.057243858 0.02966137 0.048747476 0.018113082
0.08087479 -0.04663492 0.05302278 -0.0067259097 0.035129346 -0.028145928 0.022419088 -0.018037692
-0.06678781 0.057046905 -0.0791806 0.023679774 0.066223994 0.051107828 0.07419396 0.012887916
-0.04228372 0.04361709 -0.005645939 0.028531836 -0.027256314 -0.081247866 -0.038071953 -0.074322954
0.060232397 0.023999164 -0.02486056 -0.08168473 -0.052777473 -0.027241077 -0.026323488 -0.058765907
0.057741456 0.055174228 -0.046429515 -0.07171039 0.05983747 -0.03830277 -0.014097815 0.071198545
0.052007988 0.032234807 0.08306703 -0.041560415 -0.07234518 -0.079165034 0.051118933 0.07417066
0.057163507 0.008395325 -0.01907873 -0.0020708328 -0.04822575 -0.029774008 -0.07576752 -0.028302072
00000000: 5130 3bbd 609f 8abd 2e80 813d 9d4d 9cbd
00000010: 2f5b 953d 7eb4 87bd cf89 723b 375f dbbc
00000020: 8690 af3d fd9e 8b3d ca35 a53d 065c 0d3d
00000030: ed99 d3bc f5b1 3e3d 9341 22bb 29af f9bc
00000040: 1983 793d c891 51bc 6136 abbd 9c99 13bd
00000050: 4811 a63d be09 b1bb 0237 83bd 9164 913d
00000060: c148 873d a83c a33d e58d 3e3d 8da4 0abd
00000070: b823 4cbd 87da 8dbd b29c 5ebd e5cc 7fbc
00000080: cce5 c0bc 3637 aabd ced8 703d 4114 c3bc
00000090: 54fa 8c3d 599f 51bd ba95 3cbd 159f cd3c
000000a0: 3aed ab3d ae58 6bbb 1b12 2fbc 299b b1bd
000000b0: 0bb6 16bb ed63 69bd 4921 a43d 9459 9cbc
000000c0: c573 043d db0f fa3c 17aa 7bbb 555f 8d3d
000000d0: b9bb 9a3d 883d 523d 528b b1bd e21d 94bd
000000e0: 3f0b 243c c399 5d3d 3a71 22bd f950 1e3c
000000f0: fb43 61bd 306b e03b fc49 863d d117 10bb
00000100: f7a2 9b3d 935c 40bd 3f08 c53c f05b 97bd
00000110: 7d73 aa3d 5fd8 cf3c e505 babc 1b6a 513d
00000120: 0ab4 febc 1a4d 38bd b8e0 e9bc abeb d6bc
00000130: 0751 7d3d 892a 9a3d 722a 9e3d e950 bbbc
00000140: 10de acbd c661 5e3d ed54 79bd 036e a83d
00000150: d1e9 853d 7ad2 043d 153a 243d 1283 7e3d
00000160: a8e5 9abd aed6 103d 15dd a43c 9374 a1bd
00000170: ab55 163d 6666 b43d e2fa 7ebd 963f 673d
00000180: 4770 6bbc b129 a1bd a3cc 3a3d 3760 1b3c
00000190: 0d9d 16bd 5c87 a13d ba6c 14bd 4a9e 2b3d
000001a0: 365d 513d 3f4a b5bb 9ed5 7ebd 7f87 1a3d
000001b0: dbce 0abd a428 563b 7e94 a8ba 509c be3c
000001c0: 34c6 8c3d 1ba6 f83b 3747 733d 5b60 ac3d
000001d0: 6ef3 ae3d e199 323c 3027 1e3d e2f9 0b3d
000001e0: 7581 15bd 5238 773d b918 963d 7a76 ad3d
000001f0: 953a 9f3d d102 a63c a67c 833c fbf3 a9bd
00000200: 5ebc 803c 1069 953d db86 123d 0a4b 2dbd
00000210: ae5a 7e3d be15 183c 552f 933b 94fc 64bd
00000220: e362 11bd f774 de39 a4ff 073b 57d3 00bd
00000230: 2e3e 1c3d bdcf c1bc f596 e9ba 9554 883c
00000240: 3eda b4bd 6e22 e3bc 3134 203b 4e09 86bd
00000250: 4457 17bc c587 38bd d004 93bd f6ad d8bb
00000260: 1f07 663d 0109 113d 681b 64bd 3171 863d
00000270: 103b 333d f339 e5bc caf9 adbd 6e72 723d
00000280: f7d6 9f3d 8672 49bd a6d3 86bb 5faf aabd
00000290: 9be3 4d3c f9aa 853c e9a4 1c3b 013f 1b3d
000002a0: 71a7 3fbc 64b2 4c3d ccac d7bc b7e2 1e3d
000002b0: ef06 a13d 2162 123d cfe7 5f3d c0e7 6abd
000002c0: 86ff 6bbd 5f56 d83b cc5f 1f3d 2aa3 203c
000002d0: 3716 adbd bbd0 8ebd a3b9 393d b10e 96bd
000002e0: 14b0 1cbd 22e4 9b3c cfd9 8a3d cdb8 9fbd
000002f0: 3ba2 773d 5171 893d 88b3 6f3d 4ed5 adbd
00000300: 800e a53d 335a 703d eb1c 7cbd 32c7 693d
00000310: 8978 6abd 67fc f23c 6fab 473d e361 943c
00000320: afa1 a53d 4204 3fbd 6a2e 593d 0565 dcbb
00000330: cae3 0f3d 4a92 e6bc 3ca8 b73c c8c3 93bc
00000340: 0cc8 88bd 04aa 693d 7029 a2bd 16fc c13c
00000350: 72a0 873d 7156 513d 01f3 973d d627 533c
00000360: b231 2dbd d5a7 323d 9201 b9bb 99bb e93c
00000370: a248 dfbc 4865 a6bd 56f1 1bbd a236 98bd
00000380: 3fb6 763d e599 c43c 60a8 cbbc 534a a7bd
00000390: 312d 58bd ae28 dfbc 5ba4 d7bc 85b4 70bd
000003a0: 4e82 6c3d 5ffe 613d e02c 3ebd e6dc 92bd
000003b0: 2318 753d 5ee3 1cbd 86fa 66bc 8bd0 913d
000003c0: 5406 553d a508 043d 0c1f aa3d 413b 2abd
000003d0: b629 94bd 4721 a2bd 1662 513d c9e6 973d
000003e0: 4824 6a3d 8c8c 093c ff4a 9cbc cfb6 07bb
000003f0: 5d88 45bd 9fe8 f3bc 002c 9bbd bfd9 e7bc

lstm.bias_ih_l0 f4 [128]
0.013757784 -0.10658656 0.045969132 -0.04684529 -0.003127338 -0.024580013 -0.18809608 0.029511357
-0.053259328 0.09941785 0.21651825 0.008287975 0.051007032 0.0067029214 -0.032552343 -0.012324601
0.047017213 -0.4487731 -0.019726198 0.24263035 0.36298287 0.0019881073 -0.07420711 0.14105076
-0.51869833 0.017374305 0.030709624 -0.5029664 0.038285263 0.035571255 0.048187923 -0.034551848
0.03881557 -0.0034618913 -0.0062471004 0.028406734 0.05951288 0.053187806 -0.052861996 0.27053538
-0.20692112 0.020530047 -0.31370786 -0.48647594 0.05526621 0.026837127 0.075441815 0.060719896
0.20591089 0.004582492 -0.014418845 -0.007952124 -0.08434186 -0.09672514 0.25524974 0.033563264
-0.38950887 0.019574827 0.09090362 -0.22116923 0.026488723 -0.0025834444 0.041791882 -0.001127371
-0.038525715 0.03346436 0.23651722 -0.104361154 0.2470997 -0.5603053 -0.041166995 -0.029473854
0.025400618 -0.43666917 0.24237782 0.083599105 -0.047185473 -0.08724908 0.018855551 -0.5397816
0.05866538 0.09263961 -0.027435886 -0.053878266 0.08760934 0.05223626 -0.4641819 0.07488096
0.00597931 0.008704651 0.015838152 -0.0027696954 -0.039059516 -0.034097273 -0.08678942 -0.0011234181
0.52276754 0.059719313 -0.06988635 0.057205267 -0.0026259725 -0.17506906 0.011886252 -0.0289668
-0.007323468 0.10591102 0.076760545 0.1217664 0.0064576953 -0.021264808 0.02104534 -0.0417878
-0.06641284 0.08355057 -0.0015230153 0.049066484 -0.0020143727 0.06322997 0.0769309 0.49907705
-0.030809661 0.010034192 -0.040173464 -0.045219045 -0.0035371445 0.0035888765 -0.1443233 -0.001595749
00000000: 5468 613c 0e4a dabd 214a 3c3d d9e0 3fbd
00000010: 06f4 4cbb 065c c9bc 429c 40be cdc1 f13c
00000020: 7426 5abd 969b cb3d f6b6 5d3e 49ca 073c
00000030: c0ec 503d 2ea4 db3b 9b55 05bd 20ed 49bc
00000040: 1f95 403d 96c5 e5be d698 a1bc 1774 783e
00000050: e4d8 b93e e84a 023b e6f9 97bd 9c6f 103e
00000060: 6ac9 04bf 8f54 8e3c c092 fb3c 68c2 00bf
00000070: 02d1 1c3d 2ab3 113d b360 453d 3d86 0dbd
00000080: 13fd 1e3d e6e0 62bb 7ab4 ccbb 3db5 e83c
00000090: c7c3 733d 75db 593d d285 58bd 9d83 8a3e
000000a0: 21e3 53be a12e a83c 519e a0be 6013 f9be
000000b0: d25e 623d 89d9 db3c 3d81 9a3d 6db5 783d
000000c0: 4eda 523e bb28 963b 053d 6cbc a049 02bc
000000d0: 6dbb acbd d517 c6bd 18b0 823e a279 093d
000000e0: b56d c7be 635b a03c ad2b ba3d 307a 62be
000000f0: e1fe d83c 014f 29bb f72d 2b3d 4bc4 93ba
00000100: 24cd 1dbd ed11 093d 9231 723e 4dbb d5bd
00000110: b407 7d3e 2b70 0fbf b99e 28bd 2773 f1bc
00000120: f514 d03c 1a93 dfbe e431 783e 0236 ab3d
00000130: 8e45 41bd a5af b2bd f576 9a3c 202f 0abf
00000140: 1c4b 703d d6b9 bd3d 39c1 e0bc 75af 5cbd
00000150: 876c b33d b0f5 553d 40a9 edbe 305b 993d
00000160: 16ee c33b f49d 0e3c 03bf 813c c783 35bb
00000170: dffc 1fbd 95a9 0bbd a7be b1bd a83f 93ba
00000180: 18d4 053f 3d9c 743d 9320 8fbd 1250 6a3d
00000190: 8218 2cbb 4e45 33be 8ebe 423c c84b edbc
000001a0: b4f9 efbb e0e7 d83d a234 9d3d aa60 f93d
000001b0: 139b d33b 8933 aebc 4767 ac3c af29 2bbd
000001c0: 7403 88bd 901c ab3d ea9f c7ba f0f9 483d
000001d0: 9103 04bb b77e 813d f38d 9d3d 0787 ff3e
000001e0: 8b64 fcbc 7466 243c ee8c 24bd 9b37 39bd
000001f0: 70cf 67bb 5b33 6b3b 7dc9 13be 7428 d1ba

lstm.bias_hh_l0 f4 [128]
0.04387083 0.03607495 0.13504158 0.039073337 0.07224221 0.01644294 -0.22791386 -0.10990907
-0.05142964 -0.034156978 0.21755728 0.043357395 -0.019924501 -0.07367267 -0.022243248 0.062737405
-0.029854834 -0.41626883 -0.079165615 0.1738466 0.30082768 0.017610604 -0.0050187535 0.16176096
-0.47016576 -0.0104358755 0.020032138 -0.4593321 -0.031807143 -0.019065144 -0.063198954 -0.054523006
-0.059271783 -0.016041791 0.0023581139 -0.11112624 0.037150133 0.044371657 0.025222206 0.30427682
-0.12911275 0.07962414 -0.30828962 -0.48426417 0.047169372 0.115986146 -0.0557739 0.036493592
0.1262266 0.020330396 0.05461421 0.0041523157 0.049495764 -0.16821553 0.2600517 -0.018224297
-0.4349448 -0.07092806 0.083505325 -0.1107612 0.0049667866 -0.027654983 0.10951924 -0.0055323164
0.020771954 -0.020921264 0.23557416 0.05210323 0.13598736 -0.46536115 0.012366536 -0.004504504
0.1035604 -0.43225905 0.2386651 -0.019300096 -0.082085826 0.07116995 -0.07507658 -0.4161712
-0.02974607 -0.048072226 -0.0325886 0.06663972 0.03928492 -0.08332942 -0.47627673 0.020807348
-0.029760094 0.11181332 0.007312692 -0.050105773 0.076370075 0.042311408 0.006948531 0.030157818
0.5198492 -0.057339787 0.07680014 -0.075781606 0.059508614 -0.17941934 -0.051924005 0.029647704
-0.0635838 0.02511638 -0.06759728 0.08693351 0.026568035 -0.017862283 -0.03766369 0.048506234
0.00911928 0.0151495915 -0.055999912 0.013297277 -0.0464917 0.0021417916 -0.024712862 0.4646522
0.005339587 -0.0328648 -0.11641596 0.09439341 0.066634804 0.058071166 -0.1814812 0.01442902
00000000: e6b1 333d 54c3 133d 5748 0a3e 5d0b 203d
00000010: b9f3 933d 58b3 863c 4062 69be 0218 e1bd
00000020: e3a7 52bd 30e8 0bbd 56c7 5e3e 8697 313d
00000030: b538 a3bc b2e1 96bd 7937 b6bc 787c 803d
00000040: 2092 f4bc 3021 d5be 9521 a2bd d804 323e
00000050: 1606 9a3e 1d44 903c 5b74 a4bb aaa4 253e
00000060: 91b9 f0be 3cfb 2abc 701a a43c 942d ebbe
00000070: 3548 02bd 812e 9cbc 746e 81bd 8453 5fbd
00000080: f8c6 72bd 136a 83bc 968a 1a3b 2796 e3bd
00000090: bd2a 183d 0ebf 353d cd9e ce3c 2cca 9b3e
000000a0: 2236 04be fb11 a33d 23d8 9dbe 79f1 f7be
000000b0: ac34 413d 258a ed3d 2c73 64bd 4e7a 153d
000000c0: 8c41 013e ee8b a63c 26b3 5f3d 2610 883b
000000d0: 12bc 4a3d b140 2cbe 7f25 853e 1f4b 95bc
000000e0: 16b1 debe bb42 91bd d704 ab3d c5d6 e2bd
000000f0: 6dc0 a23b b48c e2bc a04b e03d 6f48 b5bb
00000100: f229 aa3c 1263 abbc 5a3a 713e 326a 553d
00000110: 4540 0b3e d143 eebe 039d 4a3c 859a 93bb
00000120: 7a17 d43d 0f51 ddbe a064 743e 3c1b 9ebc
00000130: 9d1c a8bd 8dc1 913d c0c1 99bd 6414 d5be
00000140: 08ae f3bc 62e7 44bd a07b 05bd 687a 883d
00000150: 39e9 203d 9da8 aabd 8bda f3be 2c74 aa3c
00000160: 71cb f3bc 62fe e43d 4e9f ef3b b63b 4dbd
00000170: ea67 9c3d ba4e 2d3d 81b0 e33b 870d f73c
00000180: d614 053f 20dd 6abd 6449 9d3d 6333 9bbd
00000190: 4ebf 733d b4b9 37be 44ae 54bd bedf f23c
000001a0: 3938 82bd dec0 cd3c 7170 8abd 320a b23d
000001b0: 35a5 d93c ec53 92bc 3e45 1abd 79ae 463d
000001c0: 0869 153c fe35 783c 2a60 65bd d2dc 593c
000001d0: 156e 3ebd 4d5d 0c3b a172 cabc e5e6 ed3e
000001e0: b4f7 ae3b 3e9d 06bd 7e6b eebd 5551 c13d
000001f0: d477 883d 08dc 6d3d 35d6 39be b267 6c3c

final.weight f4 [61, 128]
0.07331823 0.0075429804 -0.060607437 0.0523649 0.020713778 -0.027261136 0.1371172 0.026753334
0.17671862 -0.10244746 -0.19375941 0.032721203 -0.09149415 0.10788125 0.073427506 -0.0064840172
-0.05720291 0.1631293 0.09516685 -0.15230778 -0.19455492 -0.0021733718 0.09230346 -0.19635518
0.20990765 -0.06703618 -0.027864903 0.223733 -0.030661773 -0.14419958 -0.034552954 -0.06589758
0.05657082 -0.06256531 -0.04278898 0.035550956 0.01903256 -0.06362009 0.06294121 -0.15117191
0.080205895 -0.09883647 0.1928524 0.23748685 -0.07562309 -0.0039270646 0.09711679 -0.1401903
-0.03815457 -0.0016359595 -0.07321177 -0.15509973 -0.03129463 0.2232017 -0.08697897 0.06197643
0.21790786 -0.048982304 -0.03801848 0.20908123 0.023566755 -0.05394908 0.033852037 -0.019578872
0.07449963 -0.027161244 -0.10359887 0.07277319 -0.1235652 0.1455007 -0.05451241 -0.05319912
-0.16924341 0.21737063 -0.1022553 0.03247407 0.16116166 -0.015238668 0.018313719 0.2591295
-0.027062885 -0.033042945 0.08740901 -0.062170822 -0.041449726 0.08422379 0.20170848 0.018834455
0.03863733 -0.06009804 0.005014883 0.013830538 0.014024106 -0.050027862 0.08495106 0.06499993
-0.2511427 -0.0029415567 -0.038923476 -0.11549339 -0.028456975 0.08909862 0.07787043 -0.071013846
0.1327847 -0.13308789 0.062121704 -0.07234656 0.038973797 0.017664578 0.0070176534 -0.055073284
-0.011414126 -0.018409137 0.11547098 0.09844477 0.008948843 -0.107440785 -0.02166123 -0.291668
-0.059285983 0.08939617 0.062003836 -0.019415025 0.049436715 0.0311612 0.060775593 0.040790558
0.017724492 -0.041991528 -0.08848224 -0.031636495 0.055528477 -0.10709955 0.09013168 -0.030245258
0.035689697 -0.035196997 0.032859597 0.043507908 -0.11618672 -0.11007887 0.011718728 0.1481068
0.005446657 0.032227248 0.011754443 -0.00038855826 0.03907606 -0.11548134 -0.16264878 -0.1530974
-0.0065000392 -0.03772527 -0.057870924 -0.087946095 0.0002447971 -0.08837387 -0.027755521 -0.103582814
0.06916521 0.022112975 0.0818697 0.016664634 0.11158271 0.095817916 -0.06824429 -0.021775277
0.046631306 0.1286724 -0.020415721 0.0063226433 0.107995294 -0.028903425 0.012397733 0.060819652
-0.052266702 0.037710197 -0.18252282 -0.016501987 0.049455058 0.22491297 0.0573069 0.018705856
0.035755083 -0.14936487 -0.058167 0.022178356 -0.102329046 -0.08507843 0.16181453 0.015786756
-0.024191825 -0.008025303 0.06506063 0.029492136 0.066246 -0.0135446265 0.021594755 -0.072894424
-0.17520781 0.026683064 -0.038492803 0.13803141 -0.026784062 0.002301686 0.042502068 -0.017028175
0.067704074 -0.070275396 -0.059845127 -0.07778928 0.014111377 0.030193975 0.063103825 0.012005028
-0.0795025 0.064293474 0.07331414 -0.1758495 0.00066047977 -0.046360277 -0.106898844 0.028420575
-0.05946716 0.049422387 0.017454332 -0.066101834 0.052325174 0.193525 -0.102994606 0.13705009
0.068741344 -0.050992377 0.09514599 -0.005206874 -0.020032158 -0.12478417 0.13924617 0.033181433
-0.1591016 0.17138521 -0.059960134 -0.13203607 -0.06812471 -0.10680858 0.07871004 -0.003779523
0.009932213 -0.00906157 0.18631227 0.10470605 0.04726359 -0.12178061 0.041084822 -0.040088642
00000000: de27 963d 1b2b f73b 813f 78bd 947c 563d
00000010: f1af a93c bf52 dfbc 7468 0c3e cf29 db3c
00000020: baf5 343e f9cf d1bd de68 46be ab06 063d
00000030: 4961 bbbd d8f0 dc3d 2961 963d e177 d4bb
00000040: 994d 6abd 5e0b 273e d6e6 c23d 92f6 1bbe
00000050: 6839 47be 216f 0ebb 9909 bd3d 5511 49be
00000060: 08f2 563e 444a 89bd f044 e4bc 431a 653e
00000070: 662e fbbc 0ea9 13be 6687 0dbd 4ff5 86bd
00000080: ceb6 673d 3e22 80bd 7f43 2fbd e19d 113d
00000090: 2cea 9b3c 404b 82bd 52e7 803d cfcc 1abe
000000a0: fd42 a43d c66a cabd 197b 453e c12f 733e
000000b0: 47e0 9abd 9bae 80bb 2be5 c63d 0c8e 0fbe
000000c0: f747 1cbd b16d d6ba 0df0 95bd 77d2 1ebe
000000d0: cc2e 00bd fd8e 643e 0822 b2bd ffda 7d3d
000000e0: 3d23 5f3e aba1 48bd 44b9 1bbd 6419 563e
000000f0: 110f c13c b6f9 5cbd 6fa8 0a3d df63 a0bc
00000100: 4393 983d 4281 debc a52b d4bd 1c0a 953d
00000110: c00f fdbd 23fe 143e 6848 5fbd 52e7 59bd
00000120: 254e 2dbe 6896 5e3e 3a6b d1bd 8803 053d
00000130: 9007 253e 9bab 79bc a706 963c 9fac 843e
00000140: fcb2 ddbc 0a58 07bd 7f03 b33d d5a6 7ebd
00000150: 30c7 29bd 867d ac3d ab8c 4e3e b74a 9a3c
00000160: 2d42 1e3d 5d29 76bd e353 a43b 7b99 623c
00000170: 5dc5 653c 04ea 4cbd d2fa ad3d af1e 853d
00000180: c795 80be 22c7 40bb 396e 1fbd cc87 ecbd
00000190: 9a1e e9bc 5679 b63d 887a 9f3d b56f 91bd
000001a0: b6f8 073e 3148 08be 5473 7e3d 6f2a 94bd
000001b0: fda2 1f3d 4eb5 903c 58f4 e53b 8694 61bd
000001c0: 5002 3bbc c2ce 96bc 0d7c ec3d 699d c93d
000001d0: 2b9e 123c ea09 dcbd e472 b1bc 8255 95be
000001e0: dcd5 72bd 5715 b73d bcf7 7d3d 420c 9fbc
000001f0: 277e 4a3d c645 ff3c d4ef 783d 0014 273d
00000200: f432 913c 4fff 2bbd 2d36 b5bd 4595 01bd
00000210: d471 633d 0257 dbbd f596 b83d e7c4 f7bc
00000220: 5c2f 123d ba2a 10bd c997 063d 5935 323d
00000230: 4ef3 edbd 0871 e1bd e8ff 3f3c 4fa9 173e
00000240: df79 b23b b800 043d b595 403c 68b7 cbb9
00000250: 380e 203d 7b81 ecbd 678d 26be 91c5 1cbe
00000260: 48fe d4bb d085 1abd 100a 6dbd 151d b4bd
00000270: 1c58 8039 5cfd b4bd 8c5f e3bc 3a23 d4bd
00000280: 7da6 8d3d 4526 b53c 4dab a73d 4584 883c
00000290: 7a85 e43d 2f3c c43d aac3 8bbd 1162 b2bc
000002a0: 7800 3f3d b3c2 033e df3e a7bc 2d2e cf3b
000002b0: a32c dd3d e0c6 ecbc dc1f 4b3c 071e 793d
000002c0: 9c15 56bd 0276 1a3d 43e7 3abe 2d2f 87bc
000002d0: 6391 4a3d 964f 663e a4ba 6a3d 063d 993c
000002e0: ec73 123d 1bf3 18be 8540 6ebd 62af b53c
000002f0: e491 d1bd 9a3d aebd b5b2 253e 3a53 813c
00000300: ef2d c6bc 8f7c 03bc 823e 853d 7e99 f13c
00000310: fcab 873d 48ea 5dbc 7ce7 b03c ac49 95bd
00000320: ad69 33be 7196 da3c a1aa 1dbd 1b58 0d3e
00000330: 406a dbbc e2d7 163b a616 2e3d ac7e 8bbc
00000340: 6fa8 8a3d 8cec 8fbd 2a20 75bd fc4f 9fbd
00000350: 6833 673c 5b59 f73c 943c 813d bdb0 443c
00000360: 35d2 a2bd 4cac 833d b925 963d e411 34be
00000370: 0c24 2d3a 46e4 3dbd c8ed dabd 44d2 e83c
00000380: d693 73bd 216f 4a3d 63fc 8e3c 6660 87bd
00000390: ec52 563d 6b2b 463e d6ee d2bd dc56 0c3e
000003a0: 43c8 8c3d 62dd 50bd e7db c23d 6d9e aabb
000003b0: 7b1a a4bc d88e ffbd 8c96 0e3e 41e9 073d
000003c0: 88eb 22be 9b7f 2f3e c298 75bd 7734 07be
000003d0: f884 8bbd 75be dabd bb32 a13d e0b1 77bb
000003e0: b9ba 223c fb76 14bc a5c8 3e3e 2070 d63d
000003f0: 7797 413d 1d68 f9bd 8f48 283d fd33 24bd

final.bias f4 [61]
-0.404226 -0.06940331 0.057878572 -0.08889214 -0.38720855 -0.3725433 -0.35338122 -0.2563747
-0.36177662 -0.40914136 -0.38009435 -0.2946504 -0.4132189 -0.3822227 0.7220722 0.28776458
0.2771909 0.48705998 1.3022921 0.08636451 0.3794914 0.20008424 0.6626004 0.0562082
0.44773126 0.56704515 0.38538933 0.5543344 0.5455701 0.34283158 -0.14106445 0.700111
0.7924432 0.645697 0.37266046 0.17171139 0.13327035 -0.07378124 0.028796993 0.09735399
-0.39695644 -0.27703846 -0.43954977 -0.32099742 -0.32105187 -0.14588153 -0.04887511 -0.30776858
-0.20520781 -0.40987626 -0.2547923 -0.21761444 -0.42455566 -0.2628544 -0.28848594 -0.19769128
-0.3959196 -0.38097423 -0.28506157 -0.41853365 0.9083793
00000000: b6f6 cebe 5323 8ebd 1512 6d3d 150d b6bd
00000010: 3340 c6be ffbd bebe 62ee b4be 8b43 83be
00000020: c93a b9be fa7a d1be ba9b c2be 6bdc 96be
00000030: 6d91 d3be b2b2 c3be b9d9 383f e155 933e
00000040: f7eb 8d3e ed5f f93e 82b1 a63f e0df b03d
00000050: b24c c23e e2e2 4c3e 2ea0 293f 923a 663d
00000060: 083d e53e df29 113f c051 c53e dce8 0d3f
00000070: 7baa 0b3f 9f87 af3e 3373 10be 793a 333f
00000080: 8fdd 4a3f 664c 253f 5acd be3e 1cd5 2f3e
00000090: 0678 083e 9e1a 97bd ace7 eb3c 8761 c73d
000000a0: e03d cbbe fcd7 8dbe ab0c e1be c659 a4be
000000b0: e960 a4be f861 15be 4431 48bd d893 9dbe
000000c0: ff21 52be 4ddb d1be 2374 82be 52d6 5ebe
000000d0: 5c5f d9be da94 86be 6eb4 93be 956f 4abe
000000e0: f9b5 cabe 0e0f c3be 97f3 91be 0b4a d6be
000000f0: 8c8b 683f

momentum_buffer f4 [128, 61]
6e-45 -2.4321089e-11 0.006393009 -6e-45 6e-45 6e-45 -6e-45 6e-45
-6e-45 -6e-45 -6e-45 -6e-45 -1.4145291e-22 -6e-45 0.0040409807 0.01584163
0.0050190324 0.051071174 -0.040706445 -0.0030763156 -0.023219345 0.032844223 0.01885881 -0.014374112
0.012535272 0.023230366 0.059025284 -0.010546316 0.030666161 0.0027967494 -4.1554105e-07 0.031512193
0.02759389 0.02527534 -0.00068177574 0.019126091 0.020911641 -5.6819943e-05 -0.00027668133 -0.00049615745
-6e-45 6e-45 6e-45 6e-45 -9.621613e-38 1.37278e-39 2.1995206e-26 -6e-45
0.0017603192 -6e-45 6e-45 2.4554278e-28 -6e-45 6e-45 6e-45 6e-45
6e-45 -6e-45 0.005734276 -0.047394812 0.0 -6e-45 5.705046e-12 0.019868836
6e-45 -6e-45 -6e-45 -6e-45 -6e-45 -6e-45 -6e-45 -6e-45
-6e-45 -1.1980656e-22 -6e-45 -0.009087502 -0.045728225 0.0042606792 -0.023313168 0.006227659
0.0041953824 -0.012394508 0.004370926 -0.040389374 0.026277956 0.012316991 -0.0045652166 -0.013412838
-0.024794694 0.027971355 0.009898202 -1.0454281e-06 -0.0052152257 0.026831005 -0.0061742924 0.006762864
0.0044303765 0.00011542215 2.2423477e-05 0.0023486991 -0.002296259 6e-45 -6e-45 6e-45
-6e-45 9.666259e-38 -6e-45 -6.736284e-10 6e-45 -0.00627235 6e-45 -6e-45
3.265698e-28 6e-45 -6e-45 -6e-45 -6e-45 -6e-45 6e-45 -0.016989937
-0.04759546 0.0 -6e-45 -1.0603137e-13 -0.0022613148 -6e-45 6e-45 6e-45
6e-45 -6e-45 6e-45 6e-45 6e-45 6e-45 1.5595597e-22 6e-45
0.000393014 -0.007114357 0.012289119 0.006977927 0.021775305 0.00011953544 0.0010590925 -0.00252564
-0.0076648546 -0.0032764254 0.009406637 0.010417531 -0.010601487 -0.005762475 -0.00028095802 -0.0021267266
2.7455832e-07 0.01955302 0.00039953596 -0.0045373538 0.00044267348 0.00065468263 -0.0042239632 1.659006e-05
-0.0004024036 0.0017977161 -6e-45 -6e-45 6e-45 -6e-45 9.52072e-40 -4.50006e-40
1.5123945e-11 -6e-45 -0.00071926124 -6e-45 -6e-45 3.4014126e-29 6e-45 -6e-45
-6e-45 -6e-45 6e-45 -6e-45 -0.0021638302 -0.015522629 0.0 6e-45
-2.3251962e-12 -0.04600269 6e-45 6e-45 6e-45 -6e-45 6e-45 -6e-45
-6e-45 -6e-45 -6e-45 -7.4665994e-23 -6e-45 -0.005779932 0.02373786 -0.019747553
-0.051526017 0.01095096 -0.0009799099 0.01694561 -0.06129742 0.05093344 -0.048404142 0.0057670157
-0.026670495 -0.007931203 0.013066647 0.048035566 0.022496419 -1.342929e-06 -0.07705808 -0.07308121
-0.022838376 -0.016217092 -0.02443852 -0.0010797068 -4.270705e-05 0.010290549 -0.0048634545 6e-45
6e-45 6e-45 6e-45 5.6919023e-38 4.47067e-40 -1.3933836e-10 6e-45 0.00045013553
6e-45 6e-45 -2.389462e-28 6e-45 6e-45 6e-45 6e-45 6e-45
6e-45 0.016151631 -0.02256122 0.0 6e-45 -1.3740894e-11 -0.0020535623 -6e-45
-6e-45 -6e-45 -6e-45 6e-45 -6e-45 -6e-45 -6e-45 -6e-45
00000000: 0400 0000 39ee d5ad 727c d13b 0400 0080
00000010: 0400 0000 0400 0000 0400 0080 0400 0000
00000020: 0400 0080 0400 0080 0400 0080 0400 0080
00000030: 8e01 2b9b 0400 0080 346a 843b 4ec6 813c
00000040: b276 a43b 0230 513d cdbb 26bd 039c 49bb
00000050: 7f36 bebc aa87 063d cb7d 9a3c 6581 6bbc
00000060: be60 4d3c 9c4d be3c 7fc4 713d 75ca 2cbc
00000070: 9a37 fb3c ab49 373b 8717 dfb4 ee12 013d
00000080: 950c e23c 3b0e cf3c 32b9 32ba 52ae 9c3c
00000090: e44e ab3c f351 6eb8 8a0f 91b9 9010 02ba
000000a0: 0400 0080 0400 0000 0400 0000 0400 0000
000000b0: 6ef6 0282 c1f2 0e00 79d4 d914 0400 0080
000000c0: 83ba e63a 0400 0080 0400 0000 98a1 9b11
000000d0: 0400 0080 0400 0000 0400 0000 0400 0000
000000e0: 0400 0000 0400 0080 98e6 bb3b 1021 42bd
000000f0: 0000 0000 0400 0080 7cba c82c f8c3 a23c
00000100: 0400 0000 0400 0080 0400 0080 0400 0080
00000110: 0400 0080 0400 0080 0400 0080 0400 0080
00000120: 0400 0080 56d6 109b 0400 0080 bfe3 14bc
00000130: 854d 3bbd 2b9d 8b3b 42fb bebc 6411 cc3b
00000140: 6b79 893b 5612 4bbc fc39 8f3b 546f 25bd
00000150: de44 d73c 34cd 493c d097 95bb 85c1 5bbc
00000160: 3e1e cbbc 2f24 e53c 112c 223c a350 8cb5
00000170: 7ce4 aabb b2cc db3c b851 cabb 049b dd3b
00000180: b12c 913b cc0e f238 0d1a bc37 a2ec 193b
00000190: d57c 16bb 0400 0000 0400 0080 0400 0000
000001a0: 0400 0080 ff91 0302 0400 0080 622a 39b0
000001b0: 0400 0000 4988 cdbb 0400 0000 0400 0080
000001c0: fbfc ce11 0400 0000 0400 0080 0400 0080
000001d0: 0400 0080 0400 0080 0400 0000 7b2e 8bbc
000001e0: 75f3 42bd 0000 0000 0400 0080 ecc2 eea9
000001f0: 9132 14bb 0400 0080 0400 0000 0400 0000
00000200: 0400 0000 0400 0080 0400 0000 0400 0000
00000210: 0400 0000 0400 0000 098a 3c1b 0400 0000
00000220: 720d ce39 8d1f e9bb 4d58 493c 18a7 e43b
00000230: 2062 b23c 1aaf fa38 3fd1 8a3a 3585 25bb
00000240: 7629 fbbb 4cb9 56bb 4c1e 1a3c 4bae 2a3c
00000250: dcb1 2dbc 25d3 bcbb 8c4d 93b9 8d60 0bbb
00000260: 0267 9334 a82d a03c cf78 d139 15ae 94bb
00000270: a116 e839 029f 2b3a 2c69 8abb e22a 8b37
00000280: b2f9 d2b9 58a1 eb3a 0400 0080 0400 0080
00000290: 0400 0000 0400 0080 fd5d 0a00 6fe6 0480
000002a0: 1908 852d 0400 0080 ce8c 3cba 0400 0080
000002b0: 0400 0080 dc78 2c10 0400 0000 0400 0080
000002c0: 0400 0080 0400 0080 0400 0000 0400 0080
000002d0: 0ccf 0dbb a052 7ebc 0000 0000 0400 0000
000002e0: 039f 23ac 516d 3cbd 0400 0000 0400 0000
000002f0: 0400 0000 0400 0080 0400 0000 0400 0080
00000300: 0400 0080 0400 0080 0400 0080 0388 b49a
00000310: 0400 0080 9565 bdbb e775 c23c 9fc5 a1bc
00000320: f20c 53bd a86b 333c 5270 80ba 85d1 8a3c
00000330: 0113 7bbd 959f 503d 6c43 46bd 3cf9 bc3b
00000340: 157c dabc e0f1 01bc 7d15 563c f1c0 443d
00000350: 694a b83c b03e b4b5 a0d0 9dbd 9aab 95bd
00000360: 8c17 bbbc b5d9 84bc 4b33 c8bc f384 8dba
00000370: 5920 33b8 b199 283c 9d5d 9fbb 0400 0000
00000380: 0400 0000 0400 0000 0400 0000 c5f2 9a01
00000390: 3ede 0400 4334 19af 0400 0000 2b00 ec39
000003a0: 0400 0000 0400 0000 3d73 9791 0400 0000
000003b0: 0400 0000 0400 0000 0400 0000 0400 0000
000003c0: 0400 0000 6d50 843c 4fd2 b8bc 0000 0000
000003d0: 0400 0000 7cbb 71ad 0f95 06bb 0400 0080
000003e0: 0400 0080 0400 0080 0400 0080 0400 0000
000003f0: 0400 0080 0400 0080 0400 0080 0400 0080

momentum_buffer f4 [128, 128]
0.0 0.0 0.0 0.0 0.0 0.0 0.0 0.0
0.0 0.0 0.0 0.0 0.0 0.0 0.0 0.0
0.0 0.0 0.0 0.0 0.0 0.0 0.0 0.0
0.0 0.0 0.0 0.0 0.0 0.0 0.0 0.0
0.0 0.0 0.0 0.0 0.0 0.0 0.0 0.0
0.0 0.0 0.0 0.0 0.0 0.0 0.0 0.0
0.0 0.0 0.0 0.0 0.0 0.0 0.0 0.0
0.0 0.0 0.0 0.0 0.0 0.0 0.0 0.0
0.0 0.0 0.0 0.0 0.0 0.0 0.0 0.0
0.0 0.0 0.0 0.0 0.0 0.0 0.0 0.0
0.0 0.0 0.0 0.0 0.0 0.0 0.0 0.0
0.0 0.0 0.0 0.0 0.0 0.0 0.0 0.0
0.0 0.0 0.0 0.0 0.0 0.0 0.0 0.0
0.0 0.0 0.0 0.0 0.0 0.0 0.0 0.0
0.0 0.0 0.0 0.0 0.0 0.0 0.0 0.0
0.0 0.0 0.0 0.0 0.0 0.0 0.0 0.0
0.0 0.0 0.0 0.0 0.0 0.0 0.0 0.0
0.0 0.0 0.0 0.0 0.0 0.0 0.0 0.0
0.0 0.0 0.0 0.0 0.0 0.0 0.0 0.0
0.0 0.0 0.0 0.0 0.0 0.0 0.0 0.0
0.0 0.0 0.0 0.0 0.0 0.0 0.0 0.0
0.0 0.0 0.0 0.0 0.0 0.0 0.0 0.0
0.0 0.0 0.0 0.0 0.0 0.0 0.0 0.0
0.0 0.0 0.0 0.0 0.0 0.0 0.0 0.0
0.0 0.0 0.0 0.0 0.0 0.0 0.0 0.0
0.0 0.0 0.0 0.0 0.0 0.0 0.0 0.0
0.0 0.0 0.0 0.0 0.0 0.0 0.0 0.0
0.0 0.0 0.0 0.0 0.0 0.0 0.0 0.0
0.0 0.0 0.0 0.0 0.0 0.0 0.0 0.0
0.0 0.0 0.0 0.0 0.0 0.0 0.0 0.0
0.0 0.0 0.0 0.0 0.0 0.0 0.0 0.0
0.0 0.0 0.0 0.0 0.0 0.0 0.0 0.0
00000000: 0000 0000 0000 0000 0000 0000 0000 0000
00000010: 0000 0000 0000 0000 0000 0000 0000 0000
00000020: 0000 0000 0000 0000 0000 0000 0000 0000
00000030: 0000 0000 0000 0000 0000 0000 0000 0000
00000040: 0000 0000 0000 0000 0000 0000 0000 0000
00000050: 0000 0000 0000 0000 0000 0000 0000 0000
00000060: 0000 0000 0000 0000 0000 0000 0000 0000
00000070: 0000 0000 0000 0000 0000 0000 0000 0000
00000080: 0000 0000 0000 0000 0000 0000 0000 0000
00000090: 0000 0000 0000 0000 0000 0000 0000 0000
000000a0: 0000 0000 0000 0000 0000 0000 0000 0000
000000b0: 0000 0000 0000 0000 0000 0000 0000 0000
000000c0: 0000 0000 0000 0000 0000 0000 0000 0000
000000d0: 0000 0000 0000 0000 0000 0000 0000 0000
000000e0: 0000 0000 0000 0000 0000 0000 0000 0000
000000f0: 0000 0000 0000 0000 0000 0000 0000 0000
00000100: 0000 0000 0000 0000 0000 0000 0000 0000
00000110: 0000 0000 0000 0000 0000 0000 0000 0000
00000120: 0000 0000 0000 0000 0000 0000 0000 0000
00000130: 0000 0000 0000 0000 0000 0000 0000 0000
00000140: 0000 0000 0000 0000 0000 0000 0000 0000
00000150: 0000 0000 0000 0000 0000 0000 0000 0000
00000160: 0000 0000 0000 0000 0000 0000 0000 0000
00000170: 0000 0000 0000 0000 0000 0000 0000 0000
00000180: 0000 0000 0000 0000 0000 0000 0000 0000
00000190: 0000 0000 0000 0000 0000 0000 0000 0000
000001a0: 0000 0000 0000 0000 0000 0000 0000 0000
000001b0: 0000 0000 0000 0000 0000 0000 0000 0000
000001c0: 0000 0000 0000 0000 0000 0000 0000 0000
000001d0: 0000 0000 0000 0000 0000 0000 0000 0000
000001e0: 0000 0000 0000 0000 0000 0000 0000 0000
000001f0: 0000 0000 0000 0000 0000 0000 0000 0000
00000200: 0000 0000 0000 0000 0000 0000 0000 0000
00000210: 0000 0000 0000 0000 0000 0000 0000 0000
00000220: 0000 0000 0000 0000 0000 0000 0000 0000
00000230: 0000 0000 0000 0000 0000 0000 0000 0000
00000240: 0000 0000 0000 0000 0000 0000 0000 0000
00000250: 0000 0000 0000 0000 0000 0000 0000 0000
00000260: 0000 0000 0000 0000 0000 0000 0000 0000
00000270: 0000 0000 0000 0000 0000 0000 0000 0000
00000280: 0000 0000 0000 0000 0000 0000 0000 0000
00000290: 0000 0000 0000 0000 0000 0000 0000 0000
000002a0: 0000 0000 0000 0000 0000 0000 0000 0000
000002b0: 0000 0000 0000 0000 0000 0000 0000 0000
000002c0: 0000 0000 0000 0000 0000 0000 0000 0000
000002d0: 0000 0000 0000 0000 0000 0000 0000 0000
000002e0: 0000 0000 0000 0000 0000 0000 0000 0000
000002f0: 0000 0000 0000 0000 0000 0000 0000 0000
00000300: 0000 0000 0000 0000 0000 0000 0000 0000
00000310: 0000 0000 0000 0000 0000 0000 0000 0000
00000320: 0000 0000 0000 0000 0000 0000 0000 0000
00000330: 0000 0000 0000 0000 0000 0000 0000 0000
00000340: 0000 0000 0000 0000 0000 0000 0000 0000
00000350: 0000 0000 0000 0000 0000 0000 0000 0000
00000360: 0000 0000 0000 0000 0000 0000 0000 0000
00000370: 0000 0000 0000 0000 0000 0000 0000 0000
00000380: 0000 0000 0000 0000 0000 0000 0000 0000
00000390: 0000 0000 0000 0000 0000 0000 0000 0000
000003a0: 0000 0000 0000 0000 0000 0000 0000 0000
000003b0: 0000 0000 0000 0000 0000 0000 0000 0000
000003c0: 0000 0000 0000 0000 0000 0000 0000 0000
000003d0: 0000 0000 0000 0000 0000 0000 0000 0000
000003e0: 0000 0000 0000 0000 0000 0000 0000 0000
000003f0: 0000 0000 0000 0000 0000 0000 0000 0000

momentum_buffer f4 [128]
0.25340724 -0.10233134 0.016118962 -0.29169518 0.15534066 0.21151987 0.007734786 0.014039485
0.20427157 -0.21744311 0.012258073 -0.18821251 -0.115926504 -0.082387626 -0.38005415 0.027949909
0.08626788 -0.007962443 0.06687243 0.016799822 0.014556356 -0.13895571 0.048198424 0.015096484
-0.013778839 -0.077617414 0.17729048 -0.010216932 0.08113159 -0.02347999 -0.3144771 -0.096525095
-0.07587426 0.06361805 -0.14675966 0.1559698 -0.07716118 -0.049805358 -0.25612187 0.03028011
-0.040336076 0.25397062 -0.033397995 0.00011802918 0.040875748 0.03774774 0.03264087 -0.12186916
-0.0066519664 0.09951516 -0.0068960264 0.09707012 -0.030296056 0.0016447552 0.026861738 -0.25212526
0.00027218089 -0.07941829 0.07349889 0.0019448181 -0.030443508 -0.051626597 0.042333934 0.12133925
-0.024532463 -0.20990884 0.036500543 -0.16134772 0.001007108 -0.0033731945 0.16175345 0.029623616
-0.12797295 -0.012464913 0.02246739 -0.21170959 -0.053160034 0.2667056 0.08946849 -0.0051155095
0.2889896 -0.13665102 0.067645386 -0.14908123 0.064993955 -0.4545309 -0.011825621 -0.03840711
0.2039168 0.04301179 0.030350734 -0.09681055 0.19839631 -0.13958971 0.045345113 -0.110672355
0.0049673254 -0.1377222 0.055749364 0.13374776 0.098568544 -0.028662516 0.12566859 -0.016077235
0.087216124 0.054868147 0.09854239 0.052776136 -0.25133312 0.05120036 0.18545833 -0.16170727
-0.40150005 -0.05081098 -0.14382371 -0.05082605 -0.23469919 0.019418303 -0.030693844 -0.0005992183
0.038038485 -0.34681574 0.06361735 0.014541415 -0.06861169 0.17132941 0.014295737 0.015453338
00000000: 98be 813e 1893 d1bd ea0b 843c 1259 95be
00000010: 9f11 1f3e aa98 583e 1674 fd3b de05 663c
00000020: 912c 513e 68a9 5ebe 16d6 483c c8ba 40be
00000030: e06a edbd d8ba a8bd 7596 c2be 35f7 e43c
00000040: 37ad b03d e874 02bc 6af4 883d c89f 893c
00000050: c87d 6e3c 684a 0ebe b66b 453d 3e57 773c
00000060: a4c0 61bc e1f5 9ebd a38b 353e eb64 27bc
00000070: 5228 a63d 1c59 c0bc 2403 a1be f3ae c5bd
00000080: f763 9bbd 2e4a 823d 2a48 16be 8cb6 1f3e
00000090: ae06 9ebd b400 4cbd 6822 83be fe0d f83c
000000a0: 7137 25bd 7008 823e 56cc 08bd 6f86 f738
000000b0: 546d 273d 609d 1a3d 6fb2 053d 8a96 f9bd
000000c0: bdf8 d9bb 9bce cb3d 10f8 e1bb b3cc c63d
000000d0: 6f2f f8bc d494 d73a 260d dc3c 9016 81be
000000e0: 80b3 8e39 0ea6 a2bd 9686 963d 44e9 fe3a
000000f0: aa64 f9bc 6976 53bd 5966 2d3d b680 f83d
00000100: 4ef8 c8bc 58f2 56be 9881 153d 5638 25be
00000110: f000 843a d010 5dbb b2a2 253e 3aad f23c
00000120: 570b 03be a239 4cbc 880d b83c 66ca 58be
00000130: 56be 59bd a38d 883e 413b b73d 01a0 a7bb
00000140: 72f6 933e 3fee 0bbe aa89 8a3d c0a8 18be
00000150: 8d1b 853d 46b8 e8be 40c0 41bc c650 1dbd
00000160: 91cf 503e 212d 303d 1aa2 f83c 9c44 c6bd
00000170: 6728 4b3e 9bf0 0ebe ccbb 393d 30a8 e2bd
00000180: f2c4 a23b 0c07 0dbe 7259 643d 2cf5 083e
00000190: 4ede c93d a7cd eabc 44af 003e 68b4 83bc
000001a0: 5e9e b23d 6cbd 603d 98d0 c93d ca2b 583d
000001b0: bcae 80be 78b7 513d cae8 3d3e 9796 25be
000001c0: 6a91 cdbe 2d1f 50bd 8646 13be fa2e 50bd
000001d0: fc54 70be 2213 9f3c a871 fbbc dc14 1dba
000001e0: 3ece 1b3d d591 b1be d049 823d 1d3f 6e3c
000001f0: 4984 8cbd fa70 2f3e ab38 6a3c ff2f 7d3c

momentum_buffer f4 [128]
0.25340724 -0.10233134 0.016118962 -0.29169518 0.15534066 0.21151987 0.007734786 0.014039485
0.20427157 -0.21744311 0.012258073 -0.18821251 -0.115926504 -0.082387626 -0.38005415 0.027949909
0.08626788 -0.007962443 0.06687243 0.016799822 0.014556356 -0.13895571 0.048198424 0.015096484
-0.013778839 -0.077617414 0.17729048 -0.010216932 0.08113159 -0.02347999 -0.3144771 -0.096525095
-0.07587426 0.06361805 -0.14675966 0.1559698 -0.07716118 -0.049805358 -0.25612187 0.03028011
-0.040336076 0.25397062 -0.033397995 0.00011802918 0.040875748 0.03774774 0.03264087 -0.12186916
-0.0066519664 0.09951516 -0.0068960264 0.09707012 -0.030296056 0.0016447552 0.026861738 -0.25212526
0.00027218089 -0.07941829 0.07349889 0.0019448181 -0.030443508 -0.051626597 0.042333934 0.12133925
-0.024532463 -0.20990884 0.036500543 -0.16134772 0.001007108 -0.0033731945 0.16175345 0.029623616
-0.12797295 -0.012464913 0.02246739 -0.21170959 -0.053160034 0.2667056 0.08946849 -0.0051155095
0.2889896 -0.13665102 0.067645386 -0.14908123 0.064993955 -0.4545309 -0.011825621 -0.03840711
0.2039168 0.04301179 0.030350734 -0.09681055 0.19839631 -0.13958971 0.045345113 -0.110672355
0.0049673254 -0.1377222 0.055749364 0.13374776 0.098568544 -0.028662516 0.12566859 -0.016077235
0.087216124 0.054868147 0.09854239 0.052776136 -0.25133312 0.05120036 0.18545833 -0.16170727
-0.40150005 -0.05081098 -0.14382371 -0.05082605 -0.23469919 0.019418303 -0.030693844 -0.0005992183
0.038038485 -0.34681574 0.06361735 0.014541415 -0.06861169 0.17132941 0.014295737 0.015453338
00000000: 98be 813e 1893 d1bd ea0b 843c 1259 95be
00000010: 9f11 1f3e aa98 583e 1674 fd3b de05 663c
00000020: 912c 513e 68a9 5ebe 16d6 483c c8ba 40be
00000030: e06a edbd d8ba a8bd 7596 c2be 35f7 e43c
00000040: 37ad b03d e874 02bc 6af4 883d c89f 893c
00000050: c87d 6e3c 684a 0ebe b66b 453d 3e57 773c
00000060: a4c0 61bc e1f5 9ebd a38b 353e eb64 27bc
00000070: 5228 a63d 1c59 c0bc 2403 a1be f3ae c5bd
00000080: f763 9bbd 2e4a 823d 2a48 16be 8cb6 1f3e
00000090: ae06 9ebd b400 4cbd 6822 83be fe0d f83c
000000a0: 7137 25bd 7008 823e 56cc 08bd 6f86 f738
000000b0: 546d 273d 609d 1a3d 6fb2 053d 8a96 f9bd
000000c0: bdf8 d9bb 9bce cb3d 10f8 e1bb b3cc c63d
000000d0: 6f2f f8bc d494 d73a 260d dc3c 9016 81be
000000e0: 80b3 8e39 0ea6 a2bd 9686 963d 44e9 fe3a
000000f0: aa64 f9bc 6976 53bd 5966 2d3d b680 f83d
00000100: 4ef8 c8bc 58f2 56be 9881 153d 5638 25be
00000110: f000 843a d010 5dbb b2a2 253e 3aad f23c
00000120: 570b 03be a239 4cbc 880d b83c 66ca 58be
00000130: 56be 59bd a38d 883e 413b b73d 01a0 a7bb
00000140: 72f6 933e 3fee 0bbe aa89 8a3d c0a8 18be
00000150: 8d1b 853d 46b8 e8be 40c0 41bc c650 1dbd
00000160: 91cf 503e 212d 303d 1aa2 f83c 9c44 c6bd
00000170: 6728 4b3e 9bf0 0ebe ccbb 393d 30a8 e2bd
00000180: f2c4 a23b 0c07 0dbe 7259 643d 2cf5 083e
00000190: 4ede c93d a7cd eabc 44af 003e 68b4 83bc
000001a0: 5e9e b23d 6cbd 603d 98d0 c93d ca2b 583d
000001b0: bcae 80be 78b7 513d cae8 3d3e 9796 25be
000001c0: 6a91 cdbe 2d1f 50bd 8646 13be fa2e 50bd
000001d0: fc54 70be 2213 9f3c a871 fbbc dc14 1dba
000001e0: 3ece 1b3d d591 b1be d049 823d 1d3f 6e3c
000001f0: 4984 8cbd fa70 2f3e ab38 6a3c ff2f 7d3c
