app/ml_models/rnn/pretrained/2021_straattaal_epoch100.pt (torch, 277513 bytes, 13 tensors)

_embedding.weight f4 [61, 61]
1.0 0.0 0.0 0.0 0.0 0.0 0.0 0.0
0.0 0.0 0.0 0.0 0.0 0.0 0.0 0.0
0.0 0.0 0.0 0.0 0.0 0.0 0.0 0.0
0.0 0.0 0.0 0.0 0.0 0.0 0.0 0.0
0.0 0.0 0.0 0.0 0.0 0.0 0.0 0.0
0.0 0.0 0.0 0.0 0.0 0.0 0.0 0.0
0.0 0.0 0.0 0.0 0.0 0.0 0.0 0.0
0.0 0.0 0.0 0.0 0.0 0.0 1.0 0.0
0.0 0.0 0.0 0.0 0.0 0.0 0.0 0.0
0.0 0.0 0.0 0.0 0.0 0.0 0.0 0.0
0.0 0.0 0.0 0.0 0.0 0.0 0.0 0.0
0.0 0.0 0.0 0.0 0.0 0.0 0.0 0.0
0.0 0.0 0.0 0.0 0.0 0.0 0.0 0.0
0.0 0.0 0.0 0.0 0.0 0.0 0.0 0.0
0.0 0.0 0.0 0.0 0.0 0.0 0.0 0.0
0.0 0.0 0.0 0.0 1.0 0.0 0.0 0.0
0.0 0.0 0.0 0.0 0.0 0.0 0.0 0.0
0.0 0.0 0.0 0.0 0.0 0.0 0.0 0.0
0.0 0.0 0.0 0.0 0.0 0.0 0.0 0.0
0.0 0.0 0.0 0.0 0.0 0.0 0.0 0.0
0.0 0.0 0.0 0.0 0.0 0.0 0.0 0.0
0.0 0.0 0.0 0.0 0.0 0.0 0.0 0.0
0.0 0.0 0.0 0.0 0.0 0.0 0.0 0.0
0.0 0.0 1.0 0.0 0.0 0.0 0.0 0.0
0.0 0.0 0.0 0.0 0.0 0.0 0.0 0.0
0.0 0.0 0.0 0.0 0.0 0.0 0.0 0.0
0.0 0.0 0.0 0.0 0.0 0.0 0.0 0.0
0.0 0.0 0.0 0.0 0.0 0.0 0.0 0.0
0.0 0.0 0.0 0.0 0.0 0.0 0.0 0.0
0.0 0.0 0.0 0.0 0.0 0.0 0.0 0.0
0.0 0.0 0.0 0.0 0.0 0.0 0.0 0.0
1.0 0.0 0.0 0.0 0.0 0.0 0.0 0.0
00000000: 0000 803f 0000 0000 0000 0000 0000 0000
00000010: 0000 0000 0000 0000 0000 0000 0000 0000
00000020: 0000 0000 0000 0000 0000 0000 0000 0000
00000030: 0000 0000 0000 0000 0000 0000 0000 0000
00000040: 0000 0000 0000 0000 0000 0000 0000 0000
00000050: 0000 0000 0000 0000 0000 0000 0000 0000
00000060: 0000 0000 0000 0000 0000 0000 0000 0000
00000070: 0000 0000 0000 0000 0000 0000 0000 0000
00000080: 0000 0000 0000 0000 0000 0000 0000 0000
00000090: 0000 0000 0000 0000 0000 0000 0000 0000
000000a0: 0000 0000 0000 0000 0000 0000 0000 0000
000000b0: 0000 0000 0000 0000 0000 0000 0000 0000
000000c0: 0000 0000 0000 0000 0000 0000 0000 0000
000000d0: 0000 0000 0000 0000 0000 0000 0000 0000
000000e0: 0000 0000 0000 0000 0000 0000 0000 0000
000000f0: 0000 0000 0000 0000 0000 803f 0000 0000
00000100: 0000 0000 0000 0000 0000 0000 0000 0000
00000110: 0000 0000 0000 0000 0000 0000 0000 0000
00000120: 0000 0000 0000 0000 0000 0000 0000 0000
00000130: 0000 0000 0000 0000 0000 0000 0000 0000
00000140: 0000 0000 0000 0000 0000 0000 0000 0000
00000150: 0000 0000 0000 0000 0000 0000 0000 0000
00000160: 0000 0000 0000 0000 0000 0000 0000 0000
00000170: 0000 0000 0000 0000 0000 0000 0000 0000
00000180: 0000 0000 0000 0000 0000 0000 0000 0000
00000190: 0000 0000 0000 0000 0000 0000 0000 0000
000001a0: 0000 0000 0000 0000 0000 0000 0000 0000
000001b0: 0000 0000 0000 0000 0000 0000 0000 0000
000001c0: 0000 0000 0000 0000 0000 0000 0000 0000
000001d0: 0000 0000 0000 0000 0000 0000 0000 0000
000001e0: 0000 0000 0000 0000 0000 0000 0000 0000
000001f0: 0000 803f 0000 0000 0000 0000 0000 0000
00000200: 0000 0000 0000 0000 0000 0000 0000 0000
00000210: 0000 0000 0000 0000 0000 0000 0000 0000
00000220: 0000 0000 0000 0000 0000 0000 0000 0000
00000230: 0000 0000 0000 0000 0000 0000 0000 0000
00000240: 0000 0000 0000 0000 0000 0000 0000 0000
00000250: 0000 0000 0000 0000 0000 0000 0000 0000
00000260: 0000 0000 0000 0000 0000 0000 0000 0000
00000270: 0000 0000 0000 0000 0000 0000 0000 0000
00000280: 0000 0000 0000 0000 0000 0000 0000 0000
00000290: 0000 0000 0000 0000 0000 0000 0000 0000
000002a0: 0000 0000 0000 0000 0000 0000 0000 0000
000002b0: 0000 0000 0000 0000 0000 0000 0000 0000
000002c0: 0000 0000 0000 0000 0000 0000 0000 0000
000002d0: 0000 0000 0000 0000 0000 0000 0000 0000
000002e0: 0000 0000 0000 0000 0000 803f 0000 0000
000002f0: 0000 0000 0000 0000 0000 0000 0000 0000
00000300: 0000 0000 0000 0000 0000 0000 0000 0000
00000310: 0000 0000 0000 0000 0000 0000 0000 0000
00000320: 0000 0000 0000 0000 0000 0000 0000 0000
00000330: 0000 0000 0000 0000 0000 0000 0000 0000
00000340: 0000 0000 0000 0000 0000 0000 0000 0000
00000350: 0000 0000 0000 0000 0000 0000 0000 0000
00000360: 0000 0000 0000 0000 0000 0000 0000 0000
00000370: 0000 0000 0000 0000 0000 0000 0000 0000
00000380: 0000 0000 0000 0000 0000 0000 0000 0000
00000390: 0000 0000 0000 0000 0000 0000 0000 0000
000003a0: 0000 0000 0000 0000 0000 0000 0000 0000
000003b0: 0000 0000 0000 0000 0000 0000 0000 0000
000003c0: 0000 0000 0000 0000 0000 0000 0000 0000
000003d0: 0000 0000 0000 0000 0000 0000 0000 0000
000003e0: 0000 803f 0000 0000 0000 0000 0000 0000
000003f0: 0000 0000 0000 0000 0000 0000 0000 0000

lstm.weight_ih_l0 f4 [128, 61]
0.062525526 -0.05895343 -0.08227021 -0.005070466 0.04790831 -0.084566936 0.063132 -0.0412758
-0.0488351 -0.06342421 0.03147867 0.07149271 0.06164163 -0.011300718 0.93859416 -0.130432
0.434068 0.14854303 0.23394759 0.29044357 -0.0669863 -0.5611393 -0.20031273 -0.39549544
0.058349703 0.42140773 -0.6221285 0.11411056 0.16306996 -0.0057856035 -0.041018873 -0.4135105
-0.32279405 -0.16606902 0.18079443 0.19573544 0.032567628 -0.16992746 -0.021989211 0.07170799
0.04066 -0.0034498565 -0.043290343 0.0227715 -0.026535569 0.02796102 -0.065783225 0.024784349
0.00043693636 0.023648595 0.07182941 0.07709581 0.0215294 -0.044305302 -0.026074938 -0.006147318
-0.0018741544 0.046741106 0.0004043358 -0.007884954 -0.051573317 0.069953285 0.0035550972 -0.0030471117
-0.008058614 0.052989293 -0.007206184 -0.07542977 -0.04323551 0.015757937 0.01007847 0.05922244
0.07877097 -0.0375587 -0.0023144835 0.93804467 -0.32188985 -0.4974573 0.041472077 1.191907
-0.3322114 -0.07967724 0.047102086 -0.54442644 -0.14224283 -0.4272791 -0.5558895 -0.47735175
-0.15658228 0.20864013 -0.37636504 0.006053973 0.2713406 0.29985604 -0.11101217 0.25042793
0.035765737 0.30213428 0.15974624 -0.027250335 0.1881511 -0.03794255 -0.025257615 0.06188602
0.019008186 -0.15564045 0.054624695 -0.08820057 0.08418978 0.047804937 -0.0074915076 0.075346835
-0.06270225 -0.08019507 0.083970085 -0.05062868 0.064016834 -0.010178643 0.0219026 0.05715949
0.044410806 0.07827563 0.059279278 0.0057468596 -0.0783836 0.043768626 -0.0659634 -0.023113005
-0.036325946 -0.06400943 0.07032595 0.008141211 -0.0025182003 -0.023333643 0.033467032 0.08736986
-0.5029179 0.083396375 -0.056584973 -0.01810913 0.7227621 -0.624093 0.40052506 0.22402968
0.11545049 -0.4253542 0.5631385 -0.27892876 0.26279023 -0.18752216 -0.7929528 0.25844374
0.043344703 -0.35095733 0.1293836 0.37127447 0.13045682 0.12684837 0.19318578 -0.050265305
-0.16995825 -0.0056676595 0.049691755 -0.012666255 0.0086122975 -0.030644119 0.041544832 0.028462863
0.06504632 -0.035849307 0.041066635 -0.050615583 -0.021947654 0.0596248 -0.020509742 0.022984942
-0.027116291 -0.0827311 0.07674896 0.054095954 -0.011863621 -0.17691903 0.027406842 -0.04426101
-0.069602735 -0.08047747 -0.046964064 -0.01897762 0.05332004 -0.08416507 -0.011037649 -0.0019495657
-0.063816905 -0.03706338 -0.0467535 -0.007012403 0.079499334 0.6492153 0.26952362 -0.19159025
0.28876582 0.10676013 -0.42077568 0.15607339 -0.20129812 -0.3969678 -0.5892826 -0.71473134
-0.06319719 0.70095795 -0.7681567 -0.5598673 0.678771 -0.013661722 -0.01322439 0.28916174
0.80649906 0.02035148 0.17416957 -0.23972741 -0.05453639 -0.09832777 0.034611944 0.0021956505
0.030614153 0.03423011 0.0527684 -0.0984191 0.036552664 0.0805584 0.06342357 -0.0193699
-0.06164613 0.027517002 -0.07883864 0.05721615 0.008994116 0.046330564 -0.063354194 0.03902854
-0.085994996 0.05707521 -0.07304955 0.009198529 0.07977534 0.004121414 0.0029449584 0.08820557
-0.02643326 0.059607442 0.06822739 -0.04307274 0.042566884 0.03725658 0.07513172 -0.07905574
00000000: 620d 803d 2779 71bd 497d a8bd 2726 a6bb
00000010: 813b 443d 6e31 adbd 5a4b 813d d010 29bd
00000020: 5007 48bd 8de4 81bd c7ef 003d c56a 923d
00000030: ef7b 7c3d a626 39bc b547 703f f78f 05be
00000040: 293e de3e aa1b 183e f58f 6f3e 05b5 943e
00000050: 1d30 89bd d3a6 0fbf c81e 4dbe 617e cabe
00000060: 1900 6f3d c1c2 d73e d043 1fbf ccb2 e93d
00000070: d0fb 263e 2995 bdbb 6803 28bd a6b7 d3be
00000080: 4345 a5be ff0d 2abe 2d22 393e df6e 483e
00000090: a265 053d 7701 2ebe b822 b4bc a3db 923d
000000a0: 1a8b 263d fd16 62bb 3751 31bd 4c8b ba3c
000000b0: 1f61 d9bc 820e e53c 5bb9 86bd 8c08 cb3c
000000c0: 9b14 e539 b3ba c13c 4c1b 933d 68e4 9d3d
000000d0: 6d5e b03c 7a79 35bd 1c9b d5bc 716f c9bb
000000e0: 30a6 f5ba 9a73 3f3d 08fd d339 e52f 01bc
000000f0: 8b3e 53bd ab43 8f3d a2fc 683b 0db2 47bb
00000100: 4708 04bc 4d0b 593d da21 ecbb ec7a 9abd
00000110: b817 31bd ca16 813c 2b20 253c 3b93 723d
00000120: ad52 a13d 27d7 19bd 97ae 17bb b223 703f
00000130: bfce a4be b9b2 febe a0de 293d 6990 983f
00000140: 9d17 aabe d22d a3bd 1eee 403d 885f 0bbf
00000150: 1ba8 11be 54c4 dabe c64e 0ebf 7367 f4be
00000160: 1b57 20be c2a5 553e ebb2 c0be 6860 c63b
00000170: 28ed 8a3e bb86 993e 595a e3bd 1738 803e
00000180: 187f 123d 58b1 9a3e 8594 233e 183c dfbc
00000190: afaa 403e a669 1bbd 0fe9 cebc 327c 7d3d
000001a0: 0eb7 9b3c 3660 1fbe 25be 5f3d 80a2 b4bd
000001b0: b16b ac3d 1ccf 433d 527b f5bb 714f 9a3d
000001c0: 0a6a 80bd 503d a4bd 82f8 ab3d 0560 4fbd
000001d0: 421b 833d 53c4 26bc 156d b33c 1220 6a3d
000001e0: 1be8 353d f94e a03d d4ce 723d 2750 bc3b
000001f0: 9587 a0bd bb46 333d d217 87bd 7c57 bdbc
00000200: 84ca 14bd 6017 83bd 0d07 903d b762 053c
00000210: 6408 25bb 3226 bfbc ba14 093d f8ee b23d
00000220: 3abf 00bf b8cb aa3d a5c5 67bd 9959 94bc
00000230: f006 393f 8fc4 1fbf 9f11 cd3e 0968 653e
00000240: 4e71 ec3d 07c8 d9be d829 103f c0cf 8ebe
00000250: 718c 863e cf05 40be f4fe 4abf bd52 843e
00000260: 378a 313d aeb0 b3be 227d 043e b017 be3e
00000270: 7996 053e 8ae4 013e 7ed2 453e fee2 4dbd
00000280: 8909 2ebe c6b7 b9bb 9589 4b3d 2086 4fbc
00000290: 981a 0d3c 6009 fbbc ea2a 2a3d f32a e93c
000002a0: 0137 853d b9d6 12bd 7d35 283d 4952 4fbd
000002b0: 91cb b3bc 2239 743d 0c04 a8bc eb4a bc3c
000002c0: fc22 debc ec6e a9bd 8f2e 9d3d b893 5d3d
000002d0: a25f 42bc 432a 35be 5084 e03c 084b 35bd
000002e0: e18b 8ebd 5fd1 a4bd 645d 40bd f476 9bbc
000002f0: 1d66 5a3d bc5e acbd 41d7 34bc 9288 ffba
00000300: 70b2 82bd c5cf 17bd 9980 3fbd 4dc8 e5bb
00000310: 8cd0 a23d f932 263f 00ff 893e 3c30 44be
00000320: 1dd9 933e 0ea5 da3d e96f d7be b4d1 1f3e
00000330: 1821 4ebe 5d3f cbbe 39db 16bf a2f8 36bf
00000340: 876d 81bd fb71 333f eba5 44bf 7753 0fbf
00000350: f0c3 2d3f 6ad5 5fbc 1dab 58bc 020d 943e
00000360: b976 4e3f 26b8 a63c 8259 323e 1a7b 75be
00000370: 8d61 5fbd 1260 c9bd 41c5 0d3d e7e4 0f3b
00000380: 88ca fa3c df34 0c3d ae23 583d f48f c9bd
00000390: 3fb8 153d cdfb a43d 37e4 813d a0ad 9ebc
000003a0: a780 7cbd 566b e13c 2776 a1bd 7b5b 6a3d
000003b0: 0f5c 133c 1ec5 3d3d d8bf 81bd 64dc 1f3d
000003c0: 251e b0bd b2c7 693d 019b 95bd 6db5 163c
000003d0: 4161 a33d ed0c 873b 3400 413b 1fa5 b43d
000003e0: 908a d8bc ef26 743d cdba 8b3d 0b6d 30bd
000003f0: 9d5a 2e3d 5b9a 183d a9de 993d fae7 a1bd

lstm.weight_hh_l0 f4 [128, 128]
0.025083778 0.08697923 0.074200936 0.22940363 -0.22289918 0.04357282 -0.090788566 -0.13408096
0.223661 -0.055098236 0.08253871 0.042459387 -0.067593664 -0.021666644 0.1762729 0.09461289
0.08944249 -0.2763997 0.09297557 -0.16612995 0.082112394 0.11749948 -0.06502907 -0.11105169
-0.20010051 0.011356493 0.09143716 -0.02317644 -0.022476297 -0.055199243 0.22220977 -0.045284577
0.15787198 -0.0011845047 0.07821474 -0.015685512 -0.0039806794 0.03273048 0.15905544 0.14239547
0.06597604 -0.18436582 -0.083376445 -0.06288033 0.06453851 -0.20439206 0.09685128 -0.06337041
0.22296098 -0.14349212 0.12852581 0.12145007 0.008230825 -0.08931255 -0.10343308 0.018604508
0.15749513 -0.092551015 0.0475829 -0.09235949 0.18786263 -0.11806277 -0.11535557 -0.001798187
0.132637 -0.054024752 -0.06437894 -0.045365438 -0.08417731 0.12051394 -0.0669822 0.16165972
0.03990609 0.08410591 0.04150758 0.2973727 -0.22992738 0.08466 0.070512526 0.39654946
0.009074581 -0.10188684 -0.063247934 -0.16696504 0.05979499 -0.14453277 -0.058022764 0.028860262
0.0011953829 0.012582926 -0.050869115 -0.12794667 0.21611148 0.029627066 0.1660789 -0.1964695
-0.24157074 0.02880069 -0.20425141 -0.21869543 -0.13601606 -0.08701635 -0.34476075 0.08338894
0.13711016 -0.069016464 -0.1826251 -0.115560845 0.17550832 -0.08261222 0.06950127 -0.16481498
-0.2655617 0.16862698 -0.16732135 -0.008404444 0.020669114 0.09393513 0.15724212 0.022340927
-0.21005073 0.0416442 0.029497204 0.010758268 -0.019813718 0.100252315 -0.10124807 0.056580726
0.04770628 -0.17535622 -0.07598229 0.10010521 0.15997243 0.13363941 -0.20410791 0.08117731
0.12833048 0.08395844 -0.21001019 -0.060612652 -0.26172373 -0.19696017 0.0834677 -0.37745938
0.0028499463 -0.17702888 0.16459757 -0.10485048 0.003548229 0.0034112951 -0.135818 -0.26126254
-0.14439574 -0.10060385 -0.002334898 0.06066379 -0.08113867 -0.033126153 0.0034713605 0.16554752
0.05787732 0.10277937 0.062272426 -0.21562669 -0.1818618 0.20473616 -0.20383514 -0.07319436
0.114748396 -0.12230524 -0.121174596 0.045676246 -0.0576782 0.15663104 0.056197718 0.31726056
0.16538885 0.06966034 0.35703617 0.122844085 0.08721559 0.0016532162 0.000278362 0.04832306
0.028937673 -0.008071399 -0.03358165 -0.118613146 -0.09561047 -0.1561915 0.03998714 0.16151035
0.110674724 0.029481951 0.20819479 -0.232644 -0.21503125 0.16140741 -0.18524209 0.19303018
0.032917112 -0.0042237667 -0.098728806 -0.15386584 -0.14541571 0.09105265 0.10939589 0.24181071
0.05004656 -0.13479263 -0.08731658 0.15841454 0.007444351 0.023506278 0.17516853 -0.041166794
0.21091245 0.13195814 0.051711146 0.09152109 0.16576399 -0.05362928 -0.110798195 0.12964474
0.105900295 0.009637474 -0.120578736 -0.09238297 0.28284165 0.03586487 0.10242881 0.13678135
-0.22207893 0.14574286 -0.07133831 0.050744243 -0.013915662 -0.13184853 0.09311079 0.07732245
-0.040741254 -0.12271228 0.026672965 -0.11187012 -0.044136554 0.093499705 -0.14016278 -0.04309602
-0.040851977 0.08080652 0.0067939856 0.09673085 -0.37558496 -0.17295183 0.11498539 0.073138304
00000000: 7f7c cd3c 2b22 b23d a9f6 973d c9e8 6a3e
00000010: af3f 64be 6a79 323d 5bef b9bd 854c 09be
00000020: 6407 653e b0ae 61bd 0e0a a93d e5e9 2d3d
00000030: 8c6e 8abd 3f7e b1bc e280 343e 67c4 c13d
00000040: a02d b73d 4384 8dbe fa69 be3d f81d 2abe
00000050: 8b2a a83d 91a3 f03d f62d 85bd 126f e3bd
00000060: 26e7 4cbe 9610 3a3c 6843 bb3d 84dc bdbc
00000070: 3620 b8bc 9a18 62bd f58a 633e 527c 39bd
00000080: 31a9 213e 6241 9bba 0d2f a03d e77e 80bc
00000090: 5c70 82bb 6510 063d 6edf 223e 1ed0 113e
000000a0: 721e 873d 65ca 3cbe 45c1 aabd 67c7 80bd
000000b0: c42c 843d 274c 51be f759 c63d 58c8 81bd
000000c0: e24f 643e 99ef 12be 459c 033e d0ba f83d
000000d0: 95da 063c 80e9 b6bd b9d4 d3bd 7b68 983c
000000e0: 6746 213e 638b bdbd 49e6 423d f926 bdbd
000000f0: 105f 403e e5ca f1bd 8b3f ecbd 25b1 ebba
00000100: fed1 073e 0f49 5dbd 1bd9 83bd 1cd1 39bd
00000110: 2765 acbd 03d0 f63d f72d 89bd 208a 253e
00000120: 9174 233d b83f ac3d da03 2a3d 3c41 983e
00000130: 1572 6bbe 3962 ad3d df68 903d 8808 cb3e
00000140: 8dad 143c 0caa d0bd 2288 81bd e2f8 2abe
00000150: 97eb 743d 6600 14be 47a9 6dbd 5b6c ec3c
00000160: 65ae 9c3a 9e28 4e3c 225c 50bd 7404 03be
00000170: 544c 5d3e 76b4 f23c 9610 2a3e 4d2f 49be
00000180: 525e 77be 6def eb3c 4827 51be b2f1 5fbe
00000190: cb47 0bbe a135 b2bd 7b84 b0be d2c7 aa3d
000001a0: 9b66 0c3e 8158 8dbd 1302 3bbe 2aab ecbd
000001b0: 74b8 333e 9830 a9bd af56 8e3d 42c5 28be
000001c0: b4f7 87be 8dac 2c3e 4a56 2bbe cbb2 09bc
000001d0: 4652 a93c 1061 c03d 1404 213e 5204 b73c
000001e0: 8a17 57be 1c93 2a3d 1fa4 f13c 7243 303c
000001f0: 6150 a2bc 1651 cd3d 265b cfbd 31c1 673d
00000200: a967 433d 9590 33be 9a9c 9bbd f603 cd3d
00000210: d0cf 233e c5d8 083e aa01 51be 4a40 a63d
00000220: 1169 033e 67f2 ab3d e90c 57be f944 78bd
00000230: a700 86be edaf 49be 1df1 aa3d 5b42 c1be
00000240: 2ac6 3a3b 0f47 35be 448c 283e d9bb d6bd
00000250: 6889 683b 0990 5f3b e013 0bbe 34c4 85be
00000260: 7adc 13be 6409 cebd 1705 19bb 987a 783d
00000270: 082c a6bd 4aaf 07bd c47f 633b 4a85 293e
00000280: c510 6d3d fe7d d23d 5f11 7f3d 3ecd 5cbe
00000290: fb39 3abe 5ba6 513e 29ba 50be ede6 95bd
000002a0: 3501 eb3d 2b7b fabd 632a f8bd 0417 3b3d
000002b0: fa3f 6cbd e363 203e 942f 663d fa6f a23e
000002c0: b25b 293e 15aa 8e3d 72cd b63e ae95 fb3d
000002d0: 169e b23d bbb0 d83a 1df1 9139 67ee 453d
000002e0: b30e ed3c e73d 04bc ea8c 09bd 73eb f2bd
000002f0: 6ccf c3bd aaf0 1fbe 8ec9 233d f862 253e
00000300: 6ea9 e23d 2284 f13c 0431 553e 3b3a 6ebe
00000310: 2731 5cbe fc47 253e 1ab0 3dbe b4a9 453e
00000320: 18d4 063d 8667 8abb 5432 cabd 028f 1dbe
00000330: dbe7 14be d079 ba3d f40a e03d 3a9d 773e
00000340: 9ffd 4c3d 1407 0abe 09d3 b2bd 6c37 223e
00000350: beef f33b 3d90 c03c 615f 333e 839e 28bd
00000360: 6ff9 573e 0920 073e 11cf 533d 696f bb3d
00000370: 09be 293e 60aa 5bbd 2aea e2bd 97c1 043e
00000380: 41e2 d83d 7fe6 1d3c fcf1 f6bd 4833 bdbd
00000390: 9fd0 903e 0be7 123d 32c6 d13d 6910 0c3e
000003a0: a968 63be 9e3d 153e d219 92bd 32d9 4f3d
000003b0: 84fe 63bc 4d03 07be dfb0 be3d 3c5b 9e3d
000003c0: 4de0 26bd 9350 fbbd 4381 da3c 291c e5bd
000003d0: 88c8 34bd c67c bf3d d586 0fbe 7485 30bd
000003e0: 6754 27bd e47d a53d 15a0 de3b d31a c63d
000003f0: ac4c c0be 491a 31be 767d eb3d 89c9 953d

lstm.bias_ih_l0 f4 [128]
-0.014724432 -0.042968053 0.09882082 0.029737564 -0.1303902 0.06798766 0.14608844 -0.055903587
0.017264208 0.13916808 0.039440814 0.011115681 -0.13745785 -0.015896462 0.040619534 -0.059480354
0.004152042 0.0012564025 0.020681148 0.1564857 -0.084225684 0.05647367 -0.0797779 0.073348835
-0.044593245 -0.043138053 0.14699523 -0.040764954 -0.07883983 -0.16855362 -0.06783004 0.21349299
-0.1380808 -0.14189763 -0.0014242444 0.11940707 0.19654192 -0.026063558 0.025169961 0.13042481
-0.12245422 -0.022610942 -0.0824663 0.137747 0.04175899 -0.023850122 -0.06682604 0.10504335
-0.091123275 0.2098896 0.092658766 -0.047224108 0.013480954 -0.09397972 0.019432243 -0.21781103
-0.07944421 -0.0019594934 0.12906873 -0.21164091 -0.04322455 -0.13575855 -0.15263294 -0.18647273
-0.17438222 0.019971577 -0.09122691 -0.102935724 0.090403676 0.16603246 -0.018525764 -0.2177922
-0.037365526 -0.040908344 -0.0034818407 -0.008354764 0.049108084 -0.017504789 -0.057436123 0.02115374
-0.054135084 -0.12166465 -0.020872861 0.0079603465 0.059726086 0.25604594 0.15455046 0.073894575
0.21914195 0.091726996 -0.21203874 -0.023901485 -3.9345385e-05 0.079257585 0.043522093 -0.082939126
0.12826766 -0.17897083 -0.118080206 0.14509669 -0.069641344 -0.0718301 -0.04053266 -0.09941614
0.03181995 -0.035328113 -0.05351794 -0.02532354 0.06317702 0.12114968 0.09600267 -0.019453932
0.20966396 0.04416441 -0.01570428 -0.060021896 0.13157551 -0.045601394 -0.11694333 0.13785966
-0.05181559 0.07376544 0.042080075 0.15910071 0.09508704 0.04415987 -0.1370489 -0.02122064
00000000: be3e 71bc 45ff 2fbd 9262 ca3d 319c f33c
00000010: 0285 05be 1d3d 8b3d 3598 153e 29fb 64bd
00000020: ab6d 8d3c 1482 0e3e b18c 213d 8c1e 363c
00000030: c0c1 0cbe 4c39 82bc ab60 263d aca1 73bd
00000040: da0d 883b dfad a43a 836b a93c ca3d 203e
00000050: 847e acbd ef50 673d 9862 a3bd ea37 963d
00000060: 68a7 36bd 87b1 30bd eb85 163e 27f9 26bd
00000070: c776 a1bd 5299 2cbe 7aea 8abd e89d 5a3e
00000080: 0e65 0dbe 9d4d 11be b6ad baba b28b f43d
00000090: 4942 493e 3e83 d5bc 3c31 ce3c 158e 053e
000000a0: 47c9 fabd 953a b9bc 17e4 a8bd 8d0d 0d3e
000000b0: 7a0b 2b3d 5561 c3bc 17dc 88bd f820 d73d
000000c0: d79e babd 4ded 563e e1c3 bd3d 116e 41bd
000000d0: 38df 5c3c 7078 c0bd 5e30 9f3c db09 5fbe
000000e0: a5b3 a2bd d86a 00bb 982a 043e 65b8 58be
000000f0: 3a0c 31bd 4a04 0bbe cf4b 1cbe b5f2 3ebe
00000100: 4191 32be 6f9b a33c 2dd5 babd f7cf d2bd
00000110: 9025 b93d 6a04 2a3e 58c3 97bc eb04 5fbe
00000120: 980c 19bd 828f 27bd 982f 64bb 6ce2 08bc
00000130: 8f25 493d 3466 8fbc 2442 6bbd 9c4a ad3c
00000140: c0bc 5dbd 512b f9bd 90fd aabc 1d6c 023c
00000150: 57a3 743d 7418 833e 7a42 1e3e 0a56 973d
00000160: bf66 603e 5ddb bb3d af20 59be 0ccd c3bc
00000170: c906 25b8 cd51 a23d 3944 323d fddb a9bd
00000180: 9958 033e 2144 37be 09d4 f1bd 3a94 143e
00000190: 1fa0 8ebd a91b 93bd 9305 26bd b09a cbbd
000001a0: a355 023d 36b4 10bd a135 5bbd 5073 cfbc
000001b0: f462 813d 531d f83d 0c9d c43d da5d 9fbc
000001c0: 26b2 563e bee5 343d 43a6 80bc 85d9 75bd
000001d0: bbbb 063e 87c8 3abd fc7f efbd 152b 0d3e
000001e0: 963c 54bd 5612 973d 285c 2c3d 4ceb 223e
000001f0: febc c23d fbe0 343d 8c56 0cbe e8d6 adbc

lstm.bias_hh_l0 f4 [128]
0.01340925 -0.043258682 0.03587566 0.17001636 -0.11438254 0.15019535 0.23932141 0.06253561
-0.043387122 0.05304192 -0.090556145 0.042765446 -0.090252034 -0.033667978 0.12664409 -0.042973533
0.02308458 0.0021179384 -0.10471259 0.068907015 -0.09227217 0.00512896 -0.005691647 0.13633016
-0.0385179 0.042953424 0.10537603 -0.0048729917 -0.054780506 -0.086088374 -0.052457698 0.0777945
-0.116510354 -0.010763674 -0.06198664 0.068959914 0.08826447 -0.12073243 -0.056126684 0.0033304384
-0.105909854 0.09333531 0.033915494 0.13893647 0.02594094 0.027017094 -0.02580884 0.018638913
-0.14251798 0.07394673 0.1242983 0.10629607 0.0003017239 -0.05646049 0.009833249 -0.08235202
-0.039621945 0.020506166 -0.0023293272 -0.20032664 -0.07242572 -0.21020171 -0.04540845 -0.16986881
-0.110739864 0.013036045 0.013422016 0.0013256328 0.07546286 0.15757082 -0.06939343 -0.09073119
-0.123671904 -0.09006888 -0.06556028 -0.08590396 0.14222917 -0.0405732 -0.020394182 0.021175273
-0.05862948 0.011576862 -0.04535601 -0.11836916 0.060919862 0.1049104 0.097646415 0.07074883
0.27851367 0.12964584 -0.105747566 -0.16684553 -0.060411207 0.08777556 -0.003996806 0.037774727
0.05238637 -0.09860834 -0.04070139 0.10201654 -0.04187317 -0.18858552 -0.16784185 -0.17352374
-0.035636358 -0.078365915 -0.04503416 -0.11351643 -0.06410822 0.04600854 0.054226276 -0.014427446
0.18742797 -0.025597176 -0.0306385 0.0360436 0.17423536 -0.07655491 -0.053600352 0.032742422
-0.05840907 -0.01473546 -0.11476872 0.13644153 0.054197084 0.12327831 -0.09481924 -0.041400146
00000000: 79b2 5b3c 0430 31bd 5bf2 123d c518 2e3e
00000010: 6541 eabd cfcc 193e ac10 753e ab12 803d
00000020: b2b6 31bd 7c42 593d 8075 b9bd d22a 2f3d
00000030: 0fd6 b8bd 6fe7 09bd fdae 013e 0405 30bd
00000040: e01b bd3c 1ccd 0a3b 8e73 d6bd 1f1f 8d3d
00000050: 31f9 bcbd d610 a83b ff80 babb 229a 0b3e
00000060: f2c4 1dbd eeef 2f3d 63cf d73d 9ead 9fbb
00000070: 8661 60bd 1a4f b0bd e2dd 56bd b952 9f3d
00000080: fb9c eebd 1f5a 30bc b4e5 7dbd db3a 8d3d
00000090: 01c4 b43d 9042 f7bd 18e5 65bd 7c43 5a3b
000000a0: 44e7 d8bd 9526 bf3d f9ea 0a3d 5d45 0e3e
000000b0: 1882 d43c f452 dd3c 0f6d d3bc a2b0 983c
000000c0: 3cf0 11be 6271 973d 1b90 fe3d c1b1 d93d
000000d0: b230 9e39 1d43 67bd a31b 213c 2da8 a8bd
000000e0: 9f4a 22bd 8cfc a73c a0a7 18bb 6d22 4dbe
000000f0: f053 94bd 1e3f 57be 36fe 39bd 17f2 2dbe
00000100: 95cb e2bd 2395 553c 04e8 5b3c dbc0 ad3a
00000110: 468c 9a3d 3f5a 213e 251e 8ebd 46d1 b9bd
00000120: b247 fdbd 0876 b8bd 7844 86bd 6aee afbd
00000130: 86a4 113e 1530 26bd b311 a7bc c477 ad3c
00000140: 7725 70bd e1ac 3d3c 39c7 39bd 886b f2bd
00000150: 1b87 793d 44db d63d d8fa c73d c3e4 903d
00000160: 5899 8e3e e1c1 043e 2e92 d8bd 8ed9 2abe
00000170: be71 77bd acc3 b33d a4f7 82bb acb9 1a3d
00000180: 1793 563d 2bf3 c9bd 80b6 26bd 0cee d03d
00000190: 3383 2bbd 901c 41be bcde 2bbe 35b0 31be
000001a0: 6ef7 11bd 4f7e a0bd bd75 38bd 4d7b e8bd
000001b0: 2c4b 83bd 7373 3c3d 5f1c 5e3d 1861 6cbc
000001c0: 1eed 3f3e 2bb1 d1bc 97fd fabc 74a2 133d
000001d0: c16a 323e d2c8 9cbd 0b8c 5bbd eb1c 063d
000001e0: 593e 6fbd 006d 71bc dd0b ebbd 54b7 0b3e
000001f0: c3fd 5d3d 5779 fc3d 9730 c2bd 3393 29bd

final.weight f4 [61, 128]
0.06393844 0.021735217 -0.02861636 -0.11802057 0.025923386 0.051485613 -0.04377638 0.049700797
-0.0052371183 -0.12294661 0.06468642 -0.13006814 0.12346228 0.021813603 0.01108392 0.0063089626
-0.034459617 -0.027526613 -0.053476896 -0.1437845 -0.013197745 -0.08782383 -0.021060849 -0.09936181
-0.103308775 -0.050795075 -0.05467861 0.10244358 0.03548723 -0.01611709 -0.09411193 -0.16744839
0.058574185 -0.009981203 -0.063605174 -0.15889138 -0.16544712 0.10145975 -0.047161687 -0.07737289
0.18143797 0.008488234 0.04381138 -0.04858723 0.0604329 -0.103821106 0.13635015 -0.15620856
0.16603732 -0.107893005 -0.057321683 0.05584062 -0.030642522 -0.018400671 -0.045709334 0.06350166
0.17692491 0.054314256 0.015462131 0.14489786 0.12620793 0.047517143 0.10553417 0.12213521
0.107773975 0.05094933 0.09980451 -0.04366839 0.06561998 -0.03253109 -0.029923428 0.08362977
0.03597657 0.109960474 -0.041285798 -0.011511786 -0.09279161 -0.07000759 0.0068124975 0.07308097
-0.04821265 -0.09860895 -0.021989439 0.011054409 -0.11807752 -0.19846079 -0.13663934 -0.11732366
-0.17765938 -0.04779863 0.1321618 0.108924694 0.108319186 -0.062064823 -0.011950306 -0.08039825
-0.03827152 0.07943496 0.15866062 -0.08251201 0.08539132 0.1681732 0.08925474 0.07997965
-0.037434727 0.063405335 0.029262803 0.09060886 0.08457571 0.028045312 -0.1230096 0.048425753
-0.24106319 -0.07235932 0.12038985 -0.1260501 -0.110327095 -0.04693206 0.026661603 -0.15513907
0.03814807 -0.014944472 -0.0074245157 -0.04912798 -0.03701265 0.010554801 0.034988295 0.057438497
-0.034932803 0.06448965 -0.10780539 -0.045283187 0.030703662 0.038550127 -0.055149287 0.047128126
-0.023853462 -0.11434571 0.08076946 -0.019521268 0.06474452 0.062337372 -0.02962262 -0.08287281
0.003631325 -0.0604548 0.07191268 -0.22802232 0.002198412 -0.08855236 -0.07918659 0.021789666
0.052718893 -0.029045904 -0.0773915 0.050335187 0.12714824 0.101974025 0.011109521 -0.11302848
0.12839666 -0.061448105 0.013166742 -0.10781917 -0.18109883 0.14890411 -0.10668646 -0.014615291
0.0826491 -0.002791673 -0.029096516 -0.0019225705 -0.00028031008 0.019657813 0.08329819 -0.10382752
0.099741645 -0.1504551 -0.059767134 0.025236262 0.04055168 -0.04202207 -0.08909609 0.21489556
0.10819811 -0.09261199 0.0033608896 0.11795256 0.082492106 0.18312149 0.11263588 0.081495635
0.1890183 -0.038920384 0.009356131 0.007276533 -0.07931424 -0.19488358 0.11845854 0.19234419
0.08115446 0.19337335 -0.03493513 -0.03086403 -0.014631777 0.041598387 0.032150626 -0.008693696
-0.009835054 -0.06516411 -0.020086614 0.060528457 -0.058988564 -0.09584396 -0.107186146 -0.005581168
-0.17584017 -0.19558528 0.20200565 -0.028113762 0.11774416 -0.083583474 0.020136254 -0.0054708724
-0.046575382 0.05126744 0.18307741 -0.021864358 -0.014989514 0.10689602 0.04489106 0.14427735
-0.055623844 -0.018980924 -0.0257869 0.04650074 -0.015052148 0.037958145 -0.073702425 0.09728338
-0.09617914 -0.07689395 0.038366336 0.025965784 -0.15061231 0.031013073 0.13272156 -0.014396873
0.107550025 -0.09283461 -0.07123063 -0.20723034 -0.11114912 -0.01179819 0.06891064 0.10243596
00000000: 28f2 823d 0e0e b23c db6c eabc c5b4 f1bd
00000010: 485d d43c 94e2 523d dd4e 33bd 1093 4b3d
00000020: 229c abbb 6fcb fbbd 507a 843d 9530 05be
00000030: cbd9 fc3d 71b2 b23c 5499 353c 6abb ce3b
00000040: 8725 0dbd 7e7f e1bc 970a 5bbd 3e3c 13be
00000050: 5b3b 58bc fbdc b3bd cd87 acbc 347e cbbd
00000060: 8d93 d3bd 7f0e 50bd aef6 5fbd f1cd d13d
00000070: 0f5b 113d fd07 84bc c1bd c0bd 9777 2bbe
00000080: 7ceb 6f3d 3388 23bc 6e43 82bd 6cb4 22be
00000090: f86a 29be 21ca cf3d 9d2c 41bd ae75 9ebd
000000a0: e0ca 393e 3c12 0b3c 9073 333d 6703 47bd
000000b0: 7d88 773d 29a0 d4bd 609f 0b3e 23f5 1fbe
000000c0: b005 2a3e 02f7 dcbd 24ca 6abd 22b9 643d
000000d0: 0706 fbbc 01bd 96bc b639 3bbd 290d 823d
000000e0: ce2b 353e a078 5e3d e154 7d3c 1b60 143e
000000f0: a73c 013e 56a1 423d 4d22 d83d 0622 fa3d
00000100: 9ab8 dc3d 3fb0 503d 4f66 cc3d a0dd 32bd
00000110: c563 863d 523f 05bd fa21 f5bc 1646 ab3d
00000120: 2b5c 133d f532 e13d 4c1b 29bd ee9b 3cbc
00000130: 8709 bebd 2460 8fbd 5f3b df3b 7aab 953d
00000140: a17a 45bd 7df3 c9bd 3223 b4bc 8d1d 353c
00000150: a0d2 f1bd 4e39 4bbe 2feb 0bbe 6347 f0bd
00000160: 57ec 35be 7fc8 43bd 6c55 073e e913 df3d
00000170: 73d6 dd3d af37 7ebd 37cb 43bc d6a7 a4bd
00000180: 99c2 1cbd ccae a23d ee77 223e 0ffc a8bd
00000190: a5e1 ae3d 9835 2c3e 30cb b63d 5fcc a33d
000001a0: 2855 19bd a8da 813d 8cb8 ef3c 2391 b93d
000001b0: 0836 ad3d 48bf e53c 75ec fbbd 155a 463d
000001c0: 45d9 76be 2031 94bd f48e f63d 4713 01be
000001d0: 2cf3 e1bd d53b 40bd 6f69 da3c c7dc 1ebe
000001e0: 2741 1c3d a9d9 74bc 5a49 f3bb 6c3a 49bd
000001f0: 949a 17bd 0bee 2c3c e34f 0f3d a144 6b3d
00000200: b315 0fbd 2613 843d 13c9 dcbd dd7a 39bd
00000210: 3f86 fb3c bde6 1d3d 38e4 61bd 6c09 413d
00000220: 5668 c3bc 152e eabd 756a a53d 11eb 9fbc
00000230: c698 843d 7955 7f3d 23ab f2bc 38b9 a9bd
00000240: 86fb 6d3b 749f 77bd f546 933d af7e 69be
00000250: 3c13 103b f15a b5bd 942c a2bd 3e80 b23c
00000260: c4ef 573d adf1 edbc 6f7f 9ebd 452c 4e3d
00000270: 2633 023e c2d7 d03d b504 363c 7a7b e7bd
00000280: 6a7a 033e 02b1 7bbd 52b9 573c 4cd0 dcbd
00000290: f971 39be 527a 183e 6e7e dabd f974 6fbc
000002a0: ee43 a93d 80f4 36bb d15b eebc c3fe fbba
000002b0: 95f6 92b9 6c09 a13c 3e98 aa3d 86a3 d4bd
000002c0: 5945 cc3d e710 1abe 62ce 74bd 47bc ce3c
000002d0: 8519 263d 561f 2cbd 0378 b6bd 950d 5c3e
000002e0: f896 dd3d 5bab bdbd 5f42 5c3b 1d91 f13d
000002f0: 9ff1 a83d 3384 3b3e a4ad e63d 2fe7 a63d
00000300: 038e 413e fb6a 1fbd 754a 193c fc6f ee3b
00000310: 816f a2bd 908f 47be 649a f23d e0f5 443e
00000320: 4f34 a63d aa03 463e 2418 0fbd 90d6 fcbc
00000330: 1fba 6fbc 1263 2a3d 60b0 033d 0170 0ebc
00000340: 3523 21bc c374 85bd af8c a4bc b0ec 773d
00000350: fe9d 71bd d749 c4bd 6984 dbbd 3be2 b6bb
00000360: 720f 34be 8247 48be 92da 4e3e d54e e6bc
00000370: da23 f13d d02d abbd c9f4 a43c 0145 b3bb
00000380: d4c5 3ebd cffd 513d a578 3b3e e21c b3bc
00000390: 9496 75bc 4dec da3d b0df 373d 71bd 133e
000003a0: d4d5 63bd e27d 9bbc 0d3f d3bc 8f77 3e3d
000003b0: 499d 76bc 007a 1b3d 4cf1 96bd 823c c73d
000003c0: 92f9 c4bd 937a 9dbd 0526 1d3d 32b6 d43c
000003d0: 1d3a 1abe 210f fe3c 29e8 073e dde0 6bbc
000003e0: 3043 dc3d 1220 bebd 5de1 91bd 3134 54be
000003f0: 26a2 e3bd 324d 41bc 0621 8d3d f2c9 d13d

final.bias f4 [61]
-0.43567395 -0.33313334 -0.3798704 -0.37622407 -0.3707467 -0.4625069 -0.4160159 -0.35661674
-0.38841346 -0.33901003 -0.31248006 -0.34765393 -0.42112744 -0.30321816 1.4255457 0.9967217
0.55900246 0.6557997 0.6726639 0.63368255 0.18852265 0.19491711 0.8433048 0.33536974
0.87629634 0.54833406 0.5893532 0.68474245 1.170114 0.599871 -0.42171022 0.4948748
0.73119736 0.62109673 0.20826976 0.16397253 0.508214 -0.23866189 -0.36578178 -0.20221977
-0.37819126 -0.39464876 -0.3492905 -0.35250288 -0.14944316 -0.33614743 -0.3881193 -0.40109497
-0.36098036 -0.3492824 -0.42924315 -0.39684308 -0.32253474 -0.38785782 -0.4000197 -0.40657482
-0.34116003 -0.27494448 -0.46213415 -0.41413733 -0.034623858
00000000: a810 dfbe 7490 aabe 607e c2be 71a0 c0be
00000010: 83d2 bdbe b4cd ecbe 0900 d5be 7896 b6be
00000020: 21de c6be b992 adbe 63fd 9fbe b2ff b1be
00000030: 049e d7be 693f 9bbe 4878 b63f 2729 7f3f
00000040: c91a 0f3f 7de2 273f b433 2c3f 0539 223f
00000050: 150c 413e 5a98 473e d3e2 573f 95b5 ab3e
00000060: f554 603f 9f5f 0c3f dadf 163f 484b 2f3f
00000070: 4cc6 953f 2591 193f 67ea d7be 3b60 fd3e
00000080: c02f 3b3f 3200 1f3f ab44 553e 6ae8 273e
00000090: 501a 023f c863 74be c047 bbbe b312 4fbe
000000a0: 49a2 c1be 670f cabe 34d6 b2be 427b b4be
000000b0: a107 19be 841b acbe 93b7 c6be 525c cdbe
000000c0: 6bd2 b8be 25d5 b2be c2c5 dbbe 042f cbbe
000000d0: 4623 a5be 4d95 c6be 62cf ccbe 932a d0be
000000e0: 87ac aebe 86c5 8cbe d99c ecbe cf09 d4be
000000f0: bfd1 0dbd

momentum_buffer f4 [128, 61]
0.0 0.0 0.0 0.0 0.0 0.0 0.0 0.0
0.0 0.0 0.0 0.0 0.0 0.0 0.06195125 -0.51582205
-0.084986486 0.13663928 0.22016868 -0.1922231 0.0033261173 -0.00216958 0.028578222 0.016225222
-0.71391505 -0.054673165 0.16318896 0.016402379 -0.14171413 0.14032282 0.0 -0.38156804
-0.18292965 0.088477924 -8.34589e-05 0.00011236461 -0.003112531 0.1634089 6.2178638e-06 9.44863e-11
0.0 0.0 0.0 0.0 -2.7722118e-16 0.0 0.0 0.0
0.0 0.0 0.0 0.0 0.0 0.0 0.0 0.0
0.0 0.0 0.0 -3.2664723 0.0 0.0 0.0 0.0
0.0 0.0 0.0 0.0 0.0 0.0 0.0 0.0
0.0 0.0 0.0 -0.23331532 -0.016725188 -0.09951529 0.7273997 0.021960028
-0.754722 0.008979151 0.04835024 0.21582662 0.18725951 -0.03781325 0.114353105 0.24594711
-0.2618692 -0.105845295 -0.2534772 0.0 0.32668862 0.036560882 -0.13675681 -2.3565466e-05
0.0016702497 -0.00025724093 0.012430098 -2.2694742e-06 -1.9872004e-10 0.0 0.0 0.0
0.0 1.8111052e-16 0.0 0.0 0.0 0.0 0.0 0.0
0.0 0.0 0.0 0.0 0.0 0.0 0.0 0.0
1.5872166 0.0 0.0 0.0 0.0 0.0 0.0 0.0
0.0 0.0 0.0 0.0 0.0 0.0 0.0 0.0
-0.77568275 0.4797619 0.06984761 0.14185204 -0.11695825 0.06565269 0.0016742359 -0.05370698
0.06780891 -0.07477106 -0.15529083 -0.15140161 -0.28128412 0.04447597 0.025228854 0.13236599
0.0 -0.32086936 -0.5547286 0.05137317 -0.0024730957 0.00027386934 -0.004446467 0.006222319
1.6349487e-06 5.399599e-10 0.0 0.0 0.0 0.0 -1.1713105e-17 0.0
0.0 0.0 0.0 0.0 0.0 0.0 0.0 0.0
0.0 0.0 0.0 0.0 0.0 2.137914 0.0 0.0
0.0 0.0 0.0 0.0 0.0 0.0 0.0 0.0
0.0 0.0 0.0 0.0 0.0 0.5047044 0.2739912 0.16123341
0.41454712 -0.5453386 -0.71143323 0.0037455603 0.21765873 -0.06650386 -0.027898507 -0.2693943
0.18191372 -0.2932681 -0.030190576 -0.49183542 -0.022317532 0.0 0.23011717 0.017908266
0.03220301 0.00023219903 0.0004400754 0.0023452237 0.0064633987 -9.061895e-07 -3.6140976e-10 0.0
0.0 0.0 0.0 1.820794e-16 0.0 0.0 0.0 0.0
0.0 0.0 0.0 0.0 0.0 0.0 0.0 0.0
0.0 0.0 1.6625143 0.0 0.0 0.0 0.0 0.0
0.0 0.0 0.0 0.0 0.0 0.0 0.0 0.0
00000000: 0000 0000 0000 0000 0000 0000 0000 0000
00000010: 0000 0000 0000 0000 0000 0000 0000 0000
00000020: 0000 0000 0000 0000 0000 0000 0000 0000
00000030: 0000 0000 0000 0000 98c0 7d3d ea0c 04bf
00000040: 650d aebd 2beb 0b3e e673 613e 22d6 44be
00000050: fdfa 593b 832f 0ebb e01c ea3c c2ea 843c
00000060: 23c3 36bf f8f0 5fbd 021b 273e 485e 863c
00000070: 821d 11be c9b0 0f3e 0000 0000 e35c c3be
00000080: e951 3bbe ea33 b53d a806 afb8 4aa5 eb38
00000090: 9bfb 4bbb aa54 273e 0ba3 d036 0fc7 cf2e
000000a0: 0000 0000 0000 0000 0000 0000 0000 0000
000000b0: a0ce 9fa5 0000 0000 0000 0000 0000 0000
000000c0: 0000 0000 0000 0000 0000 0000 0000 0000
000000d0: 0000 0000 0000 0000 0000 0000 0000 0000
000000e0: 0000 0000 0000 0000 0000 0000 e20d 51c0
000000f0: 0000 0000 0000 0000 0000 0000 0000 0000
00000100: 0000 0000 0000 0000 0000 0000 0000 0000
00000110: 0000 0000 0000 0000 0000 0000 0000 0000
00000120: 0000 0000 0000 0000 0000 0000 36ea 6ebe
00000130: 4303 89bc acce cbbd de36 3a3f 84e5 b33c
00000140: 7635 41bf 4a1d 133c e70a 463d a701 5d3e
00000150: f5c0 3f3e 11e2 1abd f631 ea3d 8fd9 7b3e
00000160: b813 86be 6bc5 d8bd c3c7 81be 0000 0000
00000170: bb43 a73e ddc0 153d fa09 0cbe 74ae c5b7
00000180: 48ec da3a 4bde 86b9 9ca7 4b3c 454d 18b6
00000190: b87e 5aaf 0000 0000 0000 0000 0000 0000
000001a0: 0000 0000 64ce 5025 0000 0000 0000 0000
000001b0: 0000 0000 0000 0000 0000 0000 0000 0000
000001c0: 0000 0000 0000 0000 0000 0000 0000 0000
000001d0: 0000 0000 0000 0000 0000 0000 0000 0000
000001e0: ea29 cb3f 0000 0000 0000 0000 0000 0000
000001f0: 0000 0000 0000 0000 0000 0000 0000 0000
00000200: 0000 0000 0000 0000 0000 0000 0000 0000
00000210: 0000 0000 0000 0000 0000 0000 0000 0000
00000220: 2593 46bf 5aa3 f53e 440c 8f3d a941 113e
00000230: cf87 efbd eb74 863d 0972 db3a dafb 5bbd
00000240: 66df 8a3d 9221 99bd 8f04 1fbe 0609 1bbe
00000250: 7904 90be 6f2c 363d beac ce3c f38a 073e
00000260: 0000 0000 fd48 a4be b202 0ebf ac6c 523d
00000270: a913 22bb 1f96 8f39 abb3 91bb 98e4 cb3b
00000280: 6970 db35 4d6c 1430 0000 0000 0000 0000
00000290: 0000 0000 0000 0000 9311 58a3 0000 0000
000002a0: 0000 0000 0000 0000 0000 0000 0000 0000
000002b0: 0000 0000 0000 0000 0000 0000 0000 0000
000002c0: 0000 0000 0000 0000 0000 0000 0000 0000
000002d0: 0000 0000 95d3 0840 0000 0000 0000 0000
000002e0: 0000 0000 0000 0000 0000 0000 0000 0000
000002f0: 0000 0000 0000 0000 0000 0000 0000 0000
00000300: 0000 0000 0000 0000 0000 0000 0000 0000
00000310: 0000 0000 4f34 013f 9348 8c3e 5f1a 253e
00000320: 853f d43e 4f9b 0bbf 7d20 36bf 1378 753b
00000330: eee1 5e3e 2d33 88bd 698b e4bc 0dee 89be
00000340: 9747 3a3e 3d27 96be 3a52 f7bc dad1 fbbe
00000350: 42d3 b6bc 0000 0000 d6a3 6b3e 5bb4 923c
00000360: 4ee7 033d 747a 7339 ecb9 e639 53b2 193b
00000370: ebca d33b de40 73b5 e7af c6af 0000 0000
00000380: 0000 0000 0000 0000 0000 0000 5aec 5125
00000390: 0000 0000 0000 0000 0000 0000 0000 0000
000003a0: 0000 0000 0000 0000 0000 0000 0000 0000
000003b0: 0000 0000 0000 0000 0000 0000 0000 0000
000003c0: 0000 0000 0000 0000 45cd d43f 0000 0000
000003d0: 0000 0000 0000 0000 0000 0000 0000 0000
000003e0: 0000 0000 0000 0000 0000 0000 0000 0000
000003f0: 0000 0000 0000 0000 0000 0000 0000 0000

momentum_buffer f4 [128, 128]
0.02382223 -0.4895267 0.19687468 0.21528834 -0.28105202 -0.10010022 -1.1588362 -0.1697993
-0.22215559 -1.0665039 -0.35362503 0.06757814 -0.15234803 0.21865872 -0.95891887 0.14560731
0.121046916 -0.14894554 -1.1097381 -1.4038585 0.33682665 -0.99545676 -1.0348091 0.34368694
0.11295228 -1.0619389 -0.40729046 0.44262242 0.32535997 -0.721451 -0.9538866 0.41405445
0.39550415 -0.65206546 -0.4882007 -0.78490865 0.85922974 1.0255761 -0.7252313 -0.60582227
0.0702059 -0.2161996 -0.11719313 0.2039628 -0.53657734 0.0223796 -0.17499346 -1.2804941
0.40344194 -0.051146965 -0.27436534 0.7075336 -2.3946166e-05 -0.56005824 0.09809082 0.6801228
0.76369375 -0.5680785 0.08363132 -0.32092136 -0.26355693 -0.67617184 0.2648678 -0.038511883
1.3225043 0.14421102 -0.2355437 0.28713062 -0.07183571 -1.0513961 0.4767054 0.9058806
0.16685945 -0.4453719 0.54835975 -0.24204268 -0.63313836 -0.23501657 0.47092348 -0.46886057
-0.5814149 0.11227947 0.6554594 -0.28456706 0.3738046 -0.40783173 -0.99911463 -0.1935457
-0.16087642 -0.7424343 0.52158725 0.17474404 0.4320124 0.62335724 0.37379965 -0.22658986
0.29836476 0.2647332 -1.0064546 -0.0921242 -1.3303078 -0.37356156 0.8588759 -0.4489097
-0.6090885 1.1210492 0.6533415 -0.5301395 -0.28962576 -0.3291722 -1.0320814 0.8914798
-0.7970386 -0.32941937 1.1280886 -0.93709135 0.19109882 0.6738813 -0.1793455 0.8040097
0.8077885 -0.040160194 0.36400855 0.5706703 -0.6608546 -0.31597245 0.5539373 -0.13107337
-0.028225519 -0.12758335 -0.24552158 -0.642726 -0.26837415 0.23461968 0.7220584 -0.67164576
-0.9278853 0.11926941 0.017352745 0.9293045 -0.27461135 -0.635482 0.32910258 0.23571166
-0.15552512 0.20974617 0.2258994 0.74066013 0.20472986 -0.12114765 0.26909253 0.1680524
0.6454537 0.4986985 0.10440767 0.10756683 -0.09335936 0.29655457 -0.29569674 0.07260522
-0.5689051 0.31176716 0.63002527 0.23134851 -0.23435143 0.1645371 -0.25262442 -0.64634854
-0.19321957 -0.028217137 0.27247226 0.0538904 0.21922295 -0.033661902 0.24325013 -0.31659374
0.3972793 -0.12140614 -0.64952296 -0.4295273 0.23055598 0.5534816 -0.40479898 0.16976215
-0.14105152 0.33701992 0.3552159 0.22644272 -0.5253595 0.1389024 -0.8945324 -0.26022646
-0.21299642 -0.5957684 0.34244835 0.45458725 -0.36018807 0.016263776 -1.0478077 -0.3078781
-0.49113017 -0.40441734 -0.019793391 -0.79424614 1.0300719 -0.29048216 -0.12339966 -0.45519212
0.32653224 0.84500223 0.40987024 0.41803193 -0.6671657 0.7056771 -0.4304887 -0.68045056
-0.0941914 -0.2976773 0.1833926 0.66043514 -0.63205624 -0.98289305 -1.2398889 0.3291042
-0.087617405 -0.36629704 0.7892965 0.36078992 -0.060078435 0.29950798 -0.018828511 0.047920495
-0.30984354 0.27173132 -0.3748151 0.017941117 -0.17971727 -0.3032116 -0.7631321 -0.47948828
-0.120758265 0.08747213 -0.2533347 -0.088048376 -0.53991026 0.368563 -0.3950278 -0.09265204
0.6114158 -0.060094655 0.27578136 0.51889217 0.121710874 -0.629424 -0.23623256 -0.074077025
00000000: d626 c33c 3ea3 fabe 8499 493e 8c74 5c3e
00000010: 0de6 8fbe 5801 cdbd bf54 94bf dedf 2dbe
00000020: c17c 63be 3383 88bf 570e b5be 6866 8a3d
00000030: 1f01 1cbe 12e8 5f3e b57b 75bf 151a 153e
00000040: 72e7 f73d 2e85 18be e60b 8ebf a3b1 b3bf
00000050: 8b74 ac3e 41d6 7ebf a074 84bf bcf7 af3e
00000060: 8653 e73d 9ded 87bf 6088 d0be 689f e23e
00000070: 9595 a63e 03b1 38bf ea31 74bf f2fe d33e
00000080: 857f ca3e c3ed 26bf 71f5 f9be c6ef 48bf
00000090: 7bf6 5b3f 1446 833f c2a8 39bf 2b17 1bbf
000000a0: 1cc8 8f3d 6e63 5dbe f402 f0bd a0db 503e
000000b0: 225d 09bf 6c55 b73c 7c31 33be 3be7 a3bf
000000c0: f18f ce3e 7b7f 51bd 9d79 8cbe ec20 353f
000000d0: 00e0 c8b7 fa5f 0fbf d7e3 c83d 871c 2e3f
000000e0: 6f81 433f 986d 11bf e646 ab3d ce4f a4be
000000f0: eff0 86be 9919 2dbf c19c 873e a3be 1dbd
00000100: d247 a93f 0eac 133e 5e32 71be c902 933e
00000110: 9a1e 93bd 2694 86bf bb12 f43e cae7 673f
00000120: 34dd 2a3e c907 e4be 4e61 0c3f 09da 77be
00000130: 5b15 22bf 2fa8 70be e21c f13e 7e0e f0be
00000140: 9bd7 14bf c7f2 e53d 30cc 273f c6b2 91be
00000150: 5163 bf3e 52cf d0be fac5 7fbf d830 46be
00000160: cabc 24be 2d10 3ebf be86 053f 1af0 323e
00000170: bb30 dd3e 5794 1f3f ab62 bf3e 2c07 68be
00000180: 44c3 983e 1c8b 873e 81d3 80bf 9dab bcbd
00000190: 8747 aabf 7643 bfbe 4adf 5b3f 7ed7 e5be
000001a0: 39ed 1bbf 8a7e 8f3f 6341 273f 39b7 07bf
000001b0: d449 94be 4289 a8be 3e1b 84bf 0538 643f
000001c0: b90a 4cbf a8a9 a8be 3565 903f 38e5 6fbf
000001d0: 69af 433e 7c83 2c3f 59a6 37be 94d3 4d3f
000001e0: 3acb 4e3f 047f 24bd 545f ba3e 7317 123f
000001f0: c42d 29bf 24c7 a1be d6ce 0d3f 1938 06be
00000200: 3439 e7bc 36a5 02be 026a 7bbe b189 24bf
00000210: 5668 89be 2440 703e d2d8 383f faf0 2bbf
00000220: e489 6dbf 8543 f43d 5827 8e3c e6e6 6d3f
00000230: dc99 8cbe f3ae 22bf 2280 a83e 665e 713e
00000240: fa41 1fbe b3c7 563e 2c52 673e e79b 3d3f
00000250: b4a4 513e 421c f8bd 7fc6 893e ee15 2c3e
00000260: 743c 253f 6955 ff3e b0d3 d53d 004c dc3d
00000270: 3133 bfbd 00d6 973e 9065 97be 0cb2 943d
00000280: c4a3 11bf f29f 9f3e 5649 213f a0e6 6c3e
00000290: d2f9 6fbe 6a7c 283e fd57 81be 1977 25bf
000002a0: 5adb 45be a027 e7bc 7c81 8b3e 2ebc 5c3d
000002b0: fb7b 603e 10e1 09bd 9016 793e 9318 a2be
000002c0: 3168 cb3e c8a3 f8bd 2347 26bf 01eb dbbe
000002d0: de16 6c3e f8b0 0d3f d041 cfbe 21d6 2d3e
000002e0: cf6f 10be e08d ac3e dcde b53e 9ae0 673e
000002f0: f67d 06bf 6e3c 0e3e 1300 65bf 673c 85be
00000300: bc1b 5abe 4784 18bf 6455 af3e a9bf e83e
00000310: 926a b8be 9c3b 853c 901e 86bf 33a2 9dbe
00000320: 6a75 fbbe ca0f cfbe c025 a2bc b753 4bbf
00000330: 65d9 833f 14ba 94be f6b8 fcbd f10e e9be
00000340: 3c2f a73e 1152 583f 83da d13e 4808 d63e
00000350: 5fcb 2abf 41a7 343f 0469 dcbe 0232 2ebf
00000360: 6ce7 c0bd 2969 98be 45cb 3b3e 4712 293f
00000370: 70ce 21bf e19e 7bbf aeb4 9ebf 5880 a83e
00000380: c170 b3bd 498b bbbe 560f 4a3f 75b9 b83e
00000390: ce14 76bd 1c59 993e 403e 9abc 4848 443d
000003a0: d0a3 9ebe 5e20 8b3e c4e7 bfbe 40f9 923c
000003b0: ce07 38be 8d3e 9bbe a05c 43bf 7d7f f5be
000003c0: 1c50 f7bd 9724 b33d 16b5 81be b552 b4bd
000003d0: 8f37 0abf 4ab4 bc3e 1541 cabe 5ac0 bdbd
000003e0: bf85 1c3f d025 76bd 3733 8d3e 1ed6 043f
000003f0: 8d43 f93d ee21 21bf f3e6 71be b2b5 97bd

momentum_buffer f4 [128]
-4.5008616 1.6343195 0.73284006 1.2518365 3.2749276 -2.1118772 -2.5973883 1.2862463
-0.34312153 1.2273233 0.95488715 1.6735318 -1.7912655 -2.6585178 0.77208936 1.6040573
0.002188325 1.1691242 0.5718728 -0.016999364 0.0030555725 2.323975 -0.4595709 4.0516467
-1.3651073 -0.041686535 -0.3741452 -1.5240268 -1.7174554 -1.3040205 -2.141617 -5.0649443
-0.32711133 1.9317524 -4.475607 1.3703535 0.5870107 0.49292207 2.9573288 -0.9540934
1.9148306 -0.21168777 -2.512319 1.1046321 -2.2225819 -3.782508 0.48301017 -5.595565
0.6258221 1.3336663 -3.5421524 0.48517883 0.41469988 -2.0131254 2.0209017 -0.10470915
0.49747878 0.7475698 0.44512266 1.666133 -1.0038512 1.6467543 -0.7094834 1.6142
-2.188024 -0.58776087 -1.9580607 2.0006258 3.0790591 -1.3808279 2.8733912 1.9889146
2.3187263 -1.7621627 -0.037598222 -1.5337666 1.1831886 0.06806296 2.9085987 0.30051053
-3.3085968 4.9136133 0.5742328 -0.7095874 2.544479 -2.9606316 -1.2106566 1.4436733
-0.16159725 1.7868117 0.4979592 -0.015429616 3.4810462 -4.3442993 -3.7718432 2.444209
-3.5331817 0.23298284 -1.8496014 -0.3411335 3.4946055 -0.07180911 1.3046186 0.4605854
0.43986946 2.8079123 0.40948907 0.89680207 0.397591 1.3502102 -3.1822848 -3.3021014
-2.7499454 1.436563 -3.9334476 1.0652004 1.1629314 -3.4287817 -0.11766207 -2.6146157
-3.9987392 -2.0726132 -1.4681752 0.39419866 1.8983315 -0.9140163 -0.4150721 1.2389607
00000000: 0f07 90c0 6231 d13f 689b 3b3f 2e3c a03f
00000010: 6a98 5140 ff28 07c0 9c3b 26c0 b8a3 a43f
00000020: a0ad afbe ee18 9d3f 7c73 743f 4a36 d63f
00000030: 3048 e5bf 2825 2ac0 a6a7 453f c051 cd3f
00000040: 006a 0f3b dda5 953f 4166 123f 4042 8bbc
00000050: 0040 483b 02bc 1440 e14c ebbe 17a7 8140
00000060: d6bb aebf 80bf 2abd f68f bfbe 4f13 c3bf
00000070: 94d5 dbbf 25ea a6bf 4110 09c0 0614 a2c0
00000080: 237b a7be aa43 f73f 2c38 8fc0 be67 af3f
00000090: 5546 163f 4860 fc3e e044 3d40 773f 74bf
000000a0: 2b19 f53f aec4 58be d6c9 20c0 9664 8d3f
000000b0: c83e 0ec0 9c14 72c0 1c4d f73e de0e b3c0
000000c0: e135 203f 94b5 aa3f a0b2 62c0 5c69 f83e
000000d0: 8b53 d43e 0cd7 00c0 7456 0140 c071 d6bd
000000e0: 8ab5 fe3e bc60 3f3f 1ee7 e33e d943 d53f
000000f0: 327e 80bf d8c8 d23f b4a0 35bf 1b9e ce3f
00000100: 9608 0cc0 7f77 16bf bca1 fabf 410a 0040
00000110: 4e0f 4540 f8be b0bf a4e5 3740 c194 fe3f
00000120: 0366 1440 8c8e e1bf 9800 1abd 7752 c4bf
00000130: b972 973f 9864 8b3d 7b26 3a40 84dc 993e
00000140: 0dc0 53c0 523c 9d40 ec00 133f 85a7 35bf
00000150: bed8 2240 fd7a 3dc0 ccf6 9abf 49ca b83f
00000160: c079 25be 3fb6 e43f 82f4 fe3e 80cc 7cbc
00000170: 76c9 5e40 8004 8bc0 e165 71c0 ec6d 1c40
00000180: a61f 62c0 0e93 6e3e bdbf ecbf 0da9 aebe
00000190: 9ea7 5f40 a810 93bd befd a63f d9d1 eb3e
000001a0: 9236 e13e d6b4 3340 8da8 d13e d294 653f
000001b0: 0c91 cb3e b0d3 ac3f 8eaa 4bc0 a155 53c0
000001c0: 1bff 2fc0 4ce1 b73f 9bbd 7bc0 7d58 883f
000001d0: f0da 943f 2971 5bc0 d0f8 f0bd dd55 27c0
000001e0: 58eb 7fc0 b2a5 04c0 2aed bbbf 68d4 c93e
000001f0: 87fc f23f f9fc 69bf 5584 d4be 4496 9e3f

momentum_buffer f4 [128]
-4.5008616 1.6343195 0.73284006 1.2518365 3.2749276 -2.1118772 -2.5973883 1.2862463
-0.34312153 1.2273233 0.95488715 1.6735318 -1.7912655 -2.6585178 0.77208936 1.6040573
0.002188325 1.1691242 0.5718728 -0.016999364 0.0030555725 2.323975 -0.4595709 4.0516467
-1.3651073 -0.041686535 -0.3741452 -1.5240268 -1.7174554 -1.3040205 -2.141617 -5.0649443
-0.32711133 1.9317524 -4.475607 1.3703535 0.5870107 0.49292207 2.9573288 -0.9540934
1.9148306 -0.21168777 -2.512319 1.1046321 -2.2225819 -3.782508 0.48301017 -5.595565
0.6258221 1.3336663 -3.5421524 0.48517883 0.41469988 -2.0131254 2.0209017 -0.10470915
0.49747878 0.7475698 0.44512266 1.666133 -1.0038512 1.6467543 -0.7094834 1.6142
-2.188024 -0.58776087 -1.9580607 2.0006258 3.0790591 -1.3808279 2.8733912 1.9889146
2.3187263 -1.7621627 -0.037598222 -1.5337666 1.1831886 0.06806296 2.9085987 0.30051053
-3.3085968 4.9136133 0.5742328 -0.7095874 2.544479 -2.9606316 -1.2106566 1.4436733
-0.16159725 1.7868117 0.4979592 -0.015429616 3.4810462 -4.3442993 -3.7718432 2.444209
-3.5331817 0.23298284 -1.8496014 -0.3411335 3.4946055 -0.07180911 1.3046186 0.4605854
0.43986946 2.8079123 0.40948907 0.89680207 0.397591 1.3502102 -3.1822848 -3.3021014
-2.7499454 1.436563 -3.9334476 1.0652004 1.1629314 -3.4287817 -0.11766207 -2.6146157
-3.9987392 -2.0726132 -1.4681752 0.39419866 1.8983315 -0.9140163 -0.4150721 1.2389607
00000000: 0f07 90c0 6231 d13f 689b 3b3f 2e3c a03f
00000010: 6a98 5140 ff28 07c0 9c3b 26c0 b8a3 a43f
00000020: a0ad afbe ee18 9d3f 7c73 743f 4a36 d63f
00000030: 3048 e5bf 2825 2ac0 a6a7 453f c051 cd3f
00000040: 006a 0f3b dda5 953f 4166 123f 4042 8bbc
00000050: 0040 483b 02bc 1440 e14c ebbe 17a7 8140
00000060: d6bb aebf 80bf 2abd f68f bfbe 4f13 c3bf
00000070: 94d5 dbbf 25ea a6bf 4110 09c0 0614 a2c0
00000080: 237b a7be aa43 f73f 2c38 8fc0 be67 af3f
00000090: 5546 163f 4860 fc3e e044 3d40 773f 74bf
000000a0: 2b19 f53f aec4 58be d6c9 20c0 9664 8d3f
000000b0: c83e 0ec0 9c14 72c0 1c4d f73e de0e b3c0
000000c0: e135 203f 94b5 aa3f a0b2 62c0 5c69 f83e
000000d0: 8b53 d43e 0cd7 00c0 7456 0140 c071 d6bd
000000e0: 8ab5 fe3e bc60 3f3f 1ee7 e33e d943 d53f
000000f0: 327e 80bf d8c8 d23f b4a0 35bf 1b9e ce3f
00000100: 9608 0cc0 7f77 16bf bca1 fabf 410a 0040
00000110: 4e0f 4540 f8be b0bf a4e5 3740 c194 fe3f
00000120: 0366 1440 8c8e e1bf 9800 1abd 7752 c4bf
00000130: b972 973f 9864 8b3d 7b26 3a40 84dc 993e
00000140: 0dc0 53c0 523c 9d40 ec00 133f 85a7 35bf
00000150: bed8 2240 fd7a 3dc0 ccf6 9abf 49ca b83f
00000160: c079 25be 3fb6 e43f 82f4 fe3e 80cc 7cbc
00000170: 76c9 5e40 8004 8bc0 e165 71c0 ec6d 1c40
00000180: a61f 62c0 0e93 6e3e bdbf ecbf 0da9 aebe
00000190: 9ea7 5f40 a810 93bd befd a63f d9d1 eb3e
000001a0: 9236 e13e d6b4 3340 8da8 d13e d294 653f
000001b0: 0c91 cb3e b0d3 ac3f 8eaa 4bc0 a155 53c0
000001c0: 1bff 2fc0 4ce1 b73f 9bbd 7bc0 7d58 883f
000001d0: f0da 943f 2971 5bc0 d0f8 f0bd dd55 27c0
000001e0: 58eb 7fc0 b2a5 04c0 2aed bbbf 68d4 c93e
000001f0: 87fc f23f f9fc 69bf 5584 d4be 4496 9e3f
