app/ml_models/rnn/pretrained/familienamen_epoch4.pt (torch, 262345 bytes, 13 tensors)

_embedding.weight f4 [55, 55]
1.0 0.0 0.0 0.0 0.0 0.0 0.0 0.0
0.0 0.0 0.0 0.0 0.0 0.0 0.0 0.0
0.0 0.0 0.0 0.0 0.0 0.0 0.0 0.0
0.0 0.0 0.0 0.0 0.0 0.0 0.0 0.0
0.0 0.0 0.0 0.0 0.0 0.0 0.0 0.0
0.0 0.0 0.0 0.0 0.0 0.0 0.0 0.0
0.0 0.0 0.0 0.0 0.0 0.0 0.0 0.0
1.0 0.0 0.0 0.0 0.0 0.0 0.0 0.0
0.0 0.0 0.0 0.0 0.0 0.0 0.0 0.0
0.0 0.0 0.0 0.0 0.0 0.0 0.0 0.0
0.0 0.0 0.0 0.0 0.0 0.0 0.0 0.0
0.0 0.0 0.0 0.0 0.0 0.0 0.0 0.0
0.0 0.0 0.0 0.0 0.0 0.0 0.0 0.0
0.0 0.0 0.0 0.0 0.0 0.0 0.0 0.0
1.0 0.0 0.0 0.0 0.0 0.0 0.0 0.0
0.0 0.0 0.0 0.0 0.0 0.0 0.0 0.0
0.0 0.0 0.0 0.0 0.0 0.0 0.0 0.0
0.0 0.0 0.0 0.0 0.0 0.0 0.0 0.0
0.0 0.0 0.0 0.0 0.0 0.0 0.0 0.0
0.0 0.0 0.0 0.0 0.0 0.0 0.0 0.0
0.0 0.0 0.0 0.0 0.0 0.0 0.0 0.0
1.0 0.0 0.0 0.0 0.0 0.0 0.0 0.0
0.0 0.0 0.0 0.0 0.0 0.0 0.0 0.0
0.0 0.0 0.0 0.0 0.0 0.0 0.0 0.0
0.0 0.0 0.0 0.0 0.0 0.0 0.0 0.0
0.0 0.0 0.0 0.0 0.0 0.0 0.0 0.0
0.0 0.0 0.0 0.0 0.0 0.0 0.0 0.0
0.0 0.0 0.0 0.0 0.0 0.0 0.0 0.0
1.0 0.0 0.0 0.0 0.0 0.0 0.0 0.0
0.0 0.0 0.0 0.0 0.0 0.0 0.0 0.0
0.0 0.0 0.0 0.0 0.0 0.0 0.0 0.0
0.0 0.0 0.0 0.0 0.0 0.0 0.0 0.0
00000000: 0000 803f 0000 0000 0000 0000 0000 0000
00000010: 0000 0000 0000 0000 0000 0000 0000 0000
00000020: 0000 0000 0000 0000 0000 0000 0000 0000
00000030: 0000 0000 0000 0000 0000 0000 0000 0000
00000040: 0000 0000 0000 0000 0000 0000 0000 0000
00000050: 0000 0000 0000 0000 0000 0000 0000 0000
00000060: 0000 0000 0000 0000 0000 0000 0000 0000
00000070: 0000 0000 0000 0000 0000 0000 0000 0000
00000080: 0000 0000 0000 0000 0000 0000 0000 0000
00000090: 0000 0000 0000 0000 0000 0000 0000 0000
000000a0: 0000 0000 0000 0000 0000 0000 0000 0000
000000b0: 0000 0000 0000 0000 0000 0000 0000 0000
000000c0: 0000 0000 0000 0000 0000 0000 0000 0000
000000d0: 0000 0000 0000 0000 0000 0000 0000 0000
000000e0: 0000 803f 0000 0000 0000 0000 0000 0000
000000f0: 0000 0000 0000 0000 0000 0000 0000 0000
00000100: 0000 0000 0000 0000 0000 0000 0000 0000
00000110: 0000 0000 0000 0000 0000 0000 0000 0000
00000120: 0000 0000 0000 0000 0000 0000 0000 0000
00000130: 0000 0000 0000 0000 0000 0000 0000 0000
00000140: 0000 0000 0000 0000 0000 0000 0000 0000
00000150: 0000 0000 0000 0000 0000 0000 0000 0000
00000160: 0000 0000 0000 0000 0000 0000 0000 0000
00000170: 0000 0000 0000 0000 0000 0000 0000 0000
00000180: 0000 0000 0000 0000 0000 0000 0000 0000
00000190: 0000 0000 0000 0000 0000 0000 0000 0000
000001a0: 0000 0000 0000 0000 0000 0000 0000 0000
000001b0: 0000 0000 0000 0000 0000 0000 0000 0000
000001c0: 0000 803f 0000 0000 0000 0000 0000 0000
000001d0: 0000 0000 0000 0000 0000 0000 0000 0000
000001e0: 0000 0000 0000 0000 0000 0000 0000 0000
000001f0: 0000 0000 0000 0000 0000 0000 0000 0000
00000200: 0000 0000 0000 0000 0000 0000 0000 0000
00000210: 0000 0000 0000 0000 0000 0000 0000 0000
00000220: 0000 0000 0000 0000 0000 0000 0000 0000
00000230: 0000 0000 0000 0000 0000 0000 0000 0000
00000240: 0000 0000 0000 0000 0000 0000 0000 0000
00000250: 0000 0000 0000 0000 0000 0000 0000 0000
00000260: 0000 0000 0000 0000 0000 0000 0000 0000
00000270: 0000 0000 0000 0000 0000 0000 0000 0000
00000280: 0000 0000 0000 0000 0000 0000 0000 0000
00000290: 0000 0000 0000 0000 0000 0000 0000 0000
000002a0: 0000 803f 0000 0000 0000 0000 0000 0000
000002b0: 0000 0000 0000 0000 0000 0000 0000 0000
000002c0: 0000 0000 0000 0000 0000 0000 0000 0000
000002d0: 0000 0000 0000 0000 0000 0000 0000 0000
000002e0: 0000 0000 0000 0000 0000 0000 0000 0000
000002f0: 0000 0000 0000 0000 0000 0000 0000 0000
00000300: 0000 0000 0000 0000 0000 0000 0000 0000
00000310: 0000 0000 0000 0000 0000 0000 0000 0000
00000320: 0000 0000 0000 0000 0000 0000 0000 0000
00000330: 0000 0000 0000 0000 0000 0000 0000 0000
00000340: 0000 0000 0000 0000 0000 0000 0000 0000
00000350: 0000 0000 0000 0000 0000 0000 0000 0000
00000360: 0000 0000 0000 0000 0000 0000 0000 0000
00000370: 0000 0000 0000 0000 0000 0000 0000 0000
00000380: 0000 803f 0000 0000 0000 0000 0000 0000
00000390: 0000 0000 0000 0000 0000 0000 0000 0000
000003a0: 0000 0000 0000 0000 0000 0000 0000 0000
000003b0: 0000 0000 0000 0000 0000 0000 0000 0000
000003c0: 0000 0000 0000 0000 0000 0000 0000 0000
000003d0: 0000 0000 0000 0000 0000 0000 0000 0000
000003e0: 0000 0000 0000 0000 0000 0000 0000 0000
000003f0: 0000 0000 0000 0000 0000 0000 0000 0000

lstm.weight_ih_l0 f4 [128, 55]
0.13678095 -0.44806167 0.019733977 -0.15403047 -0.038056478 -0.2590437 0.026879836 -1.2313017
0.06485765 -0.40092373 0.7505548 0.07867676 0.3794465 0.2841651 -0.37910008 0.9018719
-0.061992086 -0.9829227 0.23430496 0.21002086 0.015220672 1.5114131 -0.08258291 0.13587824
-0.480377 0.55954176 0.30708805 -0.033548478 0.18337207 -0.035067502 -0.008085787 0.07418358
-0.063510574 0.08290039 -0.025551826 0.078619406 -0.058348656 0.036947243 0.036208637 -0.0026713747
-0.07512971 0.0865677 -0.33408496 -0.038093574 -0.25601035 0.119474314 0.08379532 -0.07620153
-0.09889034 -0.08148807 -0.010094438 0.0030429673 0.06898809 -0.46651492 -0.021496452 0.2764904
-0.13399991 0.03072941 -0.29870927 -0.04969786 -0.7247636 0.32285762 0.4695437 -0.69363815
-0.4029554 0.84881526 0.42964122 -0.3444042 -1.1737274 0.5061705 0.76028264 0.5398243
1.2664227 -0.32470098 -0.4032159 1.0862213 -0.74520725 0.5830714 0.35392717 -1.0712768
0.7104564 -0.08583698 -0.33058122 -0.8914172 0.05450432 0.076983355 0.077402174 -0.035108082
-0.1588966 -0.09577109 -0.25674862 0.030185087 -0.08901973 -0.04542162 -0.029190985 0.035597973
-0.028694624 -0.13806595 -0.021309854 -0.17852078 -0.05116335 0.06096078 0.03225723 0.07091233
-0.093628295 -0.03853351 0.064139366 0.040194694 0.22856283 0.0696303 -0.15088546 -0.16886698
-0.08540238 -1.8584963 -0.32035193 0.5793818 0.5516334 -0.48929286 -0.06507529 -0.021316588
-0.4981797 -0.016021753 -0.16176067 0.2474383 -0.82166594 0.39994887 1.1970402 -0.6829515
0.8014728 -0.34459308 -1.0093786 0.6805041 0.9754224 -0.2255484 0.3165147 1.2899642
0.061980262 -0.1763011 0.7657538 -0.083973765 -0.039543483 -0.002826763 0.04415693 -0.05699885
-0.02045555 -0.03466451 -0.08794355 -0.30424607 0.08183835 0.03936708 0.078650415 0.0021737358
-0.037789423 0.061143823 -0.3781944 -0.08170268 0.01776345 -0.008708838 -0.08615545 -0.11021937
0.075662956 0.042421542 -0.026418304 0.06466441 0.05226854 -1.1728362 0.005849743 -0.04836907
-0.09964952 -0.091732755 -0.936368 1.6167566 -0.26112798 0.17575026 0.8685896 0.43277344
-0.75759 -0.055562235 0.114900835 -0.20634024 0.34089538 -0.14522967 0.2829424 0.08109948
0.23579729 0.41501132 0.0852785 0.94239664 -1.3371893 0.64895576 -0.07918742 0.2391588
0.15144694 0.13737571 -0.008920177 0.047654495 0.08051139 -0.058024067 0.15505622 -0.05079142
0.11681732 -0.061665747 -0.02708241 -0.023984103 -0.070547834 -0.076650105 0.045499135 -0.600585
0.05761622 -0.4579274 0.22536017 -0.024534922 -0.0014184152 -0.11590212 -0.018036215 0.13507034
0.076458916 0.014673732 -0.7767167 0.014658747 0.3878259 0.09225352 -0.0016727772 0.86969244
-0.2907577 1.6598921 0.4854715 -0.27675888 -0.21702124 -0.12831238 -0.1858058 -0.54077476
0.32930803 -0.025527915 -0.15707462 -0.5541388 -1.8291171 -0.01863047 -0.14536421 -0.1149009
-0.2704668 1.3076501 0.13607 -0.2015533 0.52430683 0.12651964 -0.26072416 -0.3301917
-0.515431 0.0069835754 0.017932858 -0.03176207 0.03674919 -0.016048761 -0.05633217 -0.33937472
00000000: 4e10 0c3e 5768 e5be 26a9 a13c 2aba 1dbe
00000010: 1ce1 1bbd 60a1 84be 1a33 dc3c 4b9b 9dbf
00000020: 16d4 843d e045 cdbe 5c24 403f 4821 a13d
00000030: d046 c23e 177e 913e 6819 c2be 14e1 663f
00000040: 6aeb 7dbd d2a0 7bbf a4ed 6f3e b50f 573e
00000050: 2060 793c fc75 c13f 3b21 a9bd aa23 0b3e
00000060: f9f3 f5be 213e 0f3f a53a 9d3e 216a 09bd
00000070: e3c5 3b3e f1a2 0fbd 407a 04bc 90ed 973d
00000080: d511 82bd aec7 a93d 1052 d1bc 3603 a13d
00000090: 00ff 6ebd fe55 173d 824f 143d 3b12 2fbb
000000a0: 9bdd 99bd 684a b13d 2f0d abbe 0208 1cbd
000000b0: ca13 83be f3ae f43d e19c ab3d 8c0f 9cbd
000000c0: 0587 cabd 38e3 a6bd 2463 25bc 856c 473b
000000d0: a149 8d3d 0bdb eebe 5419 b0bc 2690 8d3e
000000e0: 4637 09be 3ebc fb3c 6cf0 98be fc8f 4bbd
000000f0: 1b8a 39bf 984d a53e 0868 f03e 4592 31bf
00000100: 2c50 cebe f54b 593f eff9 db3e bf55 b0be
00000110: b33c 96bf 6494 013f e2a1 423f ed31 0a3f
00000120: 241a a23f 353f a6be 5072 cebe 4d09 8b3f
00000130: e7c5 3ebf 2b44 153f f135 b53e 991f 89bf
00000140: 78e0 353f 4ccb afbd f141 a9be eb33 64bf
00000150: ec3f 5f3d 73a9 9d3d 0885 9e3d 7ecd 0fbd
00000160: cab5 22be a223 c4bd 8e74 83be b746 f73c
00000170: fa4f b6bd 050c 3abd ef21 efbc 2ecf 113d
00000180: fd10 ebbc 2961 0dbe 0192 aebc 27ce 36be
00000190: a990 51bd 03b2 793d 2820 043d 7c3a 913d
000001a0: 31c0 bfbd 50d5 1dbd 805b 833d 31a3 243d
000001b0: 600c 6a3e 559a 8e3d b881 1abe 77eb 2cbe
000001c0: 71e7 aebd 35e3 edbf 2b05 a4be 5e52 143f
000001d0: d937 0d3f 9884 fabe 3246 85bd 20a0 aebc
000001e0: 6911 ffbe 0d40 83bc 97a4 25be 7760 7d3e
000001f0: b358 52bf 19c6 cc3e 9d38 993f e9d5 2ebf
00000200: 522d 4d3f 816e b0be 5133 81bf 8435 2e3f
00000210: 48b5 793f 29f6 66be 370e a23e 8c1d a53f
00000220: 04df 7d3d 4788 34be 7108 443f 70fa abbd
00000230: 59f8 21bd 3741 39bb e6dd 343d a077 69bd
00000240: 6692 a7bc 60fc 0dbd bf1b b4bd 24c6 9bbe
00000250: dd9a a73d 603f 213d 7813 a13d 3c75 0e3b
00000260: 15c9 1abd f271 7a3d b2a2 c1be bc53 a7bd
00000270: a884 913c 84af 0ebc 4572 b0bd b1ba e1bd
00000280: 2ef5 9a3d 36c2 2d3d 336b d8bc c66e 843d
00000290: 8917 563d 7f1f 96bf 33af bf3b a51e 46bd
000002a0: 0c15 ccbd 62de bbbd d0b5 6fbf e1f1 ce3f
000002b0: 91b2 85be e0f7 333e e35b 5e3f 7b94 dd3e
000002c0: 6bf1 41bf 3a95 63bd 2151 eb3d db4a 53be
000002d0: d789 ae3e 16b7 14be d4dd 903e 7c17 a63d
000002e0: d874 713e 5d7c d43e 7fa6 ae3d e840 713f
000002f0: 0529 abbf f721 263f 042d a2bd 0be6 743e
00000300: e814 1b3e 38ac 0c3e ef25 12bc 5c31 433d
00000310: 28e3 a43d a5aa 6dbd 0fc7 1e3e aa0a 50bd
00000320: eb3d ef3d 3995 7cbd eedb ddbc 4f7a c4bc
00000330: 627b 90bd bbfa 9cbd 4d5d 3a3d f0bf 19bf
00000340: fcfe 6b3d 7675 eabe d1c4 663e 76fd c8bc
00000350: 1eea b9ba 175e edbd afc0 93bc e14f 0a3e
00000360: 7e96 9c3d 186a 703c e8d6 46bf 3e2b 703c
00000370: 1e91 c63e 6aef bc3d 1741 dbba 2aa4 5e3f
00000380: 31de 94be 5877 d43f b88f f83e 57b3 8dbe
00000390: d13a 5ebe 5264 03be e043 3ebe 3770 0abf
000003a0: 109b a83e eb1f d1bc 2bd8 20be 0adc 0dbf
000003b0: 8220 eabf ed9e 98bc 5bda 14be 2a51 ebbd
000003c0: a07a 8abe 1461 a73f ef55 0b3e fd63 4ebe
000003d0: f938 063f 5d8e 013e a37d 85be e30e a9be
000003e0: 49f3 03bf 7ad6 e43b eee7 923c f218 02bd
000003f0: 5286 163d b178 83bc 90bc 66bd 86c2 adbe

lstm.weight_hh_l0 f4 [128, 128]
0.06696089 -0.33733243 -0.10693778 0.058078762 0.15546368 0.017567772 0.011027212 0.038707558
-0.2989627 -0.057236135 0.092315555 0.09267405 0.21241735 0.53846097 0.07277763 0.1816015
0.02018404 0.059819452 0.18822907 -0.0053707785 0.028382646 -0.043732278 0.00629415 -0.2837238
0.20821199 -0.1687774 0.09523359 -0.10348894 0.15101899 -0.12447723 -0.0048659085 -0.19892289
-0.11276235 -0.08500055 0.10478793 -0.039173845 -0.030273482 -0.14958122 -0.10820647 -0.08806008
0.024931265 0.032797217 -0.04595039 0.121427365 -0.12119235 -0.006375218 -0.04845775 0.08520189
-0.13030839 -0.14021009 0.0297115 0.11990014 0.1243291 0.022270741 -0.24735253 0.037811182
0.15948567 -0.123162135 0.01974211 0.07839218 0.059830405 -0.14946038 0.054166973 -0.22212927
0.033207275 -0.033541985 0.08409014 -0.25342566 -0.13735175 -0.11020632 0.13536721 0.21824418
-0.007185552 -0.1574582 0.22899924 -0.020964956 0.10358066 -0.10055757 -0.34590083 -0.1259639
0.08290276 -0.22349805 -0.20858254 -0.06501711 -0.22609061 -0.027415192 -0.0932302 -0.025279857
-0.031201651 0.3054525 0.010249341 -0.038498163 -0.116016686 0.15327345 0.18576294 -0.13616659
-0.08010561 -0.07656302 -0.058483567 -0.049337376 0.039424933 -0.4553952 -0.0950329 0.13695455
-0.23733635 -0.03943286 -0.037116505 -0.07066274 -0.062071383 0.058827832 -0.03252313 0.015702384
0.08343238 -0.09570239 0.002448824 -0.10446462 0.2572689 0.048201703 0.10189456 -0.040312286
0.7863173 0.17346115 -0.015249174 -0.10785521 -0.06344785 0.016443197 -0.015687367 -0.07906961
0.01889379 0.03893454 0.014244129 -0.15102367 0.11170635 -0.01854512 0.04530955 0.50948673
0.04502989 -0.24397354 0.023002204 -0.026766881 -0.09845206 0.06870156 0.232215 0.45158446
-0.060156967 0.30168736 0.27286562 0.09580389 -0.22921331 -0.14380641 0.2036321 -0.003941422
-0.24080439 -0.18050039 0.13676521 0.11080413 0.008442699 0.032359634 -0.035294462 -0.07430046
-0.095489964 0.04928165 0.11412807 -0.42141327 0.05393826 -0.18723981 0.038056627 0.035980605
-0.03394342 0.7568586 0.14747089 -0.07304244 -0.103943616 0.04362949 0.07874688 0.071353786
-0.114549264 0.5526477 -0.08197383 -0.046876412 0.085444644 -0.2762439 0.19514453 0.4484992
-0.21625525 -0.10836031 -0.017152341 -0.020399017 -0.02511715 0.31656876 0.22778453 -0.007272053
-0.189294 -0.009291361 -0.16379745 0.04089237 -0.09483521 0.12566453 0.08592533 -0.037974775
-0.08473281 -0.047225736 -0.22977494 -0.024704374 -0.14565633 0.050655052 0.08993122 0.10774603
0.060425274 0.20858881 -0.04245583 0.057756603 0.07444743 -0.22838618 -0.03553398 0.1597087
-0.17315322 -0.2427692 -0.018885 -0.13962106 0.086076096 -0.38731757 0.13621563 -0.14148968
-0.06704984 0.059256203 0.2201206 0.17189007 0.049374487 0.023963407 0.28093356 0.17817867
-0.04759421 0.020654777 0.04024287 -0.1064538 -0.16686405 0.06350826 -0.2594572 0.13449828
0.21566845 -0.1928796 0.013311062 -0.16009778 0.031250168 0.03151091 -0.30139747 0.16113676
-0.51274365 -0.05522234 0.08137248 0.24973182 0.04883142 -0.3621206 -0.085394084 -0.035965472
00000000: cb22 893d d6b6 acbe 3202 dbbd ffe3 6d3d
00000010: df31 1f3e 4aea 8f3c 7bab 343c d18b 1e3d
00000020: a411 99be 7070 6abd f00f bd3d e4cb bd3d
00000030: ef83 593e 94d8 093f 700c 953d bef5 393e
00000040: 0059 a53c 3e05 753d 1fbf 403e 5bfd afbb
00000050: b982 e83c 9e20 33bd 283f ce3b 3f44 91be
00000060: 8635 553e fcd3 2cbe d409 c33d 02f2 d3bd
00000070: b9a4 1a3e ebed febd 3372 9fbb 71b2 4bbe
00000080: f2ef e6bd c514 aebd 0e9b d63d c174 20bd
00000090: 1800 f8bc d22b 19be 5b9b ddbd d858 b4bd
000000a0: a73c cc3c 6056 063d 7a36 3cbd e9ae f83d
000000b0: b233 f8bd 34e7 d0bb a27b 46bd 547e ae3d
000000c0: 906f 05be 3c93 0fbe 8865 f33c 348e f53d
000000d0: 41a0 fe3d 2171 b63c fb49 7dbe e6df 1a3d
000000e0: 3650 233e 6e3c fcbd 35ba a13c 148c a03d
000000f0: ba10 753d 240c 19be 30de 5d3d db75 63be
00000100: 5a04 083d 5263 09bd 7437 ac3d 02c1 81be
00000110: f0a5 0cbe dab3 e1bd b49d 0a3e 677b 5f3e
00000120: c774 ebbb b93c 21be c77e 6a3e b3be abbc
00000130: 1922 d43d 21f1 cdbd ea19 b1be aefc 00be
00000140: ecc8 a93d acdc 64be a996 55be b127 85bd
00000150: 4c84 67be d395 e0bc 7aef bebd b417 cfbc
00000160: 9b9a ffbc 4564 9c3e daec 273c 40b0 1dbd
00000170: 289a edbd b7f3 1c3e a438 3e3e 416f 0bbe
00000180: 690e a4bd 13cd 9cbd 778c 6fbd fd15 4abd
00000190: 0a7c 213d 8f29 e9be 9ca0 c2bd d03d 0c3e
000001a0: 4d08 73be 5a84 21bd 7a07 18bd a0b7 90bd
000001b0: 903e 7ebd 74f5 703d f936 05bd 49a2 803c
000001c0: 98de aa3d 9dff c3bd 737c 203b 8cf1 d5bd
000001d0: c0b8 833e 266f 453d 18ae d03d 7f1e 25bd
000001e0: 174c 493f cd9f 313e acd7 79bc 31e3 dcbd
000001f0: f2f0 81bd e2b3 863c cb82 80bc 3fef a1bd
00000200: 26c7 9a3c d379 1f3d 3560 693c f3a5 1abe
00000210: 4dc6 e43d efeb 97bc 8296 393d b96d 023f
00000220: 4371 383d 33d4 79be 1e6f bc3c 3846 dbbc
00000230: 3ca1 c9bd 67b3 8c3d c5c9 6d3e 1436 e73e
00000240: 2767 76bd c476 9a3e 0bb5 8b3e d434 c43d
00000250: e5b6 6abe fd41 13be ef84 503e 0b27 81bb
00000260: 6d95 76be 18d5 38be 2e0c 0c3e 47ed e23d
00000270: 3f53 0a3c 898b 043d ed90 10bd d72a 98bd
00000280: 3e90 c3bd 8edb 493d fabb e93d 7bc3 d7be
00000290: 5dee 5c3d cbbb 3fbe 44e1 1b3d 6660 133d
000002a0: 4108 0bbd 7cc1 413f 9c02 173e 4697 95bd
000002b0: 64e0 d4bd d6b4 323d 0b46 a13d ef21 923d
000002c0: ce98 eabd 527a 0d3f e5e1 a7bd 7b01 40bd
000002d0: 9afd ae3d d76f 8dbe f8d3 473e b0a1 e53e
000002e0: 0472 5dbe 03ec ddbd 1183 8cbc d71b a7bc
000002f0: 7bc2 cdbc 4d15 a23e 5940 693e 674a eebb
00000300: 49d6 41be cb3a 18bc 85ba 27be c27e 273d
00000310: f638 c2bd 34ae 003e 9ff9 af3d 708b 1bbd
00000320: 6588 adbd c66f 41bd 1f4a 6bbe d460 cabc
00000330: ef26 15be ac7b 4f3d dc2d b83d f3a9 dc3d
00000340: 7e80 773d 4e98 553e 2ae6 2dbd 3092 6c3d
00000350: e577 983d 11de 69be 148c 11bd ad8a 233e
00000360: 144f 31be 7d98 78be b7b4 9abc d3f8 0ebe
00000370: aa48 b03d 7d4e c6be 1c7c 0b3e ace2 10be
00000380: 6d51 89bd a2b6 723d 4b67 613e f303 303e
00000390: e73c 4a3d e84e c43c 86d6 8f3e 7874 363e
000003a0: 25f2 42bd 3534 a93c b5d5 243d 7304 dabd
000003b0: 69de 2abe 9e10 823d 93d7 84be ebb9 093e
000003c0: 31d8 5c3e 3b82 45be a416 5a3c acf0 23be
000003d0: 2d00 003d 9511 013d c550 9abe 0901 253e
000003e0: 2b43 03bf d230 62bd 9da6 a63d b3b9 7f3e
000003f0: 7403 483d df67 b9be 18e3 aebd 8850 13bd

lstm.bias_ih_l0 f4 [128]
0.25292978 -0.22991978 0.035922613 0.22673982 -0.060453117 -0.06387498 0.18281472 -0.16369241
-0.4781354 0.14631777 -0.124351464 0.066985935 -0.112636074 0.16215484 -0.07184841 0.026580501
0.11971675 -0.13758038 0.07273564 -0.01792621 0.22976737 0.4554467 -0.021225158 0.26991743
0.097015254 0.085085444 -0.18862088 -0.13766904 0.00917702 -0.07889439 0.08307842 -0.1709274
-0.02145321 -0.14693144 0.13031155 -0.08902601 -0.22728285 -0.011935632 -0.11257035 0.02413893
0.20146105 -0.22600512 -0.009436161 -0.032996524 0.04982195 0.056081053 -0.07582447 0.105284855
0.18558572 -0.1674529 -0.17455399 -0.09770108 0.15105055 -0.38063455 -0.18927173 0.08188277
0.12213234 0.059885874 0.15174656 -0.008132048 -0.03444736 0.08745194 0.12357442 0.06348206
0.31542102 -0.16157712 0.018916968 -0.19533356 -0.09758527 -0.18918107 -0.07252315 0.14927849
-0.10913087 0.03767008 0.0119801015 0.11859675 0.015855508 0.05847587 -0.11874999 -0.06473907
-0.08046363 -0.2678309 -0.3048021 0.4068169 0.18098782 0.09493299 -0.078696474 -0.14172219
0.0592741 0.23006327 0.18127693 0.16967224 0.0672165 0.34408486 0.14369094 -0.19428813
-0.023633163 0.21079996 -0.26781112 -0.0027964495 0.11652155 0.2130993 0.008435127 -0.12556975
-0.18072243 -0.042373016 -0.016684158 -0.0257859 -0.1738673 -0.09434679 -0.152904 -0.10250663
0.047506217 -0.0007473801 -0.08553419 -0.039840072 0.16231228 0.11482598 -0.23418064 -0.18388887
0.20699522 0.23173891 0.009879227 -0.019191207 -0.15085839 -0.12984253 0.19437124 -0.022971889
00000000: 0380 813e 1770 6bbe 9723 133d 7c2e 683e
00000010: b09d 77bd e3d0 82bd c833 3b3e fc9e 27be
00000020: 2ace f4be 53d4 153e fbab febd ec2f 893d
00000030: bead e6bd eb0b 263e 4225 93bd 5abf d93c
00000040: 0e2e f53d dfe1 0cbe 6cf6 943d fdd9 92bc
00000050: 2348 6b3e 4f30 e93e 62e0 adbc 9e32 8a3e
00000060: efaf c63d 4741 ae3d d525 41be 1df9 0cbe
00000070: 365b 163c 6293 a1bd 0525 aa3d 9807 2fbe
00000080: a4be afbc 3275 16be 6470 053e 4553 b6bd
00000090: d6bc 68be ab8d 43bc 498b e6bd 01bf c53c
000000a0: ce4b 4e3e e36d 67be 219a 1abc 5d27 07bd
000000b0: 1a12 4c3d 3fb5 653d dc49 9bbd 969f d73d
000000c0: 2f0a 3e3e c678 2bbe 48be 32be 8117 c8bd
000000d0: ffac 1a3e 88e2 c2be 73d0 41be 27b2 a73d
000000e0: 8520 fa3d e44a 753d 7363 1b3e 483c 05bc
000000f0: ad18 0dbd 011a b33d 9614 fd3d e202 823d
00000100: dd7e a13e 7974 25be c2f7 9a3c 8505 48be
00000110: c9da c7bd afb8 41be 0487 94bd 76dc 183e
00000120: 0180 dfbd f14b 1a3d 3048 443c dae2 f23d
00000130: 69e3 813c 6584 6f3d 3233 f3bd eb95 84bd
00000140: 1eca a4bd 2221 89be 050f 9cbe 4e4a d03e
00000150: df54 393e 3a6c c23d 9e2b a1bd 9f1f 11be
00000160: 66c9 723d b595 6b3e a9a0 393e 8fbe 2d3e
00000170: cea8 893d e42b b03e b823 133e 78f3 46be
00000180: 569a c1bc f2db 573e 8a1e 89be a344 37bb
00000190: daa2 ee3d b436 5a3e 7d33 0a3c 5b95 00be
000001a0: 4d0f 39be 548f 2dbd 37ad 88bc f43c d3bc
000001b0: 450a 32be e438 c1bd de92 1cbe ffee d1bd
000001c0: e195 423d d4eb 43ba 8d2c afbd 582f 23bd
000001d0: 3135 263e e229 eb3d 0dcd 6fbe 5d4d 3cbe
000001e0: 8ef6 533e f74c 6d3e 7bdc 213c e136 9dbc
000001f0: 9f7a 1abe 71f5 04be 4109 473e 8b2f bcbc

lstm.bias_hh_l0 f4 [128]
0.26782396 -0.2907271 0.013917648 0.21473278 0.021763308 -0.10156358 0.16599326 -0.066392526
-0.57963276 0.25145203 -0.04412721 0.12230783 -0.2381843 0.1502168 -0.012975297 0.008629972
0.02413722 -0.09300908 0.107509404 0.1247686 0.12782793 0.3893274 -0.034189682 0.31852707
0.08007103 0.06439465 -0.10441804 -0.0030572063 0.028803 -0.05839169 0.1005019 -0.061804425
-0.09176735 -0.050193325 0.21528581 -0.1605035 -0.2517821 -0.053819176 -0.040062655 -0.11237488
0.15867795 -0.16031942 0.05273597 -0.09401835 -0.008401194 0.16214891 -0.022205038 0.10897754
0.1282761 -0.30979592 -0.2307497 -0.025315711 0.21017042 -0.31641552 -0.16257319 0.10121033
0.12494048 0.061813246 0.094371304 0.07865026 -0.02370438 0.06540519 0.17881978 -0.005629143
0.2804197 -0.13787803 0.039834253 -0.3217357 -0.16358039 -0.20623733 -0.028363274 0.23773535
0.05064339 0.1188099 0.0264926 0.12837711 -0.037098914 0.06160182 -0.047282234 -0.035438538
0.024735224 -0.2976166 -0.22221787 0.3895409 0.19905594 0.110136025 -0.14348936 -0.13694182
-0.0004473006 0.17896356 0.24283238 0.14714694 0.11401733 0.42261353 0.14530309 -0.11178492
-0.0802569 0.20923541 -0.19346936 -0.026841149 0.17221695 0.36304 -0.029342184 -0.15920857
-0.23384199 -0.11573483 -0.08209167 -0.0851763 -0.0648975 -0.20214304 -0.16181014 -0.05898624
-0.060624845 0.01611805 -0.20610458 -0.039161827 0.0705351 0.16613762 -0.26833424 -0.07384778
0.32748157 0.280929 0.06346988 0.070030525 -0.12716413 -0.039372 0.26545912 0.0028229381
00000000: 3920 893e 2fda 94be d906 643c e9e2 5b3e
00000010: f748 b23c 9100 d0bd 23fa 293e cef8 87bd
00000020: d062 14bf 52be 803e bcbe 34bd 877c fa3d
00000030: 96e6 73be 6fd2 193e 5796 54bc ba64 0d3c
00000040: 6bbb c53c 8b7b bebd e42d dc3d ae86 ff3d
00000050: 53e5 023e ec55 c73e 7b0a 0cbd fb15 a33e
00000060: 48fc a33d 58e1 833d 20d9 d5bd 695b 48bb
00000070: 45f4 eb3c 202c 6fbd f1d3 cd3d a326 7dbd
00000080: 85f0 bbbd 8497 4dbd e273 5c3e 085b 24be
00000090: 95e9 80be 7f71 5cbd bd18 24bd cd24 e6bd
000000a0: 797c 223e c62a 24be ac01 583d b18c c0bd
000000b0: 29a5 09bc 5d0a 263e 57e7 b5bc 9e2f df3d
000000c0: cf5a 033e 929d 9ebe a649 6cbe e562 cfbc
000000d0: ea36 573e 3701 a2be 9679 26be 5d47 cf3d
000000e0: cbe0 ff3d e32f 7d3d be45 c13d 6313 a13d
000000f0: b02f c2bc 28f3 853d 881c 373e ad74 b8bb
00000100: 2c93 8f3e e62f 0dbe 3e29 233d 8bba a4be
00000110: 9e81 27be e12f 53be 195a e8bc e570 733e
00000120: 716f 4f3d 9b52 f33d 0207 d93c 4a75 033e
00000130: 08f5 17bd 3152 7c3d 04ab 41bd 0028 11bd
00000140: 86a1 ca3c 3461 98be 158d 63be e871 c73e
00000150: 52d5 4b3e ff8e e13d e0ee 12be 7a3a 0cbe
00000160: ac83 eab9 3942 373e 0da9 783e b0ad 163e
00000170: eb81 e93d cd60 d83e 55ca 143e 7eef e4bd
00000180: bb5d a4bd cf41 563e d51c 46be f8e1 dbbc
00000190: a459 303e 61e0 b93e 055f f0bc 9207 23be
000001a0: 4674 6fbe 6206 edbd ad1f a8bd e970 aebd
000001b0: fbe8 84bd 96fe 4ebe 8fb1 25be 8e9b 71bd
000001c0: c251 78bd 000a 843c 140d 53be 2768 20bd
000001d0: b574 903d fb1f 2a3e 1b63 89be 813d 97bd
000001e0: aaab a73e edd5 8f3e 7ffc 813d 2a6c 8f3d
000001f0: 5037 02be 8944 21bd 42ea 873e 0b01 393b

final.weight f4 [55, 128]
-0.055784892 -0.12347991 -0.08550479 0.24062528 -0.19372205 -0.19330037 0.09957684 -0.024930315
0.025134655 -0.5113415 -0.07569498 0.09911587 -0.14443639 0.36724678 0.046269074 -0.16310932
0.111936375 -0.48595753 0.16765173 0.11443645 0.0020362218 -0.021267919 -0.3231911 -0.2678929
-0.06749263 0.018160697 0.2237485 -0.083643556 0.0057734293 0.16660139 -0.19178171 -0.015829863
-0.24135368 -0.57254267 0.142049 -0.17845796 -0.15227473 0.21082827 -0.17423187 -0.33936486
-0.02866607 -0.16571862 -0.0480517 0.5590185 -0.38706926 -0.033759363 0.064403914 0.07710691
-0.047590088 -0.41797253 -0.033040904 0.046270262 0.052047614 -0.05886997 -0.47199926 -0.2723641
0.23355038 -0.048934445 -0.0032596127 0.11372487 0.0133729465 0.019150887 0.16511974 -0.07962833
-0.22264464 -0.29104868 0.08600421 -0.44095472 -0.14527789 0.089203484 -0.07071075 0.008773159
0.064295836 0.30599415 -0.057582233 0.118723914 -0.29816487 -0.11729328 -0.18132143 -0.34111258
-0.14750923 -0.52650034 0.36158875 -0.4501577 -0.20063072 -0.3727299 -0.24025431 -0.5118408
-0.08834638 -0.05521101 0.14635323 0.15824929 -0.12250015 0.47499198 0.36984882 -0.2617677
-0.28335315 -0.07698386 -0.0960812 -0.49194992 0.021362621 -0.5822879 0.45668674 0.2814835
-0.16849421 0.27896935 0.47069526 0.14672317 -0.004449354 -0.370467 -0.108487375 -0.23666921
0.027498085 0.25832304 0.42260745 -0.22096328 0.05654519 0.081544496 0.1969332 -0.17720933
-0.10726982 -0.01027515 -0.203559 -0.17074002 -0.015555549 0.272816 0.26011857 -0.23924558
-0.11326972 0.022428239 -0.10172002 0.06382352 0.06654513 0.2653865 -0.13316065 0.12138849
0.07403535 0.22601028 0.049546994 -0.11072353 -0.15922868 0.25450975 0.1051507 0.27985972
-0.16978726 0.25869843 0.036965687 -0.038782455 -0.123020865 0.07954331 0.14414723 0.18555272
0.07306593 -0.048489604 0.08050971 -0.0054336577 0.053013653 0.092658184 -0.13618004 0.044525146
0.10611455 0.38509583 -0.102162376 0.021232223 0.19935812 -0.07861954 0.2175239 0.14606369
-0.36780417 0.227192 -0.007902876 0.10401655 -0.004318622 -0.24047382 0.05436359 -0.041936915
-0.19183575 0.24497896 0.12198006 -0.0056754653 -0.09451977 0.03593176 0.04995282 0.16576163
-0.14638473 0.18462157 -0.28404117 -0.16292444 -0.038009875 0.14872393 0.15510401 -0.13041754
0.16739258 0.28972468 -0.3777057 0.33117303 0.10930891 0.039526988 0.1287292 -0.32083884
-0.2848881 -0.06714578 -0.030802632 -0.19482675 -0.020927817 0.11499175 -0.2089199 0.10740012
0.07748582 0.23816559 0.31425434 0.07979831 0.14204009 -0.08539966 0.407451 0.28505576
-0.064195566 0.052707616 -0.121762924 -0.10669159 -0.025037663 -0.5461144 0.038481522 0.24130408
0.13500014 -0.2168297 0.06450604 -0.21383403 0.1624882 0.014520402 -0.11414253 0.2158154
0.30387008 -0.24544005 -0.17492482 -0.36306095 -0.091800205 0.30252647 -0.056610636 0.015903732
0.22555019 -0.2663667 0.08786232 0.29080775 0.058969684 0.040424302 0.15269972 0.050315928
-0.026693735 -0.08274943 0.05653495 0.10526426 0.12050507 -0.2745293 -0.044706486 0.10580143
00000000: b37e 64bd 09e3 fcbd 231d afbd 7966 763e
00000010: 135f 46be 88f0 45be f1ee cb3d a93a ccbc
00000020: 31e7 cd3c 47e7 02bf f805 9bbd 43fd ca3d
00000030: 22e7 13be c507 bc3e a484 3d3d 2106 27be
00000040: e63e e53d 6dcf f8be e5ac 2b3e a85d ea3d
00000050: 2272 053b 0f3a aebc 4e79 a5be 4229 89be
00000060: 9339 8abd bec5 943c 541e 653e 504d abbd
00000070: 092f bd3b 8e99 2a3e 6d62 44be a1ad 81bc
00000080: 6b25 77be 2892 12bf 4b75 113e afbd 36be
00000090: e8ed 1bbe 5ee3 573e d769 32be 3bc1 adbe
000000a0: 1bd5 eabc 24b2 29be dcd1 44bd d61b 0f3f
000000b0: f12d c6be 4247 0abd 33e6 833d 3aea 9d3d
000000c0: d3ed 42bd 7f00 d6be e655 07bd e385 3d3d
000000d0: e12f 553d a321 71bd e3a9 f1be 4f73 8bbe
000000e0: d527 6f3e 7c6f 48bd 3a9f 55bb 96e8 e83d
000000f0: 341a 5b3c 52e2 9c3c 2615 293e 2e14 a3bd
00000100: f5fc 63be 5504 95be fa22 b03d d1c4 e1be
00000110: bac3 14be 51b0 b63d ccd0 90bd 4cbd 0f3c
00000120: 89ad 833d 44ab 9c3e 59db 6bbd 8625 f33d
00000130: 11a9 98be 7637 f0bd 53ac 39be 4fa6 aebe
00000140: a90c 17be bac8 06bf 2922 b93e 127b e6be
00000150: 2472 4dbe 74d6 bebe 3a05 76be 0008 03bf
00000160: f2ee b4bd f124 62bd 9fdd 153e 1a0c 223e
00000170: 5ce1 fabd 2632 f33e d35c bd3e 6a06 86be
00000180: aa13 91be b7a9 9dbd 38c6 c4bd dce0 fbbe
00000190: aa00 af3c d210 15bf d8d2 e93e 9b1e 903e
000001a0: bf89 2cbe 12d5 8e3e f8fe f03e 993e 163e
000001b0: e3cb 91bb daad bdbe a12e debd 6a59 72be
000001c0: aa43 e13c eb42 843e 0160 d83e 3344 62be
000001d0: ee9b 673d cd00 a73d dba8 493e 5d76 35be
000001e0: 48b0 dbbd 1a59 28bc c571 50be 79d6 2ebe
000001f0: b4dc 7ebc 8aae 8b3e 432e 853e cbfc 74be
00000200: f4f9 e7bd 6dbb b73c 9652 d0bd e8b5 823d
00000210: d048 883d bde0 873e 445b 08be 879a f83d
00000220: d89f 973d 3d6f 673e caf1 4a3d 05c3 e2bd
00000230: d80c 23be 1a4f 823e 4059 d73d c649 8f3e
00000240: b6dc 2dbe 1f74 843e 5569 173d 5ada 1ebd
00000250: 5df2 fbbd 9ae7 a23d 559b 133e 8801 3e3e
00000260: 97a3 953d 099d 46bd 46e2 a43d d30c b2bb
00000270: d824 593d 93c3 bd3d c872 0bbe 0060 363d
00000280: 9652 d93d 482b c53e 823a d1bd 33ef ad3c
00000290: 8924 4c3e 4803 a1bd 96be 5e3e b891 153e
000002a0: d450 bcbe 05a5 683e 107b 01bc a106 d53d
000002b0: 3a83 8dbb c53e 76be 5bac 5e3d 0bc6 2bbd
000002c0: 9770 44be c4db 7a3e afd0 f93d 41f9 b9bb
000002d0: 9593 c1bd 2e2d 133d 549b 4c3d 6bbd 293e
000002e0: e1e5 15be 700d 3d3e d86d 91be aad5 26be
000002f0: 3eb0 1bbd 164b 183e 96d3 1e3e 2d8c 05be
00000300: f668 2b3e cb56 943e a462 c1be 838f a93e
00000310: 5add df3d 0de7 213d 96d1 033e fd44 a4be
00000320: dadc 91be ba83 89bd cd55 fcbc aa80 47be
00000330: d070 abbc cb80 eb3d 19ef 55be 98f4 db3d
00000340: e3b0 9e3d aee1 733e f2e5 a03e 4c6d a33d
00000350: f572 113e 04e6 aebd 6b9d d03e d4f2 913e
00000360: f778 83bd f1e3 573d d75e f9bd 1f81 dabd
00000370: c91b cdbc 27ce 0bbf cd9e 1d3d 6b18 773e
00000380: 7a3d 0a3e 9b08 5ebe be1b 843d 4ff7 5abe
00000390: 4f63 263e fbe6 6d3c 8fc3 e9bd b6fe 5c3e
000003a0: dc94 9b3e a354 7bbe 7e1f 33be 20e3 b9be
000003b0: bf01 bcbd c0e4 9a3e 8ee0 67bd 8b48 823c
000003c0: a1f6 663e 3761 88be 29f1 b33d c1e4 943e
000003d0: 328a 713d f493 253d 515d 1c3e 1318 4e3d
000003e0: d2ac dabc 8878 a9bd 3191 673d ca94 d73d
000003f0: 5dcb f63d 1b8f 8cbe 261e 37bd 6cae d83d

final.bias f4 [55]
-1.2968768 -0.7682174 -0.6102062 1.9917166 0.8092216 0.26003817 0.83770376 2.7580411
-0.04312062 0.58076894 1.4103557 1.7112513 -0.22189961 0.9927147 1.5723037 1.0472037
0.888893 1.788306 0.31463075 -0.48422235 1.5345747 1.7473997 1.3062127 0.8134758
1.0110308 0.15466216 -0.6311291 -0.29813898 -0.23890653 -0.8022629 -0.7991329 -0.9071934
-0.6015758 -0.39387533 -0.80432886 -0.8168575 -0.8084721 -0.7438047 -0.77118915 -0.81146777
-0.83873147 -0.90564877 -0.30845836 -0.8488528 -0.6161974 -0.9627492 -0.8617226 -0.825682
-0.7102992 -0.76310325 -0.6341489 -0.8229445 -0.80532575 -0.8090333 0.13746631
00000000: 0f00 a6bf e5a9 44bf 7936 1cbf 92f0 fe3f
00000010: 2629 4f3f b923 853e c173 563f bf83 3040
00000020: 3f9f 30bd 46ad 143f 8986 b43f 480a db3f
00000030: a739 63be 8d22 7e3f 3f41 c93f c50a 863f
00000040: 7e8e 633f 36e7 e43f 4817 a13e feeb f7be
00000050: f26c c43f cbaa df3f fa31 a73f f33f 503f
00000060: 7569 813f c25f 1e3e ad91 21bf aca5 98be
00000070: eaa3 74be 1a61 4dbf f993 4cbf d43d 68bf
00000080: df00 1abf 07aa c9be 7fe8 4dbf 931d 51bf
00000090: 07f8 4ebf fc69 3ebf a76c 45bf 5abc 4fbf
000000a0: 1bb7 56bf 99d8 67bf 41ee 9dbe 6b4e 59bf
000000b0: 1dbf 1dbf bb76 76bf da99 5cbf e55f 53bf
000000c0: 2bd6 35bf bc5a 43bf 9557 22bf 7eac 52bf
000000d0: d429 4ebf ce1c 4fbf f8c3 0c3e

momentum_buffer f4 [128, 55]
1.0691263e-05 2.8552218e-16 -6e-45 -0.1367573 0.15244672 0.19541065 -0.012486631 -0.30308437
-0.0038609463 -0.011020598 0.007988231 0.029192064 0.025757859 -0.34614918 0.05287181 0.08947556
0.121647954 0.22627331 -0.005585626 -2.6351578e-25 0.09646101 -0.058504786 -0.09792903 -0.025290903
0.07421193 -0.07006823 -1.7413497e-07 -1.6694795e-08 0.0006603177 6e-45 6e-45 6e-45
6e-45 -1.0454834e-22 6e-45 -4.0495204e-05 6e-45 -2.755355e-39 -6e-45 6e-45
7.06252e-23 6e-45 -6.331616e-06 6e-45 -1.34641105e-14 -8.857747e-15 -6e-45 6e-45
6e-45 -6e-45 -2.8606132e-37 6e-45 -5.4865934e-32 -0.84239185 0.0 -0.061240483
1.9804641e-17 6e-45 -0.07024607 -0.12080598 0.0026310887 -0.05482034 0.2925839 0.13050726
-0.004215788 -0.024718855 -0.12308516 4.336428e-05 -0.018881785 -0.050770633 -0.27581403 -0.009525326
0.028689696 0.08464854 2.6988078e-25 0.007236577 0.08708323 -0.19380109 0.010330975 -0.09184947
-0.069120444 6.10015e-10 7.3623228e-09 0.042562455 6e-45 6e-45 6e-45 -6e-45
2.5524187e-21 6e-45 1.2168422e-06 6e-45 3.481e-41 -6e-45 6e-45 -4.541338e-24
6e-45 3.6740425e-05 6e-45 -8.808988e-14 9.2894335e-18 6e-45 -6e-45 -6e-45
6e-45 1.11934e-40 6e-45 -1.2934667e-34 -0.3823831 0.0 -0.12985837 2.2041301e-17
-6e-45 0.07596174 0.0044949576 -0.0494069 -0.12712091 0.29348436 0.14410208 -0.10673912
0.08971279 0.10094736 0.17023066 0.17935087 -0.060764138 -0.023807868 -0.14699705 0.008076053
0.00077466195 9.892719e-26 0.14668714 -0.008034566 -0.27787042 -0.07339442 -0.110235676 -0.0032032053
1.714127e-07 -5.953118e-08 -0.025974251 -6e-45 6e-45 6e-45 -6e-45 1.0626652e-22
6e-45 -0.0011628049 6e-45 2.515245e-39 -6e-45 6e-45 7.268246e-22 6e-45
-0.0014245905 -6e-45 -1.0685473e-13 1.2599761e-14 6e-45 -6e-45 6e-45 6e-45
9.498224e-38 -6e-45 2.035364e-31 0.9969063 0.0 0.18146414 -3.5120458e-16 6e-45
-0.20531473 0.10715879 0.03906907 -0.017076584 -0.27874807 0.0911017 -0.035409965 -0.022676764
-0.052010752 0.020624014 0.278227 -0.048829045 -0.13319129 0.35006392 0.04208313 0.01137447
-5.609493e-26 0.12549658 -0.003990028 -0.016675998 0.0020663685 0.079072945 -0.03255339 -3.904153e-09
8.195246e-11 -0.04705808 -6e-45 6e-45 -6e-45 6e-45 -6.527443e-22 6e-45
-0.005596457 6e-45 -4.95466e-40 6e-45 -6e-45 -5.677187e-22 6e-45 0.0023943875
-6e-45 1.6264059e-13 -7.432038e-15 -6e-45 -6e-45 6e-45 -6e-45 -1.9122913e-37
-6e-45 -5.2467415e-31 -0.006869212 0.0 -0.07908031 3.8383152e-17 -6e-45 0.079617515
0.216257 -0.19210683 0.017375387 -0.09748236 -0.10848438 0.02352854 0.0180109 0.29986018
-0.0039905966 -0.19998713 -0.18196462 -0.029440211 0.3470334 -0.029138898 -0.009969302 6.407807e-26
-0.031493865 0.13324484 0.27964076 -0.055216894 -0.041473344 -0.0076475563 7.2269023e-07 8.823718e-06
-0.034558948 6e-45 -6e-45 -6e-45 -6e-45 2.863921e-22 -6e-45 0.02864306
00000000: a05e 3337 a397 a425 0400 0080 1b0a 0cbe
00000010: fe1a 1c3e bb19 483e ba94 4cbc e02d 9bbe
00000020: ee07 7dbb bd8f 34bc 12e1 023c 3224 ef3c
00000030: 2502 d33c 773a b1be 1c90 583d f63e b73d
00000040: 9022 f93d 31b4 673e a007 b7bb be1b a396
00000050: 5a8d c53d b7a2 6fbd 048f c8bd de2e cfbc
00000060: 6dfc 973d ef7f 8fbd dbf9 3ab4 3e68 8fb2
00000070: 2c19 2d3a 0400 0000 0400 0000 0400 0000
00000080: 0400 0000 4ac8 fc9a 0400 0000 65d9 29b8
00000090: 0400 0000 cf00 1e80 0400 0080 0400 0000
000000a0: e2c2 aa1a 0400 0000 2b74 d4b6 0400 0000
000000b0: 408c 72a8 2691 1fa8 0400 0080 0400 0000
000000c0: 0400 0000 0400 0080 e9ae c282 0400 0000
000000d0: ab70 8e8b fea6 57bf 0000 0000 4dd7 7abd
000000e0: 63aa b623 0400 0000 2cdd 8fbd 2069 f7bd
000000f0: 586e 2c3b 4b8b 60bd 8fcd 953e b2a3 053e
00000100: 9824 8abb 327f cabc 1314 fcbd 0be2 3538
00000110: f9ad 9abc def4 4fbd 7f37 8dbe 1d10 1cbc
00000120: a706 eb3c 375c ad3d 510c a716 cf20 ed3b
00000130: b158 b23d cb73 46be 4043 293c 931b bcbd
00000140: 058f 8dbd fdad 2730 adf7 fc31 f855 2e3d
00000150: 0400 0000 0400 0000 0400 0000 0400 0080
00000160: f5da 401d 0400 0000 6152 a335 0400 0000
00000170: 0961 0000 0400 0080 0400 0000 3caf af98
00000180: 0400 0000 bb19 1a38 0400 0000 5c5c c6a9
00000190: 1c5c 2b23 0400 0000 0400 0080 0400 0080
000001a0: 0400 0000 0738 0100 0400 0000 64ee 2b87
000001b0: b8c7 c3be 0000 0000 98f9 04be 8d4b cb23
000001c0: 0400 0080 d491 9b3d 704a 933b e45e 4abd
000001d0: fc2b 02be 9543 963e 7f8f 133e 0a9a dabd
000001e0: 57bb b73d 7dbd ce3d f250 2e3e c1a7 373e
000001f0: d1e3 78bd b808 c3bc 6586 16be 6c51 043c
00000200: af12 4b3a 8eee f415 2735 163e 6aa3 03bc
00000210: 0845 8ebe d04f 96bd 3ec3 e1bd deec 51bb
00000220: 900d 3834 3aaf 7fb3 f4c7 d4bc 0400 0080
00000230: 0400 0000 0400 0000 0400 0080 e577 001b
00000240: 0400 0000 4269 98ba 0400 0000 7b63 1b00
00000250: 0400 0080 0400 0000 54ab 5b1c 0400 0000
00000260: 53b9 baba 0400 0080 8f9d f0a9 24fa 6228
00000270: 0400 0000 0400 0080 0400 0000 0400 0000
00000280: 7b48 0102 0400 0080 491a 840c 4035 7f3f
00000290: 0000 0000 bcd1 393e a674 caa5 0400 0000
000002a0: 063e 52be 1176 db3d e406 203d 31e4 8bbc
000002b0: 11b8 8ebe 8793 ba3d 0a0a 11bd 9fc4 b9bc
000002c0: 3a09 55bd b1f3 a83c c573 8e3e f700 48bd
000002d0: 4c63 08be 943b b33e 5c5f 2c3d fc5b 3a3c
000002e0: 63e2 8a95 2d82 003e c8be 82bb 1a9c 88bc
000002f0: e96b 073b fff0 a13d b456 05bd 4b25 86b1
00000300: 2237 b42e f9bf 40bd 0400 0080 0400 0000
00000310: 0400 0080 0400 0000 a547 459c 0400 0000
00000320: 7c62 b7bb 0400 0000 2865 0580 0400 0000
00000330: 0400 0080 1b95 2b9c 0400 0000 28eb 1c3b
00000340: 0400 0080 f51d 372a 3ae2 05a8 0400 0080
00000350: 0400 0080 0400 0000 0400 0080 d024 8282
00000360: 0400 0080 3944 2a8d 2017 e1bb 0000 0000
00000370: dcf4 a1bd d402 3124 0400 0080 820e a33d
00000380: 7a72 5d3e a7b7 44be d456 8e3c d5a4 c7bd
00000390: 0f2d debd edbe c03c 988b 933c 4687 993e
000003a0: 8dc3 82bb 6dc9 4cbe ef54 3abe 992c f1bc
000003b0: 5dae b13e b3b4 eebc 4956 23bc 4da6 9e15
000003c0: b6ff 00bd 5671 083e 132d 8f3e 1c2b 62bd
000003d0: f4df 29bd 5a98 fabb e5fe 4135 9509 1437
000003e0: af8d 0dbd 0400 0000 0400 0080 0400 0080
000003f0: 0400 0080 081d ad1b 0400 0080 daa4 ea3c

momentum_buffer f4 [128, 128]
0.18961304 -0.10060928 -0.09095082 0.06351701 0.32469556 0.08542369 -0.058345463 0.377567
-0.19453414 -0.13843347 -0.0012111515 -0.19035518 -0.2069677 -0.30416936 -0.27822387 -0.12222223
0.024249744 0.18148082 0.021853581 -0.122887254 -0.21537648 -0.20208845 -0.2063646 0.1592556
0.032257624 -0.028934881 0.21339464 0.06887565 -0.079867125 0.23149198 -0.13203019 0.17338681
0.09217568 -0.057457536 0.05285505 -0.1815803 -0.16359851 0.05005517 -0.0010880798 -0.0319314
0.0963644 -0.35520422 -0.12749836 0.16216283 0.360618 -0.08006799 -0.07273796 0.27114493
-0.066143386 0.06911497 -0.09723678 0.023188725 0.0032714494 -0.05910924 0.25653997 0.017905548
0.050958723 -0.24313188 0.29727447 0.03814037 0.30691385 -0.038994998 -0.29121 -0.04861732
0.10481422 0.28466594 -0.17533669 0.056429993 -0.12192619 -0.068358295 0.003084287 0.23252156
-0.20603287 0.48605484 0.3724824 -0.2269502 0.00818735 0.14251572 0.38685673 0.029075537
-0.2182978 -0.09015082 -0.3234067 0.027729925 -0.2981376 -0.25232482 0.1702573 0.031497784
-0.032845914 -0.047308177 -0.11407482 0.44162107 0.1890727 0.28414 -0.10498507 0.35170996
0.12324931 0.035374716 -0.029801115 0.11225781 -0.20742348 0.0971321 0.26645982 0.0016336665
-0.076564334 0.076252505 -0.07555108 -0.07227055 -0.20175163 -0.28225622 -0.13084468 0.057635855
0.15098912 -0.11189876 -0.39504153 0.038203336 -0.048176624 -0.100444786 0.12447471 0.03205279
0.061628535 0.008055534 0.26657724 0.020415291 0.09826669 -0.046375476 0.078471825 0.16485554
-0.08893354 0.49844348 -0.44164324 0.5312933 0.021767007 0.19520804 -0.060908068 -0.3812014
0.2479035 0.056107927 0.13670146 0.35503486 0.284731 -1.0181977 -0.3481687 0.2638008
-0.059645344 0.17882632 0.24285772 0.037014373 0.12745672 0.57433563 -0.13745475 -0.18936142
0.46321946 0.0074536707 -0.037380405 0.09266201 0.2838471 0.028693005 0.412873 -0.26330924
0.1844209 -0.21795566 -0.32522282 -0.08843423 0.17702276 0.09946451 -0.05342336 -0.34726444
-0.0690611 -0.07543925 0.026032487 0.35848147 0.5701045 0.04135207 -0.18810445 0.2372081
0.15347281 0.74660736 -0.04168127 -0.048400905 -0.25760645 -0.37269685 0.1862479 -0.2278445
-0.14765215 0.10083804 0.34800044 -0.06597132 0.3889191 0.12258365 -0.42283192 -0.0860239
0.17220472 0.047447685 -0.25167617 -0.51952773 0.11563481 -0.13647354 0.01990178 -0.42918605
0.14860027 0.2918862 0.2528646 0.0038716078 -0.24317244 0.16541308 0.3336322 -0.009761755
0.23506805 -0.3163791 0.23294671 -0.15034732 0.306145 -0.15987836 0.12701547 0.028539948
-0.029022116 0.3909355 -0.23382571 0.7880571 0.35618153 0.5759343 0.34375578 -0.043523937
0.09548291 0.003962256 -0.31664464 0.12670238 0.06981781 0.5781861 0.024951315 -0.2748752
0.47729418 0.059104428 -0.08368726 -0.3200215 0.14706564 0.3608728 0.04283115 0.032023262
0.2324484 -0.24500945 -0.011486694 0.1952829 -0.0041512046 -0.07254657 0.52587837 0.2729163
-0.10875158 0.24442814 0.17332229 0.08685734 0.051067095 -0.5507631 -0.113006026 -0.03868252
00000000: ec29 423e 3d0c cebd 6c44 babd 3515 823d
00000010: 7f3e a63e 9ef2 ae3d a7fb 6ebd 7650 c13e
00000020: f533 47be 81c1 0dbe 80bf 9eba 78ec 42be
00000030: 57ef 53be 16bc 9bbe 5c73 8ebe a64f fabd
00000040: 66a7 c63c 1cd6 393e 4806 b33c 50ac fbbd
00000050: a78b 5cbe 46f0 4ebe 3e51 53be e613 233e
00000060: 9220 043d d808 edbc 2084 5a3e ad0e 8d3d
00000070: 6091 a3bd 3c0c 6d3e ec32 07be 508c 313e
00000080: 9ac6 bc3d 9858 6bbd 897e 583d 30f0 39be
00000090: 5e86 27be a606 4d3d e69d 8eba 80ca 02bd
000000a0: b35a c53d 54dd b5be ee8e 02be 030e 263e
000000b0: eca2 b83e b0fa a3bd a4f7 94bd 82d3 8a3e
000000c0: 2f76 87bd 268c 8d3d 1424 c7bd 48f6 bd3c
000000d0: d065 563b 881c 72bd 3559 833e a8ae 923c
000000e0: 18ba 503d 90f7 78be 5c34 983e 1439 1c3d
000000f0: d023 9d3e 38b9 1fbd 7a19 95be f422 47bd
00000100: d6a8 d63d bcbf 913e 768b 33be 2323 673d
00000110: 70b4 f9bd 6fff 8bbd c021 4a3b 221a 6e3e
00000120: 48fa 52be 2edc f83e 03b6 be3e a265 68be
00000130: 3c24 063c a4ef 113e 1612 c63e d22f ee3c
00000140: 7589 5fbe fea0 b8bd 9095 a5be de29 e33c
00000150: 7ea5 98be b830 81be ee57 2e3e d203 013d
00000160: 7089 06bd 38c6 41bd 0fa0 e9bd 281c e23e
00000170: 469c 413e cc7a 913e 6a02 d7bd 5413 b43e
00000180: 226a fc3d 14e5 103d 7821 f4bc 6ce7 e53d
00000190: d266 54be 32ed c63d 6c6d 883e c020 d63a
000001a0: c3cd 9cbd 462a 9c3d 86ba 9abd 9502 94bd
000001b0: fb97 4ebe e383 90be 26fc 05be 9313 6c3d
000001c0: e49c 1a3e 2d2b e5bd e242 cabe 1a7b 1c3d
000001d0: da54 45bd ffb5 cdbd 99ec fe3d c949 033d
000001e0: 346e 7c3d 5cfb 033c d07c 883e f83d a73c
000001f0: 0c40 c93d 36f4 3dbd d6b5 a03d e4cf 283e
00000200: ca22 b6bd fc33 ff3e 101f e2be d602 083f
00000210: b950 b23c 9ee4 473e bd7a 79bd d42c c3be
00000220: 6ada 7d3e 6dd1 653d 78fb 0b3e 21c7 b53e
00000230: 43c8 913e 4d54 82bf 2b43 b2be e610 873e
00000240: ad4e 74bd 3f1e 373e b2af 783e 629c 173d
00000250: 0484 023e a907 133f f0c0 0cbe f6e7 41be
00000260: 1a2b ed3e ec3d f43b 321c 19bd 94c5 bd3d
00000270: 6854 913e 980d eb3c 1764 d33e 78d0 86be
00000280: d5d8 3c3e c52f 5fbe 9b83 a6be 011d b5bd
00000290: 7445 353e 0db4 cb3d 74d2 5abd a5cc b1be
000002a0: e86f 8dbd e57f 9abd 1542 d53c e28a b73e
000002b0: 5ef2 113f ca60 293d 749e 40be aee6 723e
000002c0: fa27 1d3e a921 3f3f fbb9 2abd 0740 46bd
000002d0: fee4 83be 1fd2 bebe c5b7 3e3e 1250 69be
000002e0: 2032 17be 2d84 ce3d 1d2d b23e f91b 87bd
000002f0: 6720 c73e 230d fb3d 6d7d d8be 4c2d b0bd
00000300: 6f56 303e 8158 423d b3db 80be c5ff 04bf
00000310: f1d1 ec3d b8bf 0bbe 0f09 a33c 46be dbbe
00000320: ab2a 183e 1c72 953e 7877 813e cdba 7d3b
00000330: 3202 79be 0c62 293e d7d1 aa3e c5ef 1fbc
00000340: aeb5 703e 71fc a1be 9589 6e3e a6f4 19be
00000350: 0abf 9c3e 27b7 23be 5810 023e 9ccc e93c
00000360: cabf edbc b328 c83e 0270 6fbe 1cbe 493f
00000370: 6d5d b63e 6e70 133f c200 b03e 2846 32bd
00000380: 8b8c c33d d0d5 813b 3f1f a2be 45be 013e
00000390: a4fc 8e3d 0104 143f b366 cc3c 71bc 8cbe
000003a0: e75f f43e 7c17 723d 3a64 abbd dcd9 a3be
000003b0: 6098 163e 52c4 b83e b76f 2f3d d32a 033d
000003c0: f406 6e3e c2e3 7abe b032 3cbc 3ef8 473e
000003d0: d406 88bb 4c93 94bd f79f 063f afbb 8b3e
000003e0: 26b9 debd 5f4b 7a3e 667b 313e 43e2 b13d
000003f0: bb2b 513d cffe 0cbf b46f e7bd 9071 1ebd

momentum_buffer f4 [128]
-0.8407684 -0.86492366 1.0647346 0.42419627 0.45506337 -0.84913325 -0.52970785 -0.5198134
0.40120423 -0.13363068 0.5387674 -0.102180205 0.82684034 -0.26483703 -0.41473985 -0.5525922
-0.71840006 -0.78307176 -1.1413915 0.5685454 -0.35753664 0.5291437 -0.46439815 -0.36453223
0.27727517 -0.00752759 0.072244644 -0.35873324 -0.35810265 -0.21093544 1.2522764 0.3245698
-0.16279823 0.45177045 -0.47807163 -1.8154894 0.3634216 0.5024947 -0.7650563 0.3117869
-0.27753443 -0.35229817 0.7355555 0.73520726 0.8659766 0.34900272 0.2004274 0.80877984
0.5598598 0.5971333 0.22901775 -0.7811026 -0.77633834 1.197119 0.640673 -0.39065304
0.2549444 0.26226872 -0.94336927 -1.0053462 -0.110112414 -0.472133 0.68101704 0.51130885
0.24535874 0.30199346 -0.39292538 0.10504997 0.33514026 -0.066503674 -0.010621473 -0.86357975
-0.19060978 -0.75443506 0.73628265 -0.19858739 -1.0995164 0.9888326 0.15677798 -0.18379602
-0.46338516 0.060521394 0.2954155 -0.4638094 -0.5742549 -1.209129 -0.39626807 0.1971887
0.3767567 0.15075772 -0.13516468 -0.57980484 1.1730301 -0.83983076 1.2185893 0.24721658
0.7760759 -0.6562796 0.09598899 -0.11559454 -0.38807184 -0.5936595 -0.0794573 -0.66934913
-0.15825379 -0.630695 -0.53377765 0.19355008 -1.0797133 -1.4413767 -0.6929965 -0.25404784
0.20671885 0.50186646 -0.05722792 0.23656026 1.2500548 -0.540234 0.5027812 0.3019147
-0.5711124 -0.9699188 0.48854935 0.75834835 -0.7298295 0.83170915 -0.24887381 0.011235271
00000000: 993c 57bf a36b 5dbf 3949 883f 4130 d93e
00000010: 11fe e83e cc60 59bf ef9a 07bf 7e12 05bf
00000020: a46a cd3e 7bd6 08be a9ec 093f db43 d1bd
00000030: cfab 533f b898 87be c858 d4be af76 0dbf
00000040: 11e9 37bf 6477 48bf 1e19 92bf 318c 113f
00000050: 0b0f b7be f675 073f 98c5 edbe f8a3 babe
00000060: 03f7 8d3e 00aa f6bb 00f5 933d e2ab b7be
00000070: 3b59 b7be 76ff 57be 984a a03f 032e a63e
00000080: 94b4 26be 754e e73e cec5 f4be f561 e8bf
00000090: 6512 ba3e 7ea3 003f bbda 43bf 88a2 9f3e
000000a0: fe18 8ebe 6d60 b4be 5e4d 3c3f 8b36 3c3f
000000b0: a4b0 5d3f 7cb0 b23e d73c 4d3e 320c 4f3f
000000c0: f952 0f3f badd 183f a183 6a3e 57f6 47bf
000000d0: 1cbe 46bf 323b 993f 2503 243f ad03 c8be
000000e0: 1388 823e 1648 863e a680 71bf 2faf 80bf
000000f0: 9e82 e1bd 6bbb f1be 2257 2e3f 23e5 023f
00000100: 523f 7b3e e39e 9a3e 842d c9be 7024 d73d
00000110: 8197 ab3e 1433 88bd b005 2ebc 9013 5dbf
00000120: 362f 43be a822 41bf 057d 3c3f 7e5a 4bbe
00000130: f4bc 8cbf 2224 7d3f 688a 203e 0635 3cbe
00000140: d240 edbe 48e5 773d b340 973e 6d78 edbe
00000150: 5e02 13bf bdc4 9abf a6e3 cabe d6eb 493e
00000160: 41e6 c03e 3b60 1a3e 9c68 0abe 176e 14bf
00000170: da25 963f 26ff 56bf bcfa 9b3f 5826 7d3e
00000180: e9ac 463f f101 28bf e095 c43d d5bc ecbd
00000190: 5ab1 c6be 12fa 17bf 82ba a2bd 775a 2bbf
000001a0: 480d 22be 3a75 21bf a7a5 08bf fe31 463e
000001b0: 0c34 8abf 087f b8bf 3868 31bf 8f12 82be
000001c0: 1bae 533e 527a 003f d367 6abd da3c 723e
000001d0: cc01 a03f c74c 0abf 45b6 003f 9094 9a3e
000001e0: 6c34 12bf 994c 78bf 2423 fa3e 1e23 423f
000001f0: 1bd6 3abf e4ea 543f c7d8 7ebe 2414 383c

momentum_buffer f4 [128]
-0.8407684 -0.86492366 1.0647346 0.42419627 0.45506337 -0.84913325 -0.52970785 -0.5198134
0.40120423 -0.13363068 0.5387674 -0.102180205 0.82684034 -0.26483703 -0.41473985 -0.5525922
-0.71840006 -0.78307176 -1.1413915 0.5685454 -0.35753664 0.5291437 -0.46439815 -0.36453223
0.27727517 -0.00752759 0.072244644 -0.35873324 -0.35810265 -0.21093544 1.2522764 0.3245698
-0.16279823 0.45177045 -0.47807163 -1.8154894 0.3634216 0.5024947 -0.7650563 0.3117869
-0.27753443 -0.35229817 0.7355555 0.73520726 0.8659766 0.34900272 0.2004274 0.80877984
0.5598598 0.5971333 0.22901775 -0.7811026 -0.77633834 1.197119 0.640673 -0.39065304
0.2549444 0.26226872 -0.94336927 -1.0053462 -0.110112414 -0.472133 0.68101704 0.51130885
0.24535874 0.30199346 -0.39292538 0.10504997 0.33514026 -0.066503674 -0.010621473 -0.86357975
-0.19060978 -0.75443506 0.73628265 -0.19858739 -1.0995164 0.9888326 0.15677798 -0.18379602
-0.46338516 0.060521394 0.2954155 -0.4638094 -0.5742549 -1.209129 -0.39626807 0.1971887
0.3767567 0.15075772 -0.13516468 -0.57980484 1.1730301 -0.83983076 1.2185893 0.24721658
0.7760759 -0.6562796 0.09598899 -0.11559454 -0.38807184 -0.5936595 -0.0794573 -0.66934913
-0.15825379 -0.630695 -0.53377765 0.19355008 -1.0797133 -1.4413767 -0.6929965 -0.25404784
0.20671885 0.50186646 -0.05722792 0.23656026 1.2500548 -0.540234 0.5027812 0.3019147
-0.5711124 -0.9699188 0.48854935 0.75834835 -0.7298295 0.83170915 -0.24887381 0.011235271
00000000: 993c 57bf a36b 5dbf 3949 883f 4130 d93e
00000010: 11fe e83e cc60 59bf ef9a 07bf 7e12 05bf
00000020: a46a cd3e 7bd6 08be a9ec 093f db43 d1bd
00000030: cfab 533f b898 87be c858 d4be af76 0dbf
00000040: 11e9 37bf 6477 48bf 1e19 92bf 318c 113f
00000050: 0b0f b7be f675 073f 98c5 edbe f8a3 babe
00000060: 03f7 8d3e 00aa f6bb 00f5 933d e2ab b7be
00000070: 3b59 b7be 76ff 57be 984a a03f 032e a63e
00000080: 94b4 26be 754e e73e cec5 f4be f561 e8bf
00000090: 6512 ba3e 7ea3 003f bbda 43bf 88a2 9f3e
000000a0: fe18 8ebe 6d60 b4be 5e4d 3c3f 8b36 3c3f
000000b0: a4b0 5d3f 7cb0 b23e d73c 4d3e 320c 4f3f
000000c0: f952 0f3f badd 183f a183 6a3e 57f6 47bf
000000d0: 1cbe 46bf 323b 993f 2503 243f ad03 c8be
000000e0: 1388 823e 1648 863e a680 71bf 2faf 80bf
000000f0: 9e82 e1bd 6bbb f1be 2257 2e3f 23e5 023f
00000100: 523f 7b3e e39e 9a3e 842d c9be 7024 d73d
00000110: 8197 ab3e 1433 88bd b005 2ebc 9013 5dbf
00000120: 362f 43be a822 41bf 057d 3c3f 7e5a 4bbe
00000130: f4bc 8cbf 2224 7d3f 688a 203e 0635 3cbe
00000140: d240 edbe 48e5 773d b340 973e 6d78 edbe
00000150: 5e02 13bf bdc4 9abf a6e3 cabe d6eb 493e
00000160: 41e6 c03e 3b60 1a3e 9c68 0abe 176e 14bf
00000170: da25 963f 26ff 56bf bcfa 9b3f 5826 7d3e
00000180: e9ac 463f f101 28bf e095 c43d d5bc ecbd
00000190: 5ab1 c6be 12fa 17bf 82ba a2bd 775a 2bbf
000001a0: 480d 22be 3a75 21bf a7a5 08bf fe31 463e
000001b0: 0c34 8abf 087f b8bf 3868 31bf 8f12 82be
000001c0: 1bae 533e 527a 003f d367 6abd da3c 723e
000001d0: cc01 a03f c74c 0abf 45b6 003f 9094 9a3e
000001e0: 6c34 12bf 994c 78bf 2423 fa3e 1e23 423f
000001f0: 1bd6 3abf e4ea 543f c7d8 7ebe 2414 383c
