app/ml_models/rnn/pretrained/plaatsnamen_epoch10.pt (torch, 277513 bytes, 13 tensors)

_embedding.weight f4 [61, 61]
000000 00 00 80 3f 00 00 00 00 00 00 00 00 00 00 00 00
       1.0 0.0 0.0 0.0
000010 00 00 00 00 00 00 00 00 00 00 00 00 00 00 00 00
       0.0 0.0 0.0 0.0
000020 00 00 00 00 00 00 00 00 00 00 00 00 00 00 00 00
       0.0 0.0 0.0 0.0
000030 00 00 00 00 00 00 00 00 00 00 00 00 00 00 00 00
       0.0 0.0 0.0 0.0
000040 00 00 00 00 00 00 00 00 00 00 00 00 00 00 00 00
       0.0 0.0 0.0 0.0
000050 00 00 00 00 00 00 00 00 00 00 00 00 00 00 00 00
       0.0 0.0 0.0 0.0
000060 00 00 00 00 00 00 00 00 00 00 00 00 00 00 00 00
       0.0 0.0 0.0 0.0
000070 00 00 00 00 00 00 00 00 00 00 00 00 00 00 00 00
       0.0 0.0 0.0 0.0
000080 00 00 00 00 00 00 00 00 00 00 00 00 00 00 00 00
       0.0 0.0 0.0 0.0
000090 00 00 00 00 00 00 00 00 00 00 00 00 00 00 00 00
       0.0 0.0 0.0 0.0
0000a0 00 00 00 00 00 00 00 00 00 00 00 00 00 00 00 00
       0.0 0.0 0.0 0.0
0000b0 00 00 00 00 00 00 00 00 00 00 00 00 00 00 00 00
       0.0 0.0 0.0 0.0
0000c0 00 00 00 00 00 00 00 00 00 00 00 00 00 00 00 00
       0.0 0.0 0.0 0.0
0000d0 00 00 00 00 00 00 00 00 00 00 00 00 00 00 00 00
       0.0 0.0 0.0 0.0
0000e0 00 00 00 00 00 00 00 00 00 00 00 00 00 00 00 00
       0.0 0.0 0.0 0.0
0000f0 00 00 00 00 00 00 00 00 00 00 80 3f 00 00 00 00
       0.0 0.0 1.0 0.0
000100 00 00 00 00 00 00 00 00 00 00 00 00 00 00 00 00
       0.0 0.0 0.0 0.0
000110 00 00 00 00 00 00 00 00 00 00 00 00 00 00 00 00
       0.0 0.0 0.0 0.0
000120 00 00 00 00 00 00 00 00 00 00 00 00 00 00 00 00
       0.0 0.0 0.0 0.0
000130 00 00 00 00 00 00 00 00 00 00 00 00 00 00 00 00
       0.0 0.0 0.0 0.0
000140 00 00 00 00 00 00 00 00 00 00 00 00 00 00 00 00
       0.0 0.0 0.0 0.0
000150 00 00 00 00 00 00 00 00 00 00 00 00 00 00 00 00
       0.0 0.0 0.0 0.0
000160 00 00 00 00 00 00 00 00 00 00 00 00 00 00 00 00
       0.0 0.0 0.0 0.0
000170 00 00 00 00 00 00 00 00 00 00 00 00 00 00 00 00
       0.0 0.0 0.0 0.0
000180 00 00 00 00 00 00 00 00 00 00 00 00 00 00 00 00
       0.0 0.0 0.0 0.0
000190 00 00 00 00 00 00 00 00 00 00 00 00 00 00 00 00
       0.0 0.0 0.0 0.0
0001a0 00 00 00 00 00 00 00 00 00 00 00 00 00 00 00 00
       0.0 0.0 0.0 0.0
0001b0 00 00 00 00 00 00 00 00 00 00 00 00 00 00 00 00
       0.0 0.0 0.0 0.0
0001c0 00 00 00 00 00 00 00 00 00 00 00 00 00 00 00 00
       0.0 0.0 0.0 0.0
0001d0 00 00 00 00 00 00 00 00 00 00 00 00 00 00 00 00
       0.0 0.0 0.0 0.0
0001e0 00 00 00 00 00 00 00 00 00 00 00 00 00 00 00 00
       0.0 0.0 0.0 0.0
0001f0 00 00 80 3f 00 00 00 00 00 00 00 00 00 00 00 00
       1.0 0.0 0.0 0.0
000200 00 00 00 00 00 00 00 00 00 00 00 00 00 00 00 00
       0.0 0.0 0.0 0.0
000210 00 00 00 00 00 00 00 00 00 00 00 00 00 00 00 00
       0.0 0.0 0.0 0.0
000220 00 00 00 00 00 00 00 00 00 00 00 00 00 00 00 00
       0.0 0.0 0.0 0.0
000230 00 00 00 00 00 00 00 00 00 00 00 00 00 00 00 00
       0.0 0.0 0.0 0.0
000240 00 00 00 00 00 00 00 00 00 00 00 00 00 00 00 00
       0.0 0.0 0.0 0.0
000250 00 00 00 00 00 00 00 00 00 00 00 00 00 00 00 00
       0.0 0.0 0.0 0.0
000260 00 00 00 00 00 00 00 00 00 00 00 00 00 00 00 00
       0.0 0.0 0.0 0.0
000270 00 00 00 00 00 00 00 00 00 00 00 00 00 00 00 00
       0.0 0.0 0.0 0.0
000280 00 00 00 00 00 00 00 00 00 00 00 00 00 00 00 00
       0.0 0.0 0.0 0.0
000290 00 00 00 00 00 00 00 00 00 00 00 00 00 00 00 00
       0.0 0.0 0.0 0.0
0002a0 00 00 00 00 00 00 00 00 00 00 00 00 00 00 00 00
       0.0 0.0 0.0 0.0
0002b0 00 00 00 00 00 00 00 00 00 00 00 00 00 00 00 00
       0.0 0.0 0.0 0.0
0002c0 00 00 00 00 00 00 00 00 00 00 00 00 00 00 00 00
       0.0 0.0 0.0 0.0
0002d0 00 00 00 00 00 00 00 00 00 00 00 00 00 00 00 00
       0.0 0.0 0.0 0.0
0002e0 00 00 00 00 00 00 00 00 00 00 80 3f 00 00 00 00
       0.0 0.0 1.0 0.0
0002f0 00 00 00 00 00 00 00 00 00 00 00 00 00 00 00 00
       0.0 0.0 0.0 0.0
000300 00 00 00 00 00 00 00 00 00 00 00 00 00 00 00 00
       0.0 0.0 0.0 0.0
000310 00 00 00 00 00 00 00 00 00 00 00 00 00 00 00 00
       0.0 0.0 0.0 0.0
000320 00 00 00 00 00 00 00 00 00 00 00 00 00 00 00 00
       0.0 0.0 0.0 0.0
000330 00 00 00 00 00 00 00 00 00 00 00 00 00 00 00 00
       0.0 0.0 0.0 0.0
000340 00 00 00 00 00 00 00 00 00 00 00 00 00 00 00 00
       0.0 0.0 0.0 0.0
000350 00 00 00 00 00 00 00 00 00 00 00 00 00 00 00 00
       0.0 0.0 0.0 0.0
000360 00 00 00 00 00 00 00 00 00 00 00 00 00 00 00 00
       0.0 0.0 0.0 0.0
000370 00 00 00 00 00 00 00 00 00 00 00 00 00 00 00 00
       0.0 0.0 0.0 0.0
000380 00 00 00 00 00 00 00 00 00 00 00 00 00 00 00 00
       0.0 0.0 0.0 0.0
000390 00 00 00 00 00 00 00 00 00 00 00 00 00 00 00 00
       0.0 0.0 0.0 0.0
0003a0 00 00 00 00 00 00 00 00 00 00 00 00 00 00 00 00
       0.0 0.0 0.0 0.0
0003b0 00 00 00 00 00 00 00 00 00 00 00 00 00 00 00 00
       0.0 0.0 0.0 0.0
0003c0 00 00 00 00 00 00 00 00 00 00 00 00 00 00 00 00
       0.0 0.0 0.0 0.0
0003d0 00 00 00 00 00 00 00 00 00 00 00 00 00 00 00 00
       0.0 0.0 0.0 0.0
0003e0 00 00 80 3f 00 00 00 00 00 00 00 00 00 00 00 00
       1.0 0.0 0.0 0.0
0003f0 00 00 00 00 00 00 00 00 00 00 00 00 00 00 00 00
       0.0 0.0 0.0 0.0

lstm.weight_ih_l0 f4 [128, 61]
000000 84 79 1d bf a6 da 2e 3e 0a 02 c2 3d 5e cd 03 be
       -0.61513543 0.17075595 0.09473045 -0.1287131
000010 c9 d8 74 3d b9 04 c2 bd ec 9b 9b 3a 59 c5 35 3d
       0.059777055 -0.09473557 0.001187203 0.04437766
000020 56 ea 18 3d da 20 8c bd 24 38 95 bc d8 8c 25 ba
       0.037332855 -0.068422034 -0.018215246 -0.0006315238
000030 56 bf 5b bd b0 b5 89 3d 27 be ac 3e 6c e4 a0 3f
       -0.05364927 0.06724107 0.33738825 1.2569709
000040 eb b5 4d 3f ef 48 33 3f d8 35 82 bf ed e0 c7 3d
       0.8035571 0.7003316 -1.0172682 0.09759698
000050 83 5c ab 3e 7b 7c 88 3f 5d 67 1c bf b0 db df bd
       0.33469018 1.0662988 -0.6109522 -0.10930574
000060 b3 6b f0 3c 3c ef 85 3c df 7a 1b bf 2e 77 3c be
       0.02934823 0.016349427 -0.6073436 -0.18404838
000070 3a 02 81 3f 64 6d 45 be d2 1e 6e 3d d3 c7 03 bf
       1.0078804 -0.1928001 0.05813486 -0.5147678
000080 01 f5 f8 be 51 bc cd be 80 2e 6d be 34 ae 89 3d
       -0.48624423 -0.40182737 -0.2316227 0.0672268
000090 80 1c cd bd a9 aa fb bd 42 05 c1 bd 2b 1b f9 be
       -0.100152016 -0.1228841 -0.09424831 -0.4865354
0000a0 d3 b3 4a 3c 35 03 9d 3d 2e f9 04 bc 63 d7 62 3d
       0.012371975 0.07666627 -0.00811605 0.05538119
0000b0 51 e1 34 3d 16 28 b0 3b 45 dd ff bc e7 3e 5c 3d
       0.04416019 0.0053758724 -0.03123344 0.053770926
0000c0 c6 ac f4 bd 06 93 89 bd 72 c3 a9 bd d3 24 93 3d
       -0.119470164 -0.067174956 -0.08289231 0.07184758
0000d0 19 45 5d bd 83 78 a8 3d 04 37 62 3d cf 47 23 3d
       -0.054020975 0.08226111 0.05522825 0.039863404
0000e0 d7 8b dd 3c 38 89 ba bb c8 85 b3 3d 48 a2 84 be
       0.02704422 -0.0056926273 0.08765751 -0.2590506
0000f0 bf 65 72 3c 54 1a 55 3e 49 bc 14 be 75 a8 34 bd
       0.014794766 0.20810825 -0.1452495 -0.044105966
000100 50 48 a7 3c 0f 02 ac bc a2 a5 29 3d aa c5 de bb
       0.020420223 -0.020997075 0.041417725 -0.0067984657
000110 ba ab bd 3c f1 b1 5e bd b0 00 7e bd 8c ff 90 bc
       0.023153175 -0.054368917 -0.062012374 -0.01769998
000120 36 83 01 3d 28 84 06 bd 03 5d a7 3c 91 b8 4f bd
       0.031619273 -0.032840878 0.020430094 -0.050713126
000130 69 1f 22 3f fa 24 43 3d 65 83 2a be b2 01 83 be
       0.6332918 0.047642685 -0.16651686 -0.2558723
000140 e4 2a 1d be 01 c8 d9 bb bb c6 2f 3e 28 f5 f8 bc
       -0.15348393 -0.006646157 0.17165653 -0.030390337
000150 db 77 0f bf 95 81 10 3f c9 f0 d1 3e 70 74 0e bf
       -0.5604226 0.56447726 0.41004017 -0.5564642
000160 66 1a bf 3d 7a 90 7f bf 3b b5 a1 3b e6 ae b5 3d
       0.09331207 -0.9982983 0.0049349344 0.0887125
000170 14 fc ac 3e 97 fb 1c 3d 48 71 f1 3d e7 c8 18 bf
       0.3378607 0.038325872 0.11789185 -0.5968155
000180 b5 f3 8c 3e 49 64 91 3d 1b b6 d4 3d dc c0 71 bb
       0.27529684 0.07099206 0.10386296 -0.0036888635
000190 40 1a 17 3f 03 1e 5c bd b8 fa c9 bc f6 97 26 bd
       0.5902443 -0.05373956 -0.024655685 -0.040672265
0001a0 23 dd 28 bd 03 d7 ac bd 55 35 b3 3d 3a 1c d5 bc
       -0.041226517 -0.08439448 0.08750407 -0.026014436
0001b0 b2 41 35 bd d4 37 0d be 93 25 af 3d 5e bd ba 3b
       -0.044252105 -0.13790828 0.085520886 0.005698844
0001c0 d9 e9 8b bd 5f 95 5c bd 6e 54 85 3d 69 0a 17 3c
       -0.06831712 -0.05385339 0.06510244 0.009218791
0001d0 94 0e 94 bd 14 a5 a8 bd fb 2c 2a 3d 42 6a 2e bd
       -0.07229343 -0.08234611 0.041546803 -0.042581804
0001e0 c7 04 75 3d 44 6b f7 3c 00 fd 9e 3e c3 5e a6 3e
       0.05981901 0.030202515 0.310524 0.32494172
0001f0 72 40 23 3e a4 34 58 3d f5 2b cd bc b6 7e 8f 3d
       0.15942553 0.052784577 -0.025045374 0.0700659
000200 b3 fe 82 3d 59 e5 82 bc c8 61 00 3d fa b7 12 3d
       0.06396236 -0.015978502 0.03134325 0.035819985
000210 fc 5a dd bc 35 94 2e bc 71 a6 aa bd 1a 14 10 bb
       -0.027020924 -0.0106554525 -0.083325274 -0.0021984638
000220 69 f3 99 bf 2b ff 43 be 8b 3e 91 bf 6f b7 33 be
       -1.2027408 -0.19140308 -1.1347212 -0.17550443
000230 7b 79 ab 3d 5b fb 72 bd 80 df 46 3f 24 73 ec be
       0.0837278 -0.059321743 0.77684784 -0.46181595
000240 fa 82 27 3f a9 af 28 3c 17 f9 26 be fd 13 c0 3e
       0.6543423 0.010295787 -0.16305958 0.3751525
000250 e5 91 52 be 36 21 1d 3f bb 6a 05 bf a6 da b0 3d
       -0.20563467 0.613788 -0.5211598 0.08635454
000260 2e b4 23 3c c9 ad c3 be 8a 49 0e be e8 8e 82 3f
       0.009991689 -0.38218525 -0.1389524 1.0199862
000270 3d 7b 36 bf 45 f5 20 3f ef 20 0c bf 77 92 7c 3d
       -0.71281797 0.6287425 -0.5473775 0.061663117
000280 88 7d 6d 3d 80 65 64 3d dd 76 1d 3d b7 e3 6b 3d
       0.057981044 0.05576086 0.038443435 0.057590213
000290 1a de af bd 0b 51 81 3d 4b bb 03 3c 03 cc dd bc
       -0.085872844 0.06314286 0.00804026 -0.02707482
0002a0 35 0b e2 bc bc 12 e0 3c b2 b4 ae bd 19 ee 22 bd
       -0.027593235 0.027352683 -0.08530559 -0.03977785
0002b0 c7 8d 92 bd dc 21 ff bc af e5 66 3d 3e 31 11 bc
       -0.07155948 -0.031144075 0.056371387 -0.008861838
0002c0 3f a9 98 3d c8 87 19 3d 56 55 ad 3d 17 36 cf 3a
       0.07454156 0.037483007 0.08463542 0.0015808967
0002d0 05 1c 94 3d 95 dd 03 3e ad e0 4b bd e2 90 4e 3f
       0.07231907 0.12877496 -0.049774814 0.80689824
0002e0 8f d2 bd be ff 8a ec 3e eb e4 8d bd 4f e6 3b 3d
       -0.37074706 0.46199796 -0.06928428 0.045873936
0002f0 f5 c4 b6 3c d0 f8 87 3d 18 d7 d3 3b 13 ba 71 3d
       0.022310713 0.06639254 0.00646485 0.059015345
000300 b1 e1 87 bd d6 d6 a8 3d e8 ca 96 bd 11 1b 3c 3d
       -0.06634844 0.08244102 -0.0736292 0.04592425
000310 15 58 82 bc 34 db 19 3b c4 ee ea 3d 21 c8 73 3f
       -0.015911141 0.0023476603 0.11471322 0.9522725
000320 d6 c3 a1 be 4c 4d 83 be 2c f8 51 3e 4c cc a3 bc
       -0.31594723 -0.2564491 0.20504826 -0.019994877
000330 63 52 c4 be 35 8d 42 bf f3 4a d4 be 71 24 53 be
       -0.38344106 -0.75996715 -0.41463432 -0.2061937
000340 17 58 f1 be fe d4 29 3e f4 77 7b bf e0 c8 a5 bf
       -0.4713752 0.16585156 -0.9822991 -1.2951927
000350 34 2d a5 3e 2d 7b 4e 3d 2b aa f4 be 35 45 d2 bd
       0.3226105 0.05041044 -0.47786078 -0.102671064
000360 7d 95 e1 3d 50 48 ad 3f 1c 3b cd 3e 4c 06 8c 3f
       0.11014841 1.3537693 0.4008416 1.0939422
000370 e1 f3 94 3d e6 ba 00 bd 9c 9e 82 3d f4 62 67 bd
       0.07273079 -0.03142824 0.063779086 -0.056490853
000380 19 0a a0 3d 9c 9c 97 bd bb 92 3e 3d 35 ee a8 bc
       0.07814426 -0.07402918 0.04652665 -0.020621398
000390 5d cd f5 bc 78 31 d8 bc 56 32 86 3d 3b 9b 47 bd
       -0.030005151 -0.026390776 0.065525696 -0.048732024
0003a0 ad c3 8d bd ee 4b b8 bb 75 89 ae bb 35 3e d2 bc
       -0.06922088 -0.005624286 -0.0053264447 -0.025664428
0003b0 9f cf 2b 3d 05 34 9a 3d ad 82 1c bd e4 18 dd bc
       0.04194605 0.07529453 -0.03821056 -0.026989408
0003c0 97 4d 2f 3c b2 5f 34 3d ea 3c 46 3e b8 9b 22 bd
       0.010699651 0.044036575 0.19359174 -0.039699286
0003d0 dd 8a 0b 3f 07 7d c0 3e cb 7f 5b 3e 1b 2c d1 3d
       0.54508764 0.37595388 0.21435468 0.102134906
0003e0 5d 41 00 3d ee df 2f 3c 64 7b c6 bc 67 00 07 3d
       0.031312335 0.010734541 -0.02422876 0.032959368
0003f0 c2 55 18 3d 63 33 0f 3d ae 6e 21 3d 5f df e3 bb
       0.03719116 0.034961116 0.039412193 -0.006954118

lstm.weight_hh_l0 f4 [128, 128]
000000 00 c1 17 bd f2 b6 1c 3e dd 1a fd 3d 9a 08 ff bd
       -0.037049294 0.15304163 0.123586394 -0.124528125
000010 dd ff d5 bd 3c e8 8a 3e e6 ea 44 3d 1f 83 d1 bd
       -0.10449193 0.27130306 0.04807558 -0.102300875
000020 50 24 50 bc 11 b2 52 3e 59 48 3a 3e ad 70 54 3c
       -0.01270397 0.2057574 0.18191661 0.012966317
000030 09 e1 ad bd 43 1d 92 bd cf 11 64 3c 90 67 27 3e
       -0.08490188 -0.071344875 0.0139202615 0.163481
000040 43 8d 3f 3e 9d 29 42 3e 7e 5f db bd a3 2b ad 3d
       0.18706231 0.18961187 -0.10711573 0.08455589
000050 44 d7 0a bd 75 89 eb bc 10 88 07 be 49 9d 81 3b
       -0.0338967 -0.028752068 -0.13235497 0.0039555174
000060 64 fc f1 3c fe be 38 bd 83 4f 42 3e 2f ac b6 bd
       0.029539295 -0.04510402 0.18975644 -0.0891956
000070 64 3f 91 bd 0d 80 e0 3d f4 aa 2d 3d 99 d8 43 bd
       -0.07092169 0.10961924 0.04239936 -0.047813985
000080 37 6c 12 bd 9d 93 8b 3c d2 ee 44 be 6f 7a 80 bc
       -0.035747733 0.017038161 -0.19231728 -0.01568338
000090 7d 99 35 be 92 6b 09 be ce 90 34 3d 79 4d d2 3d
       -0.17734332 -0.13419941 0.04408341 0.10268683
0000a0 35 1b fa 3b 72 09 d9 bc 33 de b0 bd f3 68 05 3e
       0.007632638 -0.026493762 -0.08636131 0.13028316
0000b0 7e 17 9c 3e 2d 50 8a 3d ed 42 26 bd 31 fd ec 3b
       0.30486673 0.067535736 -0.04059117 0.007232331
0000c0 1a 11 39 be b1 ea a0 3d 3a ee 63 bd bf 2d 44 be
       -0.1807293 0.07857264 -0.055647112 -0.19158076
0000d0 0e aa bf bc 8f 53 a1 be 95 4e 03 bd b2 1e 5d be
       -0.023396518 -0.31509063 -0.032057364 -0.2159374
0000e0 80 1e 47 3d f1 31 2f be e3 2a 28 3e 89 93 3a 3e
       0.04861307 -0.17108895 0.1642261 0.18220343
0000f0 98 67 9a 3c 97 f6 d9 3c 55 73 01 3d 55 50 b5 be
       0.018848225 0.026606841 0.03160413 -0.3541285
000100 f1 30 b1 bd 60 3f 07 ba 35 6b 67 3d 07 b3 ff 3c
       -0.08651913 -0.0005159285 0.056498725 0.031213297
000110 6f 8e a8 3d fd 16 6e bc 80 9f a4 3d f3 d8 26 3e
       0.08230292 -0.014531848 0.08038235 0.16293697
000120 d1 ba 36 be 21 cf 38 be 31 b4 91 bd 79 a7 89 3e
       -0.17844702 -0.18047763 -0.07114447 0.26885584
000130 0d 65 1c 3d 09 c5 7b 3d 3e ea a3 3c 0c 54 39 be
       0.038182307 0.061467204 0.020009156 -0.18098468
000140 8f ae 76 3e 08 31 34 bd 7a b4 53 be 51 03 91 bd
       0.24090026 -0.043992072 -0.20674315 -0.07080711
000150 a3 ee 70 3e 41 ed 4d 3e 54 b1 d6 bc 67 a1 ab bd
       0.23528533 0.20110036 -0.026207604 -0.083803944
000160 cc 39 dd 3c 39 ad a9 3d 6e 37 2f 3e 99 3d 45 3d
       0.027005099 0.08284993 0.17110988 0.048154447
000170 d3 72 4d 3e a8 da e0 37 02 a6 28 3d 4f 1d c5 bc
       0.20063333 2.68047e-05 0.041173942 -0.024061827
000180 19 89 ba 3d db 5d 81 bd 52 d3 16 3d a2 92 09 bd
       0.091081806 -0.0631673 0.036822625 -0.033587106
000190 9e 7f d7 bd 99 45 2c 3e a5 03 c5 bd dd f3 c8 3d
       -0.10522388 0.16823424 -0.09619836 0.09812138
0001a0 2d 35 02 3e 57 20 0e 3e 83 ca 81 bd 80 35 2e 3e
       0.12715597 0.13879524 -0.06337454 0.17012596
0001b0 69 fe a2 3c 5b 09 4c bd 7e 61 41 3d c6 66 5b be
       0.019896703 -0.04981361 0.047212116 -0.21425924
0001c0 f5 98 1d 3d 1f 64 02 be 82 11 65 3e 16 96 13 3e
       0.03847595 -0.12733506 0.2236996 0.14412722
0001d0 c8 87 fc bd 99 28 8a bd 36 05 0b 3c dc d3 bc 3c
       -0.12330586 -0.06746025 0.008485129 0.023050241
0001e0 d2 4a 26 3e 80 9d 7f bd ba aa d4 bc 79 77 d2 bd
       0.16239479 -0.062406063 -0.025960315 -0.10276694
0001f0 37 78 0c be 90 42 88 bd 44 f9 53 3e c7 b1 39 3d
       -0.13717733 -0.06653321 0.20700556 0.045335557
000200 ac ac b6 bd 49 9b b7 bd c6 cf 76 bd 68 59 11 3d
       -0.08919653 -0.08965165 -0.060256742 0.035485655
000210 0f 44 d8 bc ad 89 dd bd fb dc 1b bd 29 cc 43 3d
       -0.02639964 -0.10817275 -0.03805254 0.047802124
000220 41 f9 05 3d 2d 9d 95 b8 e0 77 8b bd 95 56 fd 3c
       0.03270841 -7.13415e-05 -0.06809974 0.030925075
000230 2b 56 ae bc d1 26 26 be 5a a4 b5 3c 66 3f 9c bd
       -0.021281322 -0.16225745 0.022173095 -0.0762928
000240 4c 8c 1c 3e 80 b8 21 3d 7c 0e 67 bc 96 59 e4 bb
       0.15287894 0.039482594 -0.014102574 -0.0069686873
000250 e3 5a 10 3d da 84 74 bd 9c 19 fc 3d 5a 15 0c 3e
       0.035242926 -0.05969701 0.12309572 0.1368002
000260 b9 4c 00 be 48 5d 40 3d 5d 0a ed bc 4e 20 1f 3c
       -0.12529267 0.04696396 -0.028935606 0.009712292
000270 66 40 ba 3d 25 f6 b5 bd 35 ea ad bd 49 25 36 bd
       0.09094314 -0.08884839 -0.08491937 -0.04446915
000280 ed 54 f0 3d 2f 20 57 bd 64 b4 34 3e 2f b4 f5 3d
       0.11734948 -0.052520927 0.17646939 0.11997258
000290 6b 51 2e bd ef 8a 7b bd a4 f2 1d 3d a9 9d 57 bc
       -0.042558115 -0.061411794 0.03856148 -0.013160148
0002a0 c7 0c bb bd 8f 6f a9 3d c7 fd 35 bc 4e 9a 1c bc
       -0.091332965 0.08273231 -0.0111078685 -0.0095582735
0002b0 f0 76 f4 bd 79 42 da bd 29 3e fb 3d f1 ea 21 3d
       -0.11936748 -0.1065721 0.122677155 0.0395307
0002c0 5e 6f d7 3c 69 e8 78 3c f7 ac d5 bd a6 5d c2 bd
       0.026298221 0.01519213 -0.10433381 -0.09490518
0002d0 1f 5a b5 3d 21 30 c8 bb 74 87 9a 3d fc 87 dd bc
       0.0885508 -0.006109253 0.07545367 -0.027042381
0002e0 6f d4 3c 3d 97 a7 93 3d 9e f1 ab bd 6b 12 91 bd
       0.04610103 0.072096996 -0.08395694 -0.07083591
0002f0 0b 84 f5 3d 82 fc fa 3d 8f 83 2f bd 23 53 51 3e
       0.11988076 0.12255193 -0.042850073 0.2044187
000300 12 49 b8 3d b8 4b 21 3d cc ae 68 bd 36 82 ac be
       0.08998312 0.03937885 -0.056807324 -0.33693093
000310 86 22 18 3d b7 af 44 bb d1 03 b0 3d 83 5f 44 3d
       0.0371423 -0.003001196 0.08594478 0.04794265
000320 20 ea 0e 3d 94 99 3d bd 27 70 00 be 85 d6 af bd
       0.034891248 -0.04628904 -0.12542783 -0.08585838
000330 d7 03 b2 bd a1 c1 cd bd 27 d2 07 be 67 b7 f1 3d
       -0.08692139 -0.100466974 -0.1326376 0.11802559
000340 4f 50 97 3d 60 49 a3 3d ec 86 b9 3d 93 35 5d 3d
       0.073883645 0.079729795 0.090589374 0.05400617
000350 ca 8d 34 3e 9f 0c 6f 3e 08 78 55 3d 19 f7 79 3d
       0.17632213 0.23344658 0.052116424 0.061026666
000360 32 26 2b be 10 47 05 3e 2c ec 6a 3c 56 66 ff 3d
       -0.16713789 0.1301539 0.014338534 0.12470691
000370 2a eb da bd b0 a9 97 3d ca 03 6b 3d c0 e7 ce 3d
       -0.10689385 0.07405412 0.05737666 0.101027966
000380 54 75 4f 3d 5f 86 83 bc 61 65 a0 3d 7c cc 0f bb
       0.050649002 -0.016055284 0.078318365 -0.002194195
000390 81 db 17 3d ba 5d 6b bd d5 b0 82 bc 3e 7e b7 bd
       0.03707457 -0.05746243 -0.01595346 -0.08959626
0003a0 5f 99 aa 3d ac f8 8d bd 9f ed 45 3d c2 0a 2f be
       0.083300345 -0.06932196 0.048322316 -0.17093948
0003b0 81 1a c8 bc be f6 47 be de a0 0a bd ad cc 58 3c
       -0.0244267 -0.19527718 -0.03384482 0.013232392
0003c0 a9 97 8d bd 45 0f 5d bd a1 91 5a bd 94 71 eb 3c
       -0.069136925 -0.05396964 -0.05336154 0.028740682
0003d0 c0 58 73 3d 61 c5 0e bd 67 64 79 bd e7 68 b8 bd
       0.05941081 -0.034856204 -0.060886767 -0.090043835
0003e0 da db 83 bb 80 25 85 3d 1b 7f 3b 3e ac be cd 3c
       -0.004024011 0.06501293 0.18310206 0.025115333
0003f0 06 2f 13 bc 2d 98 1e bd e4 87 e5 bc 00 9c 53 3c
       -0.008983379 -0.038719345 -0.0280189 0.012915611

lstm.bias_ih_l0 f4 [128]
000000 ba 3b 7c 3e 03 4d 10 3e aa 88 cf bc f3 bd 1d 3d
       0.24632159 0.14091878 -0.025333721 0.038511228
000010 7e 23 b8 bd 84 3f a6 3d 79 18 d9 3d e9 fe cb bd
       -0.089911446 0.081175834 0.10600371 -0.0996073
000020 37 74 14 3e 3f 0a a8 bb 7e 54 7b be a8 0b ef bd
       0.14497457 -0.0051281746 -0.2454395 -0.11672145
000030 4b 27 e8 be 02 df 90 be ed ea cc 3a 3d 86 fc 3b
       -0.45342478 -0.2829514 0.0015633978 0.007706432
000040 fd ae 99 be 4a 51 c4 3d c7 72 72 3c c6 f2 0d 3e
       -0.30016318 0.09585817 0.014797873 0.13862142
000050 bd e6 d6 ba 0b 93 35 be db 15 73 bd 99 62 8e bc
       -0.001639567 -0.17731874 -0.059347015 -0.017381
000060 c6 4a 0a be 5c 24 42 be c1 d4 92 3e 24 98 49 3d
       -0.13505086 -0.18959183 0.28677943 0.04921736
000070 37 da 23 bc e3 c5 1d 3e 0a 8a 56 be 3c 73 36 3e
       -0.010000757 0.15407519 -0.20951095 0.17817396
000080 2f 0f 65 3d c3 e5 e5 bb 19 15 ef bd b4 12 19 3e
       0.055922683 -0.007015915 -0.11673946 0.14948541
000090 a7 95 d7 3e 88 55 a6 3d 54 68 2e be a3 4c 7e be
       0.42106363 0.081217825 -0.17031986 -0.24833922
0000a0 86 e3 2a 3e e6 f8 40 3e e2 de d4 3d 5e c3 c7 3e
       0.16688356 0.18844947 0.10394074 0.3901624
0000b0 13 28 90 bd 62 4c 99 be fb 7b 8e bd be 7e 8c 3b
       -0.070388936 -0.29941088 -0.06957241 0.00428757
0000c0 cb da 6e be 31 67 46 3e 4c 7b fb bc 9d 8d 11 3d
       -0.2332565 0.19375302 -0.030698441 0.035535444
0000d0 ae df 65 3c a7 8b ac 3d 0b 58 56 bd 77 ca bc 3d
       0.01403038 0.08425074 -0.052330058 0.092183046
0000e0 cf 61 93 3c 1c bd 43 3d 01 fc 00 bd eb 0d 6d 3e
       0.017990975 0.04778777 -0.03149033 0.2314984
0000f0 66 17 8f 3e 91 75 42 3e 15 f6 a2 bd 45 7c 53 3d
       0.2794754 0.1899016 -0.07957093 0.051632185
000100 fb 0b a2 bd d5 bc 94 3c 82 12 0c be 26 12 d8 3d
       -0.07912441 0.018156448 -0.13678935 0.105503365
000110 bb b5 a3 3d 2c 8a 7a 3d 3a c5 4b bd 02 46 15 3e
       0.07993647 0.061166927 -0.049748637 0.14577487
000120 c4 e9 e7 bc ac 81 2a bb dc 33 7d be 57 3e 77 be
       -0.02830971 -0.0026017232 -0.24726814 -0.24144875
000130 2f 53 8c 3d d9 35 47 3e 9f 8e 8c be 03 37 14 3d
       0.068518035 0.19454135 -0.2745256 0.036185276
000140 89 82 f0 bc 77 24 05 3e 09 4c f1 39 06 29 ca 3d
       -0.029359119 0.13002191 0.00046023753 0.09871106
000150 6f 20 a0 bd 8d 82 07 3e 5a e7 a0 bd d0 2d 07 be
       -0.07818686 0.13233395 -0.07856627 -0.1320107
000160 a6 eb d2 3c e6 b2 d1 3c a3 43 79 3e d5 73 ce bd
       0.025747132 0.025598 0.24342208 -0.10080687
000170 e2 0f db 3c 75 fe f3 bd 4f 84 c7 bc af b5 ea 3d
       0.026740972 -0.11913768 -0.024355082 0.11460435
000180 69 27 15 3d 02 9b 0a 3d dd 80 dc bd fe af cc 3d
       0.036414538 0.033839233 -0.10766766 0.09994505
000190 ef 03 2d 3d 3e 74 24 3e b0 1f 2b 3d 55 a3 68 3d
       0.04224008 0.16059968 0.041778266 0.05679639
0001a0 c2 b7 b0 3d 90 fc d9 bd e8 a3 2e 3d 72 da 89 bd
       0.08628799 -0.106438756 0.042636782 -0.06731118
0001b0 d2 97 6f be 0c 98 12 3e 85 14 eb 3c 76 c3 47 be
       -0.23397759 0.14315814 0.028696308 -0.19508156
0001c0 33 23 4b 3d e5 87 06 3c 44 86 36 3d 37 28 a4 3d
       0.049594115 0.008211111 0.04456164 0.08015483
0001d0 ea 8b 55 3d e2 e0 d1 3c 7d 79 33 bc d5 57 13 be
       0.052135386 0.025619928 -0.010954258 -0.14388974
0001e0 fa c2 a1 bd 99 42 08 3e c7 d3 16 3e ad a5 ad 3d
       -0.07898517 0.13306655 0.14729224 0.08478866
0001f0 4c 7b 3a 3e e9 89 53 3d 9d b4 c4 bd 78 2c df 3c
       0.18211097 0.051645193 -0.09604762 0.027242884

lstm.bias_hh_l0 f4 [128]
000000 c7 33 03 3e 9c 86 35 3e e3 c2 9e bd 00 4a 4e bc
       0.1281272 0.1772713 -0.077520154 -0.012590885
000010 bf b1 67 3c 8e 18 ae bc 99 2e 67 3d e4 e2 37 be
       0.014141499 -0.021251943 0.056440923 -0.17957646
000020 6f 31 35 3d a7 36 92 bd a4 c5 57 be 70 8d 2b be
       0.044236597 -0.0713933 -0.21071488 -0.16753173
000030 58 c1 e4 be fd 5f a7 be aa 86 d3 bd 80 a9 ba bd
       -0.4467876 -0.3269042 -0.103284195 -0.09114361
000040 bb fb 6c be a6 ad 39 3e f8 17 ed bd 83 c9 11 3e
       -0.23142903 0.18132648 -0.11576837 0.14237027
000050 f4 9b 14 be 51 ed 03 be 77 af 27 be f4 79 1a be
       -0.14512616 -0.12883498 -0.16375528 -0.15085584
000060 3e b5 bb bd e2 76 5d be 58 05 43 3e 9e cc ce 3c
       -0.091654286 -0.21627381 0.19045007 0.025244053
000070 79 49 89 3c b3 18 45 3e cb 64 82 bd 2f 4f 87 3e
       0.016758667 0.19247703 -0.06366881 0.264276
000080 5b 65 b4 3d 72 61 7e 3d 15 07 f8 3c 19 6c 1b 3e
       0.088083945 0.06210465 0.030276814 0.15177955
000090 2e 85 b6 3e d0 fb 15 3e 0d d2 35 bd a0 da 32 be
       0.35648483 0.1464684 -0.044389773 -0.17466211
0000a0 93 18 bf 3d d9 48 5b 3e c8 3f a5 3b ab 17 cb 3e
       0.09330859 0.21414508 0.0050430037 0.39666495
0000b0 83 5c 2b be 76 d7 97 be 68 9b 0a be 81 1d d3 bd
       -0.16734509 -0.2965657 -0.13535845 -0.10308362
0000c0 84 d2 8f be a1 39 48 3e 2d 26 3f bc 89 60 26 3d
       -0.28090298 0.19553234 -0.011666817 0.040619407
0000d0 0a 5d bc bd 76 60 f8 3d 55 c5 7c bd 74 a8 e9 3d
       -0.09197433 0.121277735 -0.061711628 0.11409083
0000e0 16 53 b0 bc b8 f2 a9 3d a2 23 7f 3d 38 d2 9c 3e
       -0.021523993 0.08298248 0.06228984 0.30629134
0000f0 a8 b6 20 3e 3a f6 42 3e 21 ed 11 bd f7 5d a7 bc
       0.15694678 0.1903924 -0.035626534 -0.020430548
000100 f5 a2 60 bd a7 70 de bb 82 cc d3 bd 87 e8 43 3d
       -0.054842908 -0.0067883315 -0.10341741 0.047829177
000110 28 0a 24 3e d3 6f 07 3e 8b 23 34 be 99 4a d2 3d
       0.160195 0.13226251 -0.17591684 0.102681346
000120 3c 32 07 3b 90 6d 2a bc 95 cd 79 be 4f 70 1c be
       0.0020629307 -0.010402098 -0.2439483 -0.15277217
000130 3e 07 90 bd 54 a8 82 3e 3a e4 97 be 8d 4c 32 bc
       -0.07032631 0.2551905 -0.2966631 -0.010882509
000140 45 d7 a9 3d 7c fd 52 bc 0e 34 15 bd b2 9f 08 3e
       0.082930125 -0.012877818 -0.036426596 0.13342169
000150 8c d6 2d be de de fe 3d 6e 00 32 be 75 2b 8f be
       -0.16976374 0.12444852 -0.17382976 -0.27962843
000160 5e aa ed 3c c6 53 2e 3e 67 06 d7 3d 61 9a e0 bd
       0.029011901 0.17024145 0.10499268 -0.109669454
000170 79 d7 01 be c8 17 81 bd 19 e1 79 bd d6 21 28 3d
       -0.12679853 -0.06303364 -0.061005685 0.041047893
000180 f7 7a 2b 3d bd 48 56 bc 33 14 87 be ba 5b ed 3d
       0.041865315 -0.013078866 -0.26382598 0.11589761
000190 02 eb b7 3d d6 49 8e 3d 25 d3 b7 3d 7d 81 ef 3d
       0.08980371 0.06947677 0.089758195 0.1169462
0001a0 b4 57 07 3d b1 ff 9d bd 47 7e 10 3d 28 9c 02 3d
       0.033042625 -0.07714785 0.035276677 0.031887203
0001b0 95 c8 ef bd e8 74 e7 3c 19 22 e0 bd 05 d5 c8 bd
       -0.1170818 0.028253987 -0.109440036 -0.09806255
0001c0 a9 e6 bd 3d fe bb 04 bd d2 37 7a bc 3b 5c 30 3c
       0.092725106 -0.032405846 -0.015272098 0.010764177
0001d0 88 80 b5 bc 59 8e 8a bd ee 82 b5 3c 44 8b 0e be
       -0.022156015 -0.06765432 0.022157159 -0.13920313
0001e0 28 3b 28 3d 76 8e e0 3d 7c 58 f7 3d 06 40 45 3e
       0.04107204 0.10964672 0.12077424 0.19262704
0001f0 39 10 2b 3e 5f 12 58 3d c5 a6 8a 3d 62 1a 08 ba
       0.16705407 0.052751895 0.0677009 -0.00051919196

final.weight f4 [61, 128]
000000 e2 2b 5a 3d 40 69 8f bb 1f 78 ee bd 63 50 b6 bd
       0.053264506 -0.0043765604 -0.11644005 -0.08902051
000010 de b3 7d 3b 6b 37 9c 3e 17 58 d5 3d 62 d8 80 3d
       0.0038711946 0.3051103 0.104171924 0.06291272
000020 93 08 47 3e b9 b9 1c 3e 2f 75 b9 3e 3a 55 0b bd
       0.19436865 0.15305223 0.36222216 -0.034016825
000030 24 b4 e8 be 95 cd a8 3d 62 f2 e1 3e b5 3f 66 3e
       -0.45449936 0.08242337 0.44130236 0.2248524
000040 85 43 bf 3e d0 33 50 bd 8f 51 a6 be dd 39 34 3e
       0.373562 -0.050830662 -0.324841 0.17600198
000050 ca cc e3 bd f9 60 b6 3d be d9 fe be ed 80 4f 3c
       -0.11123045 0.08905215 -0.497755 0.012665016
000060 16 19 c7 be cc ec 95 bd c9 ab 3e 3d b1 60 12 bd
       -0.38886327 -0.07320556 0.046550546 -0.035736743
000070 2f 8f 17 3e fe ba 95 bd 02 42 13 3f 0d 61 88 bd
       0.14800714 -0.073110566 0.57522595 -0.06659136
000080 61 56 1d bb 39 d8 2e 3e 5d c7 b2 3c 34 ad bb 3d
       -0.0024007785 0.1707467 0.02182358 0.09163895
000090 10 96 e0 3d ff fb 2d 3e 15 18 26 3e a3 86 18 bd
       0.10966122 0.1699066 0.16220124 -0.037237775
0000a0 4f 7e 36 3d 93 80 68 3d 5a f8 58 3e 64 b9 b0 3d
       0.04455405 0.056763243 0.21188489 0.086291105
0000b0 c2 41 36 be 84 88 97 3c 8e af 57 be d8 39 90 be
       -0.17798522 0.018497713 -0.21063063 -0.2816913
0000c0 f0 3b 1f bd 7e 69 c2 3c ff 42 e9 bc 42 a6 9c 3e
       -0.03887552 0.023731943 -0.028474329 0.30595595
0000d0 d4 f5 3a bd 47 f6 ed 3d ee 30 9d be 78 9b a9 3b
       -0.045644596 0.11619239 -0.30701393 0.005176004
0000e0 28 eb 04 bd 35 2b 65 3e cb 64 b6 3d 1a 6a ac 3e
       -0.032450825 0.22379763 0.089059435 0.336747
0000f0 33 33 e6 3e ed bc 05 3e bf e6 3b bd ee e1 3a 3e
       0.44960937 0.1306035 -0.045874353 0.18250248
000100 e6 fe 95 be d8 14 ec 3d 61 d9 70 be 8c 90 51 be
       -0.29296035 0.11527413 -0.23520423 -0.20465297
000110 c0 4d 46 3e f6 f0 93 be 7f 39 e4 3e de 61 b1 3d
       0.19365597 -0.28894776 0.44575116 0.08661245
000120 61 7c 4c be f6 f3 f4 bd 84 09 cf 3d 65 48 5e be
       -0.19969322 -0.11960594 0.10109237 -0.21707304
000130 0a 7b 04 3d fc 06 b8 3d 4d 87 09 3e 22 8d 77 3e
       0.0323439 0.08985707 0.1343052 0.24174932
000140 88 f4 7d be 90 9b 80 3e 0a 70 d4 bd f6 ac 10 be
       -0.24800313 0.25118685 -0.10372932 -0.1412848
000150 82 77 c4 be e4 fc 0d bf 4d d9 c5 be 6c 9f ca bd
       -0.38372427 -0.55464005 -0.3864235 -0.098936886
000160 ac 77 ad 3e 5e b0 35 bc 87 43 02 3e e8 2e 7a be
       0.33880365 -0.0110894125 0.12721072 -0.24431956
000170 59 f2 62 be d1 17 77 3e 16 30 81 3e 5f a3 93 3e
       -0.22162761 0.24130179 0.25232 0.2883558
000180 d9 fc 68 3e 02 89 22 be b4 20 94 be 89 1e fa 3d
       0.22752704 -0.15872577 -0.289312 0.12212855
000190 53 d6 93 3d de d3 94 3c 54 e6 f8 3e f8 b3 d3 bd
       0.072186135 0.018167432 0.48613226 -0.10337061
0001a0 2d 55 3f 3d c9 e1 5c 3e 02 a0 4c be 40 3b 8e be
       0.04671209 0.21570505 -0.19982913 -0.2777958
0001b0 c7 b3 0f be 96 e0 3a bc 4d 56 5b 3e 9f 73 63 be
       -0.14033423 -0.0114060845 0.2141964 -0.22212075
0001c0 00 f7 e1 bc 21 31 4e be a5 57 05 3f be 74 2f 3e
       -0.0275836 -0.20135929 0.5208686 0.17134377
0001d0 e3 5c 6b 3e f9 50 69 be d2 92 0b bd 3e ba 17 be
       0.22984652 -0.22784795 -0.034075566 -0.1481714
0001e0 71 49 49 3e 0f b5 4c bd 08 b9 2d 3c 6a b1 89 3e
       0.19656922 -0.04997736 0.010603197 0.2689317
0001f0 0f e5 28 3e 1d e8 bd be 2c 12 71 be 65 6e 8d 3d
       0.16493629 -0.3709115 -0.23542088 0.06905822
000200 92 c4 e0 3b 15 5f 01 3e 65 c9 09 bc ad d8 54 3e
       0.0068593705 0.12633927 -0.008409833 0.2078578
000210 8a b5 9e 3d ba 30 0d be 5e c1 36 be 90 0d b2 3c
       0.077494696 -0.13788119 -0.17847201 0.021734983
000220 23 6f d9 bd fb 03 3b 3d 42 0f 89 bd 51 37 93 3d
       -0.10616901 0.045658093 -0.06692363 0.07188285
000230 45 09 9a 3d f6 2c 0b 3d 77 bb 05 3e 33 4d 12 be
       0.07521299 0.033978425 0.13059793 -0.14287262
000240 dc a5 6b 3d 66 64 49 bd a4 18 31 bd 3c 92 81 3d
       0.057531223 -0.049168013 -0.04323639 0.0632672
000250 df 5e 0b 3e b5 1d ce 3d a8 80 8c bd ec 8d 17 be
       0.13610409 0.1006426 -0.06860477 -0.14800233
000260 3e 6c 01 3e 23 18 ff 3d 38 ee ab be 6e 02 8e bd
       0.12638947 0.124557756 -0.33580184 -0.06934057
000270 98 bc 8c be 22 64 2b 3e 3a 17 11 3e 58 18 05 3c
       -0.27487636 0.16737416 0.14169016 0.00812348
000280 18 3f c2 3c b2 3a 17 3d 92 34 05 3e 31 b2 17 bd
       0.023711726 0.03692121 0.13008335 -0.03703517
000290 3e be 66 3c e2 8d 5d 3d c5 84 36 be 06 15 fb 3d
       0.014083443 0.054090388 -0.17824085 0.12259869
0002a0 c8 57 06 3e 0a 8a 82 bd 3c ce 88 be 6f 2b 70 3c
       0.13119423 -0.06373985 -0.26719844 0.014658793
0002b0 46 77 07 bc d6 e5 85 bd 55 52 10 be bd 1b 3b bd
       -0.008268183 -0.06537978 -0.14093907 -0.04568075
0002c0 b5 43 f4 3d b1 4b 91 3d 1b 35 54 3d a8 4f c3 bd
       0.119269766 0.07094515 0.051808458 -0.095366776
0002d0 93 bc ff bd 5e d7 99 be 02 fd 27 3e 23 a2 d7 bc
       -0.124871396 -0.30047125 0.16405109 -0.02632243
0002e0 c6 47 00 be ce 92 ec bd 2d 95 c9 bd ba 2c 26 bd
       -0.1252738 -0.11551438 -0.09842906 -0.04057
0002f0 c4 2f ec bd 23 04 56 be 25 91 ca bd 04 93 03 be
       -0.11532548 -0.20900016 -0.09890965 -0.12849051
000300 7c 49 10 3d 03 f8 12 bd 62 b5 0f 3e 81 07 3a 3c
       0.03522633 -0.035881054 0.14034036 0.011354328
000310 db 75 6e be 7f e3 1f 3e 6b 75 7c 3c 22 24 0e bd
       -0.23287146 0.15614127 0.015408854 -0.034702428
000320 56 5d 80 3d 90 33 01 3e 36 fe 03 bd e7 8f cd 3e
       0.062678024 0.12617326 -0.032224856 0.4014885
000330 82 ae e6 3d 5a 0e a3 3d 4e c6 c8 3c 26 f1 3b be
       0.112637535 0.07961722 0.024508622 -0.1835371
000340 c0 d8 fa bc 39 b2 a4 3d e0 89 6c bc 42 41 d4 3d
       -0.030620933 0.08041806 -0.014437169 0.103640094
000350 7e 87 38 3e dd 16 d2 bd 2c ba eb 3d db 97 71 3e
       0.18020436 -0.10258267 0.11510119 0.23593085
000360 30 de 18 be 90 bb 82 bb 47 ee 56 bd 5c 27 97 bd
       -0.14928508 -0.0039896443 -0.052473333 -0.07380554
000370 c7 36 12 3e d0 b5 b5 3d 06 d3 fa bd a8 2d b9 be
       0.14278708 0.088725686 -0.12247281 -0.36167645
000380 ab 17 e9 3d d8 ec 21 3e de 7e 17 3f ab 13 a0 3c
       0.113814674 0.15813005 0.5917796 0.019540628
000390 7a b7 bf 3d 67 f1 d0 bd f8 8e 48 3e 3f 33 ba 3d
       0.09361167 -0.10202294 0.19585788 0.09091806
0003a0 f2 6c 12 3e 3c cc e3 bc 8a 93 c8 3d ce d5 b7 bd
       0.14299372 -0.027807347 0.09793766 -0.08976327
0003b0 1f 3c f8 3d 12 41 03 3e 3d f1 1e be 63 6d 0b be
       0.12120842 0.12817791 -0.15521713 -0.13615946
0003c0 dc 8e bf 3d 31 f6 44 3e d2 37 9c 3d 1d 82 df bd
       0.0935342 0.1923454 0.076278344 -0.10913489
0003d0 a6 a0 76 be 1b 21 11 3e 45 fa 48 be 38 9d b8 3d
       -0.2408472 0.14172785 -0.1962672 0.09014362
0003e0 03 f4 a1 3d 44 70 c4 3d 21 78 a3 3d ca ea 27 3c
       0.0790787 0.095917255 0.07981897 0.010248849
0003f0 8d 85 bd be de 1c 79 3d 31 2c 17 be b8 f4 ca bd
       -0.37015954 0.060818546 -0.14762951 -0.09909958

final.bias f4 [61]
000000 97 b5 0f bf 41 7a ba bd 9d fb cf be 84 c7 a3 be
       -0.5613646 -0.09105349 -0.40621653 -0.31988156
000010 f8 77 03 bf 09 36 f9 be 3d 11 13 bf fe 4e fa be
       -0.5135493 -0.48674038 -0.5744818 -0.4888839
000020 db ba e8 be 54 8a f9 be 61 fd 11 bf ea da f7 be
       -0.4545506 -0.48738348 -0.5702725 -0.48409206
000030 da 97 fe be 2b 96 0d bf c0 0c 88 3f 6b d9 2f 3f
       -0.4972523 -0.55307263 1.0628891 0.6869113
000040 98 44 c0 3e 79 23 37 3f d3 4f 1b 40 88 bc e6 3d
       0.37552333 0.715385 2.426747 0.11266428
000050 fc d7 01 3f 03 92 45 3f 7f b6 84 3f 6a 00 15 b9
       0.5072019 0.7717592 1.0368193 -0.00014209902
000060 a3 9b 1f 3f 07 3a 8e 3f d9 f0 3e 3f ae 3b 82 3f
       0.6234686 1.1111459 0.74586254 1.0174463
000070 50 6a 9d 3f d5 b5 28 3f c9 f6 94 be 99 4f 8b 3f
       1.2298069 0.65902454 -0.29094532 1.0883666
000080 0f c9 ad 3f f6 fa 30 3f 0c 6d 15 3f 06 13 e1 3e
       1.3576983 0.69132936 0.5836952 0.43959826
000090 8c 71 07 3f e1 e6 75 be 68 04 df bd 39 4d 08 3e
       0.52907634 -0.24013855 -0.10889512 0.13310708
0000a0 82 30 10 bf e8 a3 e2 be 2b a7 17 bf a8 04 19 bf
       -0.5632402 -0.44265676 -0.59239453 -0.5977273
0000b0 cf e4 de be 8e b2 eb be 47 fb d1 be c2 0e dc be
       -0.43533942 -0.46034664 -0.41012022 -0.4298001
0000c0 36 4c e0 be 7f 7b fa be 19 89 eb be ea 99 02 bf
       -0.43808144 -0.48922345 -0.46003035 -0.51016104
0000d0 a9 e7 e1 be d6 cd ea be 36 bd fd be e9 60 c3 be
       -0.44122055 -0.45860165 -0.4955842 -0.38159874
0000e0 a3 69 ee be 3a 50 fe be c3 f7 0b bf 6b 44 06 bf
       -0.4656497 -0.49670583 -0.5467493 -0.5244815
0000f0 24 ff 5f 3d
       0.05468668

momentum_buffer f4 [128, 61]
000000 11 09 c5 3c c8 69 0f 38 14 69 13 3d 7d 77 37 08
       0.024052175 3.4192373e-05 0.035988882 5.5210017e-34
000010 00 00 00 00 04 00 00 00 00 00 00 00 04 00 00 00
       0.0 6e-45 0.0 6e-45
000020 00 00 00 00 00 00 00 00 00 00 00 00 04 00 00 00
       0.0 0.0 0.0 6e-45
000030 00 00 00 00 00 00 00 00 c0 bc 20 bd ed 77 37 bd
       0.0 0.0 -0.039242506 -0.044792105
000040 15 ba ec bc 3f 65 9e 3d 37 ea e8 3e 17 d0 07 3b
       -0.028897325 0.07734155 0.45491192 0.0020723396
000050 db ae c3 bd ed 86 58 bd e9 bf f5 bd 6f b8 fb 3b
       -0.095548354 -0.05286305 -0.119994946 0.0076818983
000060 46 b1 9a bd 34 48 e1 3d a0 f6 56 bd 0a 32 0e bc
       -0.075533435 0.110001 -0.052481294 -0.008678922
000070 4d d6 80 3e fa 6c df ba 1d 55 8f 8b 80 c9 aa 3d
       0.251635 -0.0017046027 -5.520966e-32 0.08339214
000080 cd 49 80 be 34 1b 49 be ca 9d 10 be 37 7d 32 3c
       -0.25056306 -0.19639283 -0.14122692 0.010894111
000090 76 d9 1a bc b2 1f b7 2c 67 3a 6e 3c b9 30 06 3d
       -0.009451261 5.2046917e-12 0.014540291 0.03276131
0000a0 00 00 00 00 00 00 00 00 00 00 00 00 00 00 00 00
       0.0 0.0 0.0 0.0
0000b0 00 00 00 00 00 00 00 00 2e 48 71 08 00 00 00 00
       0.0 0.0 7.2608146e-34 0.0
0000c0 b8 81 e3 37 00 00 00 00 00 00 00 00 00 00 00 00
       2.7120914e-05 0.0 0.0 0.0
0000d0 00 00 00 00 00 00 00 00 00 00 00 00 04 00 00 00
       0.0 0.0 0.0 6e-45
0000e0 00 00 00 00 00 00 00 00 00 00 00 00 1c 51 22 bf
       0.0 0.0 0.0 -0.63405013
0000f0 00 00 00 00 5f 01 eb 3e 3b 4c fd b6 9f 2f 8f 3b
       0.0 0.45899484 -7.548862e-06 0.0043696905
000100 1d 9b 4c 07 00 00 00 00 04 00 00 00 00 00 00 00
       1.5392838e-34 0.0 6e-45 0.0
000110 04 00 00 00 00 00 00 00 00 00 00 00 00 00 00 00
       6e-45 0.0 0.0 0.0
000120 04 00 00 00 00 00 00 00 00 00 00 00 be 08 39 be
       6e-45 0.0 0.0 -0.18069741
000130 b6 7c a2 3d 29 5c 11 bd 80 94 5d 3a 76 56 62 be
       0.07933943 -0.03548828 0.0008452609 -0.22103295
000140 0e 3a 3b 3b 54 65 20 3e 9b 73 53 be 63 36 c4 bd
       0.002856854 0.15663654 -0.20649569 -0.09580686
000150 a5 42 89 bc c6 4d 5b 3d c5 4e ad bc 75 fa cb bd
       -0.016755411 0.053540967 -0.021155724 -0.0995988
000160 1f 6f 49 3e 6a c6 a8 be ee 41 55 3c e5 13 b2 0c
       0.19671296 -0.32963878 0.013016207 2.7437216e-31
000170 c0 38 53 3d b6 32 a7 3d 88 a8 3c 3e 24 47 3c be
       0.051567793 0.08163969 0.18423665 -0.18386513
000180 95 6c 96 3d c0 d9 75 bd 36 be 0a ad 38 83 37 3c
       0.07344929 -0.060022116 -7.886627e-12 0.011200719
000190 8f 91 5b 3d 00 00 00 00 00 00 00 00 00 00 00 00
       0.053605612 0.0 0.0 0.0
0001a0 00 00 00 00 00 00 00 00 00 00 00 00 e8 45 d9 07
       0.0 0.0 0.0 3.2691618e-34
0001b0 00 00 00 00 d0 21 06 3a 00 00 00 00 00 00 00 00
       0.0 0.0005116733 0.0 0.0
0001c0 00 00 00 00 00 00 00 00 00 00 00 00 00 00 00 00
       0.0 0.0 0.0 0.0
0001d0 04 00 00 80 00 00 00 00 00 00 00 00 00 00 00 00
       -6e-45 0.0 0.0 0.0
0001e0 dc f2 1c 3e 00 00 00 00 ce 14 21 bb 0f 75 70 b8
       0.15327018 0.0 -0.002457905 -5.732948e-05
0001f0 fa ab 5a bd 44 52 a6 86 00 00 00 00 04 00 00 80
       -0.053386666 -6.256314e-35 0.0 -6e-45
000200 00 00 00 00 04 00 00 80 00 00 00 00 00 00 00 00
       0.0 -6e-45 0.0 0.0
000210 00 00 00 00 04 00 00 80 00 00 00 00 00 00 00 00
       0.0 -6e-45 0.0 0.0
000220 94 dd c2 bb 05 df 05 be e5 f5 4a 3c 1c c4 a6 be
       -0.0059468243 -0.13073356 0.012387727 -0.32571495
000230 de 1f 40 bf 8a 79 01 bc 8d bb 2c bd 9b 0e cb 3e
       -0.75048625 -0.007902512 -0.04217105 0.3965958
000240 23 2b 5c be 67 3e b7 3c 11 f4 a7 3d 7a e4 46 be
       -0.2150083 0.022368623 0.08200849 -0.19423094
000250 5d fb 16 3e 10 f5 50 3e 50 53 6a 3d 74 87 f1 bc
       0.14744325 0.20405984 0.05720836 -0.029483534
000260 bf 26 16 0c d0 c2 6b bc 85 0f ac be c1 76 e0 3e
       1.1567239e-31 -0.014389709 -0.3360559 0.43840602
000270 f0 9c 87 3d c0 e5 02 3c f5 22 5b 3e c0 60 bf 2c
       0.0662173 0.007989347 0.21400054 5.439288e-12
000280 23 e0 23 3d d0 0d fa 3d 00 00 00 00 00 00 00 00
       0.040008675 0.12209666 0.0 0.0
000290 00 00 00 00 00 00 00 00 00 00 00 00 00 00 00 00
       0.0 0.0 0.0 0.0
0002a0 d7 dc 27 89 00 00 00 00 72 23 29 3b 00 00 00 00
       -2.0205732e-33 0.0 0.002580848 0.0
0002b0 00 00 00 00 00 00 00 00 00 00 00 00 00 00 00 00
       0.0 0.0 0.0 0.0
0002c0 00 00 00 00 04 00 00 00 00 00 00 00 00 00 00 00
       0.0 6e-45 0.0 0.0
0002d0 00 00 00 00 b9 61 85 3e 00 00 00 00 83 47 f2 be
       0.0 0.2605112 0.0 -0.47320184
0002e0 94 dd f0 37 94 e1 4f bd b0 be 53 88 00 00 00 00
       2.871341e-05 -0.050752237 -6.3719655e-34 0.0
0002f0 04 00 00 00 00 00 00 00 04 00 00 00 00 00 00 00
       6e-45 0.0 6e-45 0.0
000300 00 00 00 00 00 00 00 00 04 00 00 00 00 00 00 00
       0.0 0.0 6e-45 0.0
000310 00 00 00 00 ff e4 0d 3e d3 dc a8 3c 15 a8 8c 3d
       0.0 0.13856886 0.02061311 0.068679966
000320 5d 5b c8 be 74 83 4f be d1 4c 36 3c 15 63 1e bd
       -0.39132205 -0.20264989 0.011126713 -0.03866871
000330 7f f7 8a 3d 50 17 73 3d 6c e2 f7 3a 0e f0 6d 3d
       0.067854874 0.059348404 0.0018912083 0.058090262
000340 0e 0f 82 bd 79 a3 92 be b0 8e 14 be 14 f3 96 be
       -0.06350528 -0.28640345 -0.14507556 -0.2948233
000350 ad 35 23 3e 6e d8 07 0d fb 78 0e be fd f3 b1 3c
       0.15938444 4.1860605e-31 -0.13913338 0.021722788
000360 34 2b ac bd 91 a3 9d 3c 00 77 c5 bd e7 0d 64 be
       -0.08406678 0.019243034 -0.09641838 -0.22270928
000370 f4 0c d5 2b 15 6f 10 bd 51 bb b7 bd 00 00 00 00
       1.5138155e-12 -0.035262186 -0.08971275 0.0
000380 00 00 00 00 00 00 00 00 00 00 00 00 00 00 00 00
       0.0 0.0 0.0 0.0
000390 00 00 00 00 bd 5b b1 08 00 00 00 00 74 a9 17 39
       0.0 1.0674368e-33 0.0 0.00014463608
0003a0 00 00 00 00 00 00 00 00 00 00 00 00 00 00 00 00
       0.0 0.0 0.0 0.0
0003b0 00 00 00 00 00 00 00 00 04 00 00 00 00 00 00 00
       0.0 0.0 6e-45 0.0
0003c0 00 00 00 00 00 00 00 00 6a ca db be 00 00 00 00
       0.0 0.0 -0.42927867 0.0
0003d0 ee 95 13 be 44 42 09 37 c5 e2 d0 bc 5b d9 5b 88
       -0.14412662 8.181265e-06 -0.025498757 -6.6158415e-34
0003e0 00 00 00 00 04 00 00 80 00 00 00 00 04 00 00 80
       0.0 -6e-45 0.0 -6e-45
0003f0 00 00 00 00 00 00 00 00 00 00 00 00 04 00 00 80
       0.0 0.0 0.0 -6e-45

momentum_buffer f4 [128, 128]
000000 62 26 11 bf e1 78 69 be ae 05 e1 bd c3 3c 30 bf
       -0.5669919 -0.22800018 -0.109874114 -0.68842715
000010 ee 30 81 be f6 0d 0f 3e 86 f7 ca 3e 61 17 d1 3e
       -0.25232643 0.1397017 0.3964197 0.4083815
000020 bf 16 05 bf 5a 95 00 bd 7e 17 0a 3e a7 3f 2c bf
       -0.5198783 -0.031392433 0.13485524 -0.67284626
000030 60 7d 9f bc f2 b6 0a 3e bc 86 6d bf 59 b8 fb 3e
       -0.019468963 0.1354635 -0.92783713 0.49164084
000040 6e c6 b5 3d f2 94 07 3e ae c8 21 be ff ea 28 3f
       0.08875738 0.13240412 -0.1579921 0.65983576
000050 b0 c1 46 3d 7a be 0d bf 47 b5 ae be 46 9c 43 be
       0.04852456 -0.5536877 -0.3412268 -0.19102582
000060 4c 72 9f 3d 84 f3 21 3d 62 bf 8a 3e 66 cc 21 be
       0.07785472 0.039538875 0.27099138 -0.15800628
000070 d9 45 01 bf 0d b8 8f be 15 33 36 3f 20 0b 98 3d
       -0.50497204 -0.28070107 0.71171695 0.07423997
000080 7f 4a c8 3e 7b 37 57 3e 85 4d a3 3d ea 90 3d 3f
       0.39119336 0.21017258 0.0797377 0.74049246
000090 15 ae df be 91 2e da 3e b0 b6 8a 3e 9a 6b e4 be
       -0.43687502 0.42613652 0.27092505 -0.44613343
0000a0 4e 49 dc be c9 7b d3 3e 71 42 fb be ef 24 ee bd
       -0.43024677 0.41305378 -0.49074128 -0.11628138
0000b0 18 2b bd bd 52 34 73 3d 7b 24 c8 be 99 d5 05 bf
       -0.09236735 0.05937607 -0.39090332 -0.5227905
0000c0 75 7e 23 be e6 dc 94 be db ac b0 be da dc cf bd
       -0.15966208 -0.29074782 -0.34506878 -0.10149546
0000d0 d3 ad 60 be ea 60 5b 3f 18 6a 63 3d 68 52 a8 be
       -0.21941309 0.85694754 0.0555211 -0.3287537
0000e0 ab 06 9e bd 56 5b e9 3e 82 d9 81 3e 54 88 d6 3d
       -0.077161156 0.45577496 0.25361258 0.10475221
0000f0 d0 d5 c7 be 90 05 cb 3e 71 3e 27 3f 8c d7 26 bd
       -0.39030313 0.3965268 0.65329653 -0.040732905
000100 1a a3 57 be 00 c6 09 3c b4 1f 06 3e 71 ae 9b bd
       -0.21058312 0.008409023 0.13098031 -0.076016314
000110 f4 ba e6 bd e6 8d 17 3e db 71 ad 3e 40 77 36 bd
       -0.11266127 0.14800224 0.33875927 -0.04454732
000120 76 35 b5 be fb 87 ac be 32 67 15 be ac 56 a1 3d
       -0.3539235 -0.33697495 -0.14590147 0.078778595
000130 cf d3 80 be 65 00 3c bf 93 71 2a 3e a4 3b 0a bd
       -0.25161597 -0.734381 0.16644888 -0.033748284
000140 ef eb a9 be 5e ad fd be 39 75 33 be 32 11 11 be
       -0.33187816 -0.4954633 -0.17525186 -0.14166716
000150 be 75 e3 be 01 76 81 be e0 72 d3 3e d0 59 92 be
       -0.44425768 -0.25285342 0.4129858 -0.28584146
000160 83 70 c4 3d 83 55 a4 bd 9b 09 d8 be 90 73 42 3e
       0.095917724 -0.080241226 -0.42194828 0.18989396
000170 22 cb 11 bf fd 34 d0 bd f4 6e 64 3e 5e 66 77 be
       -0.5695058 -0.10166357 0.2230795 -0.24160144
000180 b4 58 be 3e eb e1 5a 3e 73 e9 a1 be 9d 46 c6 3e
       0.3717705 0.21375243 -0.3162342 0.3872575
000190 a0 01 a7 bd 23 56 21 be ca 6d 72 3e 4b 3a d0 3d
       -0.08154607 -0.15755515 0.23674694 0.101673685
0001a0 a2 6f 9a 3e f6 32 3c 3e b2 42 c3 3e 78 3b 8e bd
       0.30163294 0.18378815 0.38136822 -0.069449365
0001b0 5c 54 ab be 3b c3 1b 3f d6 32 4c be cc 16 b4 3e
       -0.334628 0.60844773 -0.19941267 0.35173643
0001c0 06 67 7f be cc 17 d0 bd ee 20 35 be bd dd 8e be
       -0.24941644 -0.10160789 -0.17688343 -0.27903548
0001d0 85 cb d7 3d 6b 15 f9 be 83 52 3e 3e 90 48 c0 bc
       0.10536865 -0.48649153 0.18586163 -0.0234721
0001e0 e8 f6 08 bd 20 fa 67 bd ac 1f 2f bf a0 c8 d8 be
       -0.033438593 -0.056635022 -0.684077 -0.42340565
0001f0 ac 71 30 3d 38 02 65 be fe 36 93 3e 6b 01 7a be
       0.043077156 -0.22364128 0.28752893 -0.24414603
000200 e0 9f 64 bf dc 5c 03 3f a4 3b 4d 3e 3b f1 36 3e
       -0.8930645 0.5131357 0.20042282 0.1786546
000210 08 cb e0 3e 60 8e 8e bd 30 a0 6a 3e 32 28 e9 3e
       0.439049 -0.069607496 0.22912669 0.4553848
000220 9b 30 6f 3e 26 c4 4a 3f bf 8e 13 3f ff 3a 30 bf
       0.23358385 0.7920555 0.5763969 -0.6884002
000230 a4 d5 f1 bd 37 4a a7 3f cc 4d 13 3f 4e 2c cb 3e
       -0.11808327 1.3069524 0.57540584 0.3968224
000240 c4 43 5b be 45 7b 14 bf 34 eb 32 3e 54 f2 3b 3e
       -0.2141257 -0.58000594 0.17472535 0.1835416
000250 c4 3e 15 3c bc ad 0a bf d4 89 e2 bd 17 54 9c 3e
       0.009109203 -0.5417135 -0.11061445 0.30532905
000260 43 07 0d bf 83 7e 0d bf 10 98 4c bf 2e 69 1b bf
       -0.55089206 -0.55271167 -0.7991953 -0.60707366
000270 a1 6c a8 3e 59 6e b9 3e a2 05 3b 3e 56 8a 41 be
       0.32895377 0.36217 0.18263867 -0.18900427
000280 87 56 b1 be 18 a7 4b be 96 d9 12 3e 01 ca 2c 3d
       -0.34636328 -0.1988796 0.14340815 0.042184833
000290 89 fe 5e 3e 49 08 83 be ff 0e 47 bf 7c bb a3 be
       0.21776785 -0.2559226 -0.7775726 -0.31978977
0002a0 86 6a 4c bf 06 cf b5 be fe ae 23 3e c7 18 df be
       -0.7985004 -0.3550951 0.15984723 -0.4357359
0002b0 48 63 c2 bd 3a 33 1f 3e d6 06 1b 3e 95 7c 1f be
       -0.09491593 0.15546885 0.15139326 -0.15574868
0002c0 d2 02 c6 3e 8b a4 0d 3f e4 2a 12 3f 7c e1 18 3f
       0.38674027 0.553292 0.57096696 0.5971906
0002d0 07 c1 f4 3e 48 77 8e 3f 0c 62 17 bf 4a b4 a5 be
       0.47803518 1.1130152 -0.5913398 -0.32364112
0002e0 b9 47 91 be 73 4f 33 bf aa f9 16 3d 10 07 6f 3e
       -0.28375033 -0.70043105 0.036859192 0.23342538
0002f0 0a da 16 3e 58 e2 79 3f c0 18 ce 3b 19 4d 8c be
       0.14731613 0.97611 0.0062895715 -0.2740257
000300 0d 0d f6 bd 42 1c 1d bf e8 69 93 be d4 56 44 3f
       -0.12014208 -0.61371243 -0.28791738 0.7669499
000310 f2 26 13 3f 78 55 01 3f ae 20 f7 3e 98 03 79 bc
       0.574813 0.5052104 0.4826712 -0.015198611
000320 d4 32 32 bc 8c cd d5 3e 6d 48 ff 3e c0 c3 b5 bb
       -0.010876376 0.41758382 0.49859944 -0.005547017
000330 80 6e e9 3b 18 05 d4 3e 55 0b 99 3f e9 34 10 be
       0.0071237683 0.41410136 1.1956583 -0.14082684
000340 78 60 5b bd a4 a7 8e bd e6 8f 0a 3f 02 d3 df 3d
       -0.053558797 -0.06965569 0.5412582 0.109289184
000350 35 e7 84 3e ec f9 50 3e 8a b2 9f bf 16 fe 35 be
       0.25957647 0.20407838 -1.2476361 -0.17772707
000360 64 fa 2c 3f 59 f7 71 be 68 a7 86 bd 22 97 f3 be
       0.67569566 -0.23629512 -0.06574899 -0.47576243
000370 a1 c2 d9 be 43 07 3e bf ca e5 a7 3d 4d aa ce 3e
       -0.42531303 -0.7422983 0.08198126 0.40364304
000380 ea 65 cb bd dc a8 ab 3e 9d 8e 44 be 72 a5 3d 3f
       -0.09931548 0.33527267 -0.19195028 0.74080575
000390 31 3e 0b 3f 44 94 48 bf fe 60 32 3e ca 0c 19 3f
       0.5439177 -0.78351235 0.17419812 0.5978514
0003a0 ca c6 56 be 7c f9 6b be fe e9 98 bd c6 28 84 bf
       -0.2097427 -0.2304439 -0.074665055 -1.0324943
0003b0 de a1 11 3e 9a 1e 0d be ac e9 99 3d 5c d0 7c be
       0.14221904 -0.13781205 0.075152725 -0.24688858
0003c0 f6 5d df 3e 39 93 cc 3e 63 3c a7 3e 45 39 28 3f
       0.43626374 0.39956072 0.3266326 0.65712386
0003d0 1a db f8 be 23 0c 8f 3e 3c 5a 64 3e 8e a8 0d 3f
       -0.4860466 0.27938947 0.22300047 0.5533532
0003e0 7e 2d 91 3e 90 cb 0a be 50 33 0b 3d fc ee 2a bd
       0.2835502 -0.13554215 0.033984482 -0.04173182
0003f0 38 e8 f9 3e 64 39 e1 be 72 84 d9 bd 8f 56 71 3e
       0.4880998 -0.43989098 -0.10620965 0.23568176
