app/ml_models/rnn/pretrained/pretrained_dutch_epoch3.pt (torch, 277449 bytes, 13 tensors)

_embedding.weight f4 [61, 61]
0	0x3f800000	1.0
1	0x00000000	0.0
2	0x00000000	0.0
3	0x00000000	0.0
4	0x00000000	0.0
5	0x00000000	0.0
6	0x00000000	0.0
7	0x00000000	0.0
8	0x00000000	0.0
9	0x00000000	0.0
10	0x00000000	0.0
11	0x00000000	0.0
12	0x00000000	0.0
13	0x00000000	0.0
14	0x00000000	0.0
15	0x00000000	0.0
16	0x00000000	0.0
17	0x00000000	0.0
18	0x00000000	0.0
19	0x00000000	0.0
20	0x00000000	0.0
21	0x00000000	0.0
22	0x00000000	0.0
23	0x00000000	0.0
24	0x00000000	0.0
25	0x00000000	0.0
26	0x00000000	0.0
27	0x00000000	0.0
28	0x00000000	0.0
29	0x00000000	0.0
30	0x00000000	0.0
31	0x00000000	0.0
32	0x00000000	0.0
33	0x00000000	0.0
34	0x00000000	0.0
35	0x00000000	0.0
36	0x00000000	0.0
37	0x00000000	0.0
38	0x00000000	0.0
39	0x00000000	0.0
40	0x00000000	0.0
41	0x00000000	0.0
42	0x00000000	0.0
43	0x00000000	0.0
44	0x00000000	0.0
45	0x00000000	0.0
46	0x00000000	0.0
47	0x00000000	0.0
48	0x00000000	0.0
49	0x00000000	0.0
50	0x00000000	0.0
51	0x00000000	0.0
52	0x00000000	0.0
53	0x00000000	0.0
54	0x00000000	0.0
55	0x00000000	0.0
56	0x00000000	0.0
57	0x00000000	0.0
58	0x00000000	0.0
59	0x00000000	0.0
60	0x00000000	0.0
61	0x00000000	0.0
62	0x3f800000	1.0
63	0x00000000	0.0
64	0x00000000	0.0
65	0x00000000	0.0
66	0x00000000	0.0
67	0x00000000	0.0
68	0x00000000	0.0
69	0x00000000	0.0
70	0x00000000	0.0
71	0x00000000	0.0
72	0x00000000	0.0
73	0x00000000	0.0
74	0x00000000	0.0
75	0x00000000	0.0
76	0x00000000	0.0
77	0x00000000	0.0
78	0x00000000	0.0
79	0x00000000	0.0
80	0x00000000	0.0
81	0x00000000	0.0
82	0x00000000	0.0
83	0x00000000	0.0
84	0x00000000	0.0
85	0x00000000	0.0
86	0x00000000	0.0
87	0x00000000	0.0
88	0x00000000	0.0
89	0x00000000	0.0
90	0x00000000	0.0
91	0x00000000	0.0
92	0x00000000	0.0
93	0x00000000	0.0
94	0x00000000	0.0
95	0x00000000	0.0
96	0x00000000	0.0
97	0x00000000	0.0
98	0x00000000	0.0
99	0x00000000	0.0
100	0x00000000	0.0
101	0x00000000	0.0
102	0x00000000	0.0
103	0x00000000	0.0
104	0x00000000	0.0
105	0x00000000	0.0
106	0x00000000	0.0
107	0x00000000	0.0
108	0x00000000	0.0
109	0x00000000	0.0
110	0x00000000	0.0
111	0x00000000	0.0
112	0x00000000	0.0
113	0x00000000	0.0
114	0x00000000	0.0
115	0x00000000	0.0
116	0x00000000	0.0
117	0x00000000	0.0
118	0x00000000	0.0
119	0x00000000	0.0
120	0x00000000	0.0
121	0x00000000	0.0
122	0x00000000	0.0
123	0x00000000	0.0
124	0x3f800000	1.0
125	0x00000000	0.0
126	0x00000000	0.0
127	0x00000000	0.0
128	0x00000000	0.0
129	0x00000000	0.0
130	0x00000000	0.0
131	0x00000000	0.0
132	0x00000000	0.0
133	0x00000000	0.0
134	0x00000000	0.0
135	0x00000000	0.0
136	0x00000000	0.0
137	0x00000000	0.0
138	0x00000000	0.0
139	0x00000000	0.0
140	0x00000000	0.0
141	0x00000000	0.0
142	0x00000000	0.0
143	0x00000000	0.0
144	0x00000000	0.0
145	0x00000000	0.0
146	0x00000000	0.0
147	0x00000000	0.0
148	0x00000000	0.0
149	0x00000000	0.0
150	0x00000000	0.0
151	0x00000000	0.0
152	0x00000000	0.0
153	0x00000000	0.0
154	0x00000000	0.0
155	0x00000000	0.0
156	0x00000000	0.0
157	0x00000000	0.0
158	0x00000000	0.0
159	0x00000000	0.0
160	0x00000000	0.0
161	0x00000000	0.0
162	0x00000000	0.0
163	0x00000000	0.0
164	0x00000000	0.0
165	0x00000000	0.0
166	0x00000000	0.0
167	0x00000000	0.0
168	0x00000000	0.0
169	0x00000000	0.0
170	0x00000000	0.0
171	0x00000000	0.0
172	0x00000000	0.0
173	0x00000000	0.0
174	0x00000000	0.0
175	0x00000000	0.0
176	0x00000000	0.0
177	0x00000000	0.0
178	0x00000000	0.0
179	0x00000000	0.0
180	0x00000000	0.0
181	0x00000000	0.0
182	0x00000000	0.0
183	0x00000000	0.0
184	0x00000000	0.0
185	0x00000000	0.0
186	0x3f800000	1.0
187	0x00000000	0.0
188	0x00000000	0.0
189	0x00000000	0.0
190	0x00000000	0.0
191	0x00000000	0.0
192	0x00000000	0.0
193	0x00000000	0.0
194	0x00000000	0.0
195	0x00000000	0.0
196	0x00000000	0.0
197	0x00000000	0.0
198	0x00000000	0.0
199	0x00000000	0.0
200	0x00000000	0.0
201	0x00000000	0.0
202	0x00000000	0.0
203	0x00000000	0.0
204	0x00000000	0.0
205	0x00000000	0.0
206	0x00000000	0.0
207	0x00000000	0.0
208	0x00000000	0.0
209	0x00000000	0.0
210	0x00000000	0.0
211	0x00000000	0.0
212	0x00000000	0.0
213	0x00000000	0.0
214	0x00000000	0.0
215	0x00000000	0.0
216	0x00000000	0.0
217	0x00000000	0.0
218	0x00000000	0.0
219	0x00000000	0.0
220	0x00000000	0.0
221	0x00000000	0.0
222	0x00000000	0.0
223	0x00000000	0.0
224	0x00000000	0.0
225	0x00000000	0.0
226	0x00000000	0.0
227	0x00000000	0.0
228	0x00000000	0.0
229	0x00000000	0.0
230	0x00000000	0.0
231	0x00000000	0.0
232	0x00000000	0.0
233	0x00000000	0.0
234	0x00000000	0.0
235	0x00000000	0.0
236	0x00000000	0.0
237	0x00000000	0.0
238	0x00000000	0.0
239	0x00000000	0.0
240	0x00000000	0.0
241	0x00000000	0.0
242	0x00000000	0.0
243	0x00000000	0.0
244	0x00000000	0.0
245	0x00000000	0.0
246	0x00000000	0.0
247	0x00000000	0.0
248	0x3f800000	1.0
249	0x00000000	0.0
250	0x00000000	0.0
251	0x00000000	0.0
252	0x00000000	0.0
253	0x00000000	0.0
254	0x00000000	0.0
255	0x00000000	0.0

lstm.weight_ih_l0 f4 [128, 61]
0	0xbc5e0bb5	-0.013552596
1	0xbd14d06a	-0.03633157
2	0x3eaea910	0.3411336
3	0x3e6aafb6	0.22918591
4	0xbcc20040	-0.02368176
5	0x3d362d12	0.044476576
6	0x3d3f06bb	0.046637278
7	0x3c1dc573	0.009629595
8	0xbd0cf5b8	-0.034414023
9	0xbcdc630d	-0.0269027
10	0x3cd74379	0.02627729
11	0xbd28ae3d	-0.04118179
12	0xbd074d72	-0.033032842
13	0xbd5d89cc	-0.05408649
14	0xbece7bb3	-0.4032875
15	0xbefc4b0b	-0.49276003
16	0xbf928fda	-1.145015
17	0x3f104f65	0.56371146
18	0x3ee48426	0.4463207
19	0x3e5b82d2	0.21436623
20	0x3eb12e33	0.3460556
21	0x3e3dce28	0.18535674
22	0xbc4228de	-0.011850564
23	0x3d80dc18	0.062919796
24	0xbefdab6f	-0.49544856
25	0x3ebacf55	0.36486307
26	0xbd058faf	-0.03260773
27	0xbdebfac6	-0.115224406
28	0x3fb31a05	1.3992316
29	0x3e2a5282	0.16633037
30	0x3ebf9d01	0.37424472
31	0x3e5246dd	0.20534845
32	0xbebcea03	-0.36897287
33	0xbe068d93	-0.13139944
34	0xbf5581eb	-0.83401364
35	0xbd9c5083	-0.07632544
36	0xbe62f774	-0.22164708
37	0x3d9c1e83	0.07623007
38	0x3e81f917	0.25385353
39	0xbeef5b0a	-0.46749145
40	0xbd46c63f	-0.048528906
41	0x3d442344	0.047885194
42	0xbc124a00	-0.008928776
43	0xbbb49f0e	-0.005512125
44	0xbd838dc7	-0.06423526
45	0x3ccc7707	0.0249591
46	0x3e3587d4	0.17727596
47	0x3c8aa695	0.016925136
48	0xbe23ca83	-0.15995221
49	0xbd313cb2	-0.043270774
50	0x3d96469d	0.07337687
51	0xbd88e4cd	-0.06684265
52	0x3c9060be	0.017624255
53	0xbcbeb2db	-0.023278644
54	0xbd3af675	-0.045645196
55	0xb9ab6218	-0.00032688747
56	0xbd1a0ac5	-0.037607927
57	0x3d7813e0	0.06056583
58	0x3d9b7b67	0.075918965
59	0xbd706d49	-0.058697972
60	0xbd0b43ba	-0.034000136
61	0x3ad197b3	0.0015990644
62	0x3cb9bf68	0.022674277
63	0x3eaa65f2	0.33280903
64	0xbd4032a7	-0.046923306
65	0xbda2675f	-0.07929873
66	0x3c87fcb3	0.016599989
67	0xbce9e889	-0.028553264
68	0xbdaec63b	-0.08533903
69	0xbd91cdf0	-0.071193576
70	0xbdb91ebe	-0.09039067
71	0xbc576c65	-0.013148402
72	0xbd9d0c89	-0.076684065
73	0xbc8d4d0a	-0.01724865
74	0xbaf17ead	-0.0018424593
75	0xbf2097ad	-0.6273144
76	0xbc5e0d40	-0.013552964
77	0x3dd55531	0.104166396
78	0x3ec87a75	0.39155927
79	0xbeb850bf	-0.35999104
80	0x3e917585	0.28409973
81	0x3ddbf927	0.107408814
82	0xbf06e4a2	-0.52692616
83	0xbd6f7265	-0.058458705
84	0x3e9054b6	0.2818963
85	0xbe3f9240	-0.18708134
86	0x3eb6e0dc	0.3571843
87	0x3eafda3b	0.34346184
88	0xbf1abddb	-0.60445946
89	0xbf3ed79e	-0.74547756
90	0xbe456d65	-0.19280012
91	0xbec7b6ea	-0.3900674
92	0x3ede2041	0.43383983
93	0xbc18c7c4	-0.009324972
94	0xbd256513	-0.040379595
95	0xbda49984	-0.08037093
96	0x3e8c173d	0.2736148
97	0x3f5ec14e	0.8701371
98	0x3d7b05a2	0.06128467
99	0xbc8620d8	-0.016373083
100	0x3f05de93	0.52292746
101	0xbd68381a	-0.056694128
102	0xbcbe12a8	-0.023202255
103	0xbc2ad3fe	-0.010426519
104	0xbd8938d2	-0.06700291
105	0xbcfdb5b4	-0.030970432
106	0xbd66ec2c	-0.056377575
107	0xbe261cf8	-0.16221988
108	0x3d22da6d	0.03975909
109	0xbed3e7c2	-0.41387755
110	0x3d33dbfd	0.04391097
111	0x3bcae469	0.0061917794
112	0xbd9084e8	-0.070566
113	0xbc521a8e	-0.012823714
114	0xbca28e79	-0.019843327
115	0xbb84c728	-0.0040520616
116	0xbdeac5f3	-0.11463537
117	0xbd4db539	-0.050221656
118	0xbad07c03	-0.0015906099
119	0x3c8845ad	0.016634787
120	0x3d94e9fe	0.07271193
121	0xbc4d1da9	-0.012519279
122	0x3d6a3084	0.057175174
123	0xbe3298c9	-0.17441095
124	0xbea30a5d	-0.31843844
125	0xbe04dd92	-0.12975147
126	0xbbdc4fe6	-0.006723392
127	0xbdbfae56	-0.09359424
128	0x3ca5f846	0.020259988
129	0xbdaca052	-0.08429016
130	0xbcc14a70	-0.023595065
131	0xbc8874f2	-0.016657326
132	0x3bd382de	0.0064548096
133	0xbc0b491c	-0.008501317
134	0xbd63712b	-0.055527847
135	0x3d4f96c8	0.050680906
136	0xbf6d7339	-0.9275394
137	0x3f6b54b0	0.919261
138	0xbecf5c4b	-0.405001
139	0x3e611d27	0.21983777
140	0xbf0f0b7b	-0.5587689
141	0xbe842ae5	-0.25813976
142	0x3ec2ae18	0.38023448
143	0x3d848245	0.064701594
144	0xbf43d1dd	-0.764921
145	0x3ee118bb	0.4396418
146	0x3c0d0e25	0.008609329
147	0x3f6f5e7b	0.9350354
148	0xba28f5b4	-0.0006445304
149	0xbf3e25bd	-0.74276334
150	0x3c67df3d	0.014152345
151	0x3f0475a9	0.51742035
152	0x3dcaaab1	0.09895838
153	0x3e04d27a	0.12970915
154	0xbe92b300	-0.2865219
155	0x3db8be51	0.09020675
156	0x3ed303ea	0.41213924
157	0x3eddb938	0.43305373
158	0x3f1483ac	0.58013415
159	0xbce76e5a	-0.028250862
160	0xbe9ce850	-0.3064599
161	0x3f07f0cd	0.5310181
162	0x3d970f36	0.07375948
163	0x3cb990bb	0.02265202
164	0x3cfb6e9a	0.030692387
165	0x3bdc8fbb	0.006731001
166	0x3d85e835	0.065384306
167	0xbd8bfd7e	-0.06835459
168	0xbe1e2e2d	-0.15447302
169	0xbb9da0c1	-0.004810423
170	0xbd7e3ef9	-0.062071774
171	0xbd2e6155	-0.04257329
172	0x3d4b67d7	0.049659576
173	0xbe8852b0	-0.26625586
174	0x3c4d27ed	0.012521726
175	0x3d3bde1f	0.045866128
176	0xbbbe2c0c	-0.0058035906
177	0x3d8abbba	0.06774087
178	0xbda9fcb8	-0.083001554
179	0x3d8c12fa	0.06839557
180	0xbdef64c7	-0.11689144
181	0xbdc0ab86	-0.094077155
182	0xbd0b9f46	-0.03408744
183	0x3d68f6b3	0.056875896
184	0xbe444606	-0.19167337
185	0xbf374a35	-0.71597606
186	0xbdead1d0	-0.114658
187	0x3d9a803d	0.07543991
188	0x3d46b3e5	0.048511405
189	0xbc83da78	-0.016095385
190	0x3d38be60	0.04510343
191	0xbce0d31f	-0.02744442
192	0xbd64ef3e	-0.05589222
193	0xbdc1f234	-0.09470025
194	0xbd9f36b3	-0.07774105
195	0xbcd13fbb	-0.025543084
196	0x3cf8ee54	0.030387081
197	0xbf988c3e	-1.1917799
198	0x3f955534	1.1666627
199	0xbf41959a	-0.756189
200	0x3f292331	0.6606932
201	0xbf1381ad	-0.57619745
202	0xbe1aed53	-0.15129595
203	0x3f18ad71	0.5963965
204	0x3f27176c	0.65270114
205	0x3dffc1a4	0.12488106
206	0x3f57a82a	0.84240973
207	0x3f36b59d	0.7137087
208	0x3e9f8703	0.31157693
209	0x3f04c915	0.51869327
210	0xbde18425	-0.11011533
211	0xbf5e2752	-0.8677875
212	0x3f219594	0.63118863
213	0x3d2e4fd3	0.042556595
214	0x3e532675	0.20620139
215	0xbfd87842	-1.69117
216	0x3ee212b3	0.4415489
217	0xbfcf898f	-1.6213855
218	0x3f9ab9a1	1.20879
219	0x3f0494d4	0.51789594
220	0xbe63ad2c	-0.22234029
221	0xbf299b6c	-0.6625278
222	0x3f57fb3f	0.84367746
223	0x3d503117	0.050828066
224	0xbd6f4264	-0.058412924
225	0xbd95471e	-0.07288955
226	0xbb6b8db3	-0.0035942614
227	0xbd61e51a	-0.05515013
228	0xbd24860d	-0.040166903
229	0xbe8c28d1	-0.2737489
230	0xbdc9b250	-0.098484635
231	0xbe2274ee	-0.15864918
232	0xbca4bc2a	-0.020109255
233	0x3c6189c3	0.013765755
234	0xbdd540b5	-0.104127325
235	0x3dad279f	0.08454823
236	0x3c038ba4	0.008028898
237	0xbc0a2866	-0.008432483
238	0xbc15c7b5	-0.009141852
239	0x3b798abb	0.0038077075
240	0x3d5e662b	0.054296654
241	0xbdd91418	-0.10599536
242	0xbe0769c4	-0.1322394
243	0xbc96e478	-0.01841949
244	0xbd8a4a05	-0.06752399
245	0x3df2230d	0.11823092
246	0x3e9734fc	0.2953261
247	0x3e17b302	0.1481438
248	0x3d540a7a	0.051767804
249	0x3cdd1098	0.026985452
250	0x3d4d5887	0.050133254
251	0x3dab6396	0.08368604
252	0xbd093c47	-0.03350475
253	0x3cc5f6a5	0.02416546
254	0x3d185604	0.037191406
255	0x3d861df7	0.06548684

lstm.weight_hh_l0 f4 [128, 128]
0	0xbd161bc6	-0.03664758
1	0xbe148ce3	-0.14506869
2	0xbded457e	-0.1158552
3	0xbc870c12	-0.016485248
4	0x3d9633f4	0.07334128
5	0xbda02a4a	-0.07820566
6	0xbd3221be	-0.04348921
7	0x3de62489	0.11237437
8	0x3db861a6	0.09003
9	0xbe83e031	-0.25756982
10	0x3be1f4b6	0.006895627
11	0x3d847604	0.06467822
12	0x3c31db84	0.010855559
13	0x3a36e4f4	0.00069768657
14	0x3c7fec5c	0.015620317
15	0x3ca81cd0	0.020521551
16	0x3d5c99be	0.053857557
17	0xbdd86627	-0.10566359
18	0x3e180370	0.14845061
19	0x3d8436c6	0.0645576
20	0x3c1f9715	0.009740611
21	0x3e394e9b	0.18096392
22	0xbbab9baf	-0.005237065
23	0x3e4f1f7b	0.20226853
24	0xbe84857b	-0.25883088
25	0x3dd5756c	0.10422787
26	0x3e307b0b	0.17234437
27	0x3de83911	0.113390096
28	0x3e0d7c46	0.13816938
29	0x3d80371e	0.06260513
30	0x3d6f11fa	0.058366753
31	0xbe013f4e	-0.12621805
32	0xbd8b311d	-0.06796477
33	0x3dc53a09	0.0963021
34	0xbd501a61	-0.050806407
35	0xbda06b1c	-0.078329295
36	0x3c891f4b	0.016738554
37	0xbc18b821	-0.0093212435
38	0xbd078e6d	-0.033094812
39	0x3cb57feb	0.022155723
40	0xbd999300	-0.07498741
41	0xbd205fac	-0.03915374
42	0xbe104c56	-0.1409162
43	0xbd8b33fb	-0.06797024
44	0x3de3d03d	0.11123703
45	0xbda788c9	-0.081803866
46	0x3d5c1e81	0.05374003
47	0x3e0feab8	0.14054382
48	0xbb63e91d	-0.0034776398
49	0x39fb57e5	0.00047939937
50	0xbdf3d096	-0.11905019
51	0x3db5a149	0.08868653
52	0x3e66feb3	0.22558098
53	0xbe09e2de	-0.13465449
54	0xbdc96808	-0.098342955
55	0x3db6ce35	0.089260496
56	0x3cd4bfad	0.025970304
57	0xbdf54c8a	-0.11977489
58	0x3e5bc066	0.21460113
59	0xbd9f63e3	-0.07782724
60	0xbe678ebe	-0.22613046
61	0xbd176167	-0.036958124
62	0xbd024c81	-0.03181124
63	0xbdd85abc	-0.10564181
64	0xbd7f7afe	-0.062373154
65	0xbdb5431d	-0.088506915
66	0xbcb0234c	-0.021501206
67	0xbcaa0614	-0.020754851
68	0xbe057d96	-0.13036188
69	0x3cc57312	0.024102721
70	0x3d091957	0.03347143
71	0x3c1da8fd	0.0096228095
72	0x3cb6d9b9	0.022320615
73	0xbe40fc34	-0.18846208
74	0xbdfec744	-0.12440351
75	0xbd99f2fc	-0.07517049
76	0xbd231d4a	-0.039822854
77	0xbdb060ae	-0.0861219
78	0x3e00b9e6	0.12570915
79	0x3e20ef4a	0.15716282
80	0xbd2d9a68	-0.04238358
81	0xbe5dc9dc	-0.21659034
82	0xbd1cfa4f	-0.03832465
83	0x3dccd5c2	0.100017086
84	0xbde3f2e4	-0.11130312
85	0x3e06315a	0.13104764
86	0x3e078773	0.13235264
87	0xbd6f052f	-0.058354553
88	0x3dd640e2	0.10461594
89	0xbce69927	-0.0281492
90	0xbd6bb679	-0.057547066
91	0xbde44b1f	-0.11147141
92	0xbd4eba93	-0.0504709
93	0xbca968af	-0.0206798
94	0xbd067c73	-0.032833528
95	0xbe1b4c46	-0.15165815
96	0xbd54cff9	-0.05195615
97	0xbda524d9	-0.08063669
98	0xbdae49eb	-0.085101925
99	0xbd014376	-0.031558476
100	0xbc453ba1	-0.012038142
101	0xbdb0f6be	-0.08640812
102	0xbdc4afd8	-0.09603852
103	0x3e1e8a2d	0.15482397
104	0xbce91d42	-0.028456334
105	0xbdacdfe4	-0.08441141
106	0x3c20621d	0.009789017
107	0x3db7c9a3	0.08974006
108	0xbbf7bd1a	-0.0075603845
109	0x3d67df4f	0.056609448
110	0xbf063e03	-0.5243837
111	0xbc56775a	-0.013089979
112	0xbdcc2149	-0.09967286
113	0x3dd5a5a6	0.104319856
114	0xbe815044	-0.2525655
115	0x3dea99c7	0.11455112
116	0xbc32f47d	-0.010922548
117	0xbc9a7937	-0.018856628
118	0xbdbe5ac4	-0.09294656
119	0xbdb88975	-0.09010593
120	0xbdcfc2a1	-0.101445444
121	0x3e7416c6	0.23836812
122	0xbb3679a9	-0.0027843511
123	0xbca16cae	-0.019705143
124	0xbd2317e3	-0.039817702
125	0xbca93514	-0.020655192
126	0xbc671519	-0.014104151
127	0xbab34094	-0.0013675862
128	0x3d072fe5	0.03300466
129	0xbd464fee	-0.04841607
130	0x3d6b5146	0.057450555
131	0xbcbf7e9f	-0.023375807
132	0xbdb11857	-0.086472206
133	0xbe8cf7a9	-0.275327
134	0x3db9bc82	0.09069158
135	0xbe0c889e	-0.1372399
136	0xbd91b2b1	-0.07114161
137	0x3e2f36f0	0.171108
138	0x3d85eb88	0.06539065
139	0xbdaeaeac	-0.0852941
140	0x3e35f504	0.17769247
141	0xbe4d041a	-0.20021096
142	0xbdfffc5d	-0.12499306
143	0xbb0209ec	-0.001984234
144	0x3d0e0e22	0.034681447
145	0xbde8748c	-0.113503546
146	0x3bbcca58	0.005761426
147	0xbb963fea	-0.004585256
148	0xbd9eee9f	-0.07760357
149	0x3e98ae32	0.298204
150	0x3d6752d9	0.056475494
151	0xbd07ecb3	-0.03318472
152	0x3c5525df	0.013009517
153	0xbcd221e7	-0.025650932
154	0xbd2b0e1b	-0.0417615
155	0x3d880d54	0.06643167
156	0xbc49d0d4	-0.012317855
157	0x3ae22e2d	0.0017256193
158	0x3c5c726b	0.013455014
159	0xbe9b1de5	-0.30296245
160	0x3e2c6196	0.16834101
161	0xbd9d6b33	-0.07686462
162	0xbe2501e9	-0.1611401
163	0xbc0d3759	-0.008619153
164	0xbd0d5a9c	-0.03451024
165	0x3e116028	0.14196837
166	0x3dd86181	0.105654724
167	0xbd1a5694	-0.037680224
168	0xbe211453	-0.1573041
169	0xbda68c1d	-0.08132193
170	0xbd8f97bf	-0.07011365
171	0xbda94215	-0.08264557
172	0xbd225ec1	-0.039641146
173	0xbe0e85a9	-0.13918175
174	0x3de583e9	0.112068005
175	0x3e058b39	0.1304139
176	0x3ce9fcbf	0.028562902
177	0xbcbf2d8b	-0.023337146
178	0xbc3b515c	-0.011432972
179	0xbe0ec893	-0.139437
180	0x3d938ab1	0.07204188
181	0x3cbe01e6	0.023194265
182	0xbdab4acd	-0.083638765
183	0x3dfc118e	0.12308036
184	0x3e234f4f	0.15948223
185	0x3cd450ba	0.0259174
186	0xbd801037	-0.06253093
187	0x3dd629f1	0.104572184
188	0x3e82405d	0.2543973
189	0xbdf57fb4	-0.11987248
190	0x3b928f33	0.004472637
191	0xbe1c4425	-0.1526037
192	0xbd1aacff	-0.03776264
193	0x3d6e73cc	0.0582159
194	0x3d1d3054	0.038376167
195	0x3d3dc91c	0.04633437
196	0xbe6b64fd	-0.22987743
197	0x3caeaf89	0.021323936
198	0x3d71e842	0.05905939
199	0x3d6917ad	0.056907345
200	0x3e062585	0.1310025
201	0xba16a2b6	-0.0005746292
202	0x3d3dee5d	0.0463699
203	0xbdbab9af	-0.091174476
204	0xbcf2e53a	-0.02965032
205	0xbdc3b478	-0.09555906
206	0xbd9a9cb8	-0.07549423
207	0x3c07347a	0.0082522575
208	0xbb6c463b	-0.0036052603
209	0x3e8912f1	0.26772264
210	0xbcc1f374	-0.023675658
211	0x3d4347e3	0.04767598
212	0x3daaacf2	0.08333768
213	0xbdd71dbb	-0.105037175
214	0xbcf54e58	-0.029944584
215	0x3d5cb014	0.05387886
216	0x3ea58a4b	0.32332072
217	0x3d3339cc	0.04375629
218	0x3e1d44e9	0.15358318
219	0xbd680266	-0.056642912
220	0xbe090bf6	-0.13383469
221	0x3d9e23f1	0.07721699
222	0xbbfe01b5	-0.0077516683
223	0xbdca76fb	-0.09885975
224	0x3d9ff50a	0.07810409
225	0x3d2a95f1	0.0416469
226	0x3d3c5fc5	0.04598977
227	0xbcc2d46f	-0.023782937
228	0xbd6bc3d1	-0.057559792
229	0xbdc256b1	-0.09489191
230	0x3ce8ad20	0.028402865
231	0xbdaaf4de	-0.08347486
232	0x3c788f6c	0.015170913
233	0xbe1c3690	-0.15255189
234	0xbdfb3a59	-0.12266988
235	0x3da059c9	0.07829625
236	0xbda06afd	-0.078329064
237	0xbc098bed	-0.008395177
238	0xbe0fcfee	-0.14044163
239	0xbbf9afd8	-0.007619839
240	0xbe0b29bf	-0.13590144
241	0x3c69faeb	0.014281015
242	0xbd2bf21a	-0.041978933
243	0xbd203c07	-0.039119747
244	0x3d325800	0.043540955
245	0xbc3f5e94	-0.011680264
246	0x3dd11616	0.10209291
247	0x3dc7117d	0.097201325
248	0x3d9b3abd	0.07579563
249	0x3d9bd2fb	0.07608601
250	0xbd55b8d2	-0.05217821
251	0x3e21820c	0.15772265
252	0x3dab5de4	0.083675176
253	0x3e2f9384	0.17146116
254	0x3c4d0aad	0.012514752
255	0xbd869261	-0.06570888

lstm.bias_ih_l0 f4 [128]
0	0x3c2b4b14	0.010454912
1	0x3e22b9d0	0.15891194
2	0xbbd28b90	-0.0064253286
3	0x3ce492d7	0.02790205
4	0xbd963197	-0.07333677
5	0x3c6a5f95	0.014305015
6	0x3d98dae1	0.07463623
7	0xbd3e67cb	-0.046485703
8	0x3deb39ae	0.11485611
9	0x3b805eaa	0.003917535
10	0x3d20fc04	0.03930284
11	0x3de5906f	0.11209189
12	0xbe04c33b	-0.129651
13	0xbe84d3c6	-0.2594282
14	0xbce74302	-0.028230194
15	0xbdaa3be0	-0.083122015
16	0xbd911d8c	-0.07085714
17	0x3e17fedf	0.1484332
18	0xbe051a1e	-0.12998244
19	0xbbfd4d7b	-0.0077301837
20	0x3c0720ac	0.008247536
21	0xbeb78a8d	-0.35847893
22	0x3e161627	0.14656888
23	0x3dcc97d6	0.09989898
24	0xbe9b49e0	-0.303298
25	0x3d42ca90	0.04755646
26	0x3e9446df	0.2896032
27	0x3dc78399	0.09741897
28	0xbe1bf268	-0.1522919
29	0x3de1bcae	0.11022316
30	0x3d55b465	0.05217399
31	0xbd8129e1	-0.06306816
32	0x3ed583f2	0.4170223
33	0x3d5e86b2	0.054327674
34	0xbc9c3417	-0.019067807
35	0x3dfd2557	0.12360638
36	0xbe27f196	-0.16400751
37	0x3e2137a2	0.15743878
38	0xbda1ff83	-0.07910063
39	0x3c2abc5e	0.010420887
40	0xbd66eb3d	-0.056376684
41	0x3db004e2	0.08594681
42	0xbe782e8c	-0.24236506
43	0xbd3c7013	-0.04600532
44	0x3e8c32d9	0.27382544
45	0xbde0e6da	-0.109815314
46	0xbdff1095	-0.12454335
47	0xbc9de8b1	-0.019275995
48	0x3e78900e	0.24273703
49	0xbe1eab27	-0.15494977
50	0x3d82b732	0.06382598
51	0x3e0749a8	0.13211691
52	0xbd95e798	-0.073195636
53	0x3e28f54a	0.1649982
54	0xbdbbd609	-0.09171683
55	0xbd6175da	-0.055044033
56	0xbd2851ab	-0.04109351
57	0xbe32b59e	-0.17452094
58	0x3c7ef809	0.015562066
59	0xbd63edcb	-0.0556467
60	0x3de34dda	0.110988334
61	0xbd1921af	-0.03738564
62	0xbdb5b07d	-0.08871553
63	0xbd997774	-0.07493487
64	0x3e5de378	0.21668804
65	0xbe556e36	-0.20842823
66	0x3ec68b2e	0.3877806
67	0xbe7b5768	-0.24545062
68	0x3bf94289	0.0076068086
69	0x3d99c2d3	0.07507863
70	0xbd7b8226	-0.061403416
71	0x3d5965cc	0.053075597
72	0x3cfe25c3	0.031023866
73	0xbe284900	-0.16434097
74	0xbe2d0aa0	-0.16898584
75	0x3e52f9b8	0.20603073
76	0x3cca60b6	0.024704318
77	0xbd701c9d	-0.058621038
78	0x3e11d82d	0.14242621
79	0x3dae77b7	0.085189275
80	0xbdfde203	-0.12396624
81	0xbc95aa3c	-0.01826965
82	0xbe8ceb97	-0.2752349
83	0x3dc0dfbc	0.09417674
84	0xbda8a28e	-0.0823413
85	0xbdc3242d	-0.09528384
86	0x3cc2d3d6	0.023782652
87	0xbc721c1d	-0.014777211
88	0xbab8e9d1	-0.0014107769
89	0xbd27c500	-0.04095936
90	0x3ea74560	0.32670116
91	0xbe8a0437	-0.2695634
92	0xbda34b7e	-0.07973383
93	0xbd0a0d98	-0.03370437
94	0xbddae37f	-0.10687923
95	0x3e542c0c	0.20719928
96	0xbdda6658	-0.10664052
97	0xbe35008c	-0.1767599
98	0xbe0903a3	-0.13380294
99	0xbc491367	-0.012272692
100	0x3c8a27e4	0.016864724
101	0x3db168e4	0.086625844
102	0x3ded8f79	0.11599631
103	0x3c33ac97	0.010966442
104	0xbd0f7ac0	-0.035029173
105	0x3d814e98	0.06313819
106	0x3a7931f3	0.0009506039
107	0xbe6a008d	-0.22851773
108	0x3dc4a698	0.09602088
109	0xbe0e5309	-0.13898863
110	0x3cc1d27a	0.023659933
111	0xbea193ee	-0.31558174
112	0xbd811b4c	-0.063040346
113	0x3dc253bf	0.094886295
114	0x3d61f5a1	0.05516589
115	0x3c9ba0ad	0.018997515
116	0xbea24ec0	-0.31700706
117	0x3d2a9bc3	0.041652452
118	0x3e4148a0	0.1887536
119	0x3b825db1	0.003978454
120	0xbd77b925	-0.060479302
121	0xbeaadf98	-0.33373713
122	0xbe6708d3	-0.2256196
123	0x3cc29153	0.023750937
124	0xbe0e1cb7	-0.13878141
125	0x3c49430f	0.012284054
126	0xbefc5a81	-0.492878
127	0xbd24f090	-0.04026848

lstm.bias_hh_l0 f4 [128]
0	0xbdbeb0f3	-0.09311094
1	0x3d057387	0.03258088
2	0xbd1f4af3	-0.038889837
3	0x3d8cbb28	0.06871635
4	0xbe1e5a1a	-0.15464059
5	0x3d570cca	0.05250243
6	0x3dbfed20	0.093714
7	0xbdcb78c1	-0.09935141
8	0x3da83b3b	0.08214422
9	0x3dd20bd5	0.10256163
10	0x3d38ba07	0.045099284
11	0x3d55697f	0.052102562
12	0xbdeb283b	-0.11482283
13	0xbebe0a9e	-0.37117475
14	0x3d7d36b8	0.061819762
15	0xbdedce8f	-0.116116636
16	0xbd77f2f5	-0.060534436
17	0x3e842ec7	0.25816938
18	0xbda7be08	-0.081905425
19	0x3db0a035	0.08624307
20	0x3c7926c9	0.015207001
21	0xbec21160	-0.3790388
22	0x3e087996	0.13327631
23	0x3de57f55	0.11205927
24	0xbebbe108	-0.36695123
25	0x3d29cf10	0.041457236
26	0x3e7a39c9	0.24436106
27	0x3e05f18d	0.13080426
28	0xbe26a2b2	-0.16273001
29	0x3e0dbf17	0.13842426
30	0xbc1b12d1	-0.009464935
31	0xbc6cc837	-0.014452032
32	0x3ebe6bd4	0.3719164
33	0xbd007f4b	-0.031371396
34	0xbddbf1b0	-0.107394576
35	0x3dbc03df	0.09180426
36	0xbe2796d3	-0.16366129
37	0x3e47d865	0.19516142
38	0xbdefcfce	-0.117095575
39	0x3c24620e	0.010033144
40	0xbdf884b7	-0.12134688
41	0x3bc67a11	0.006057032
42	0xbe74c56a	-0.23903432
43	0x3cfe0b27	0.031011177
44	0x3e42d1ba	0.19025317
45	0xbdc2e7a2	-0.09516837
46	0xbe100446	-0.1406413
47	0xbdbe7ad9	-0.09300775
48	0x3e48bbc0	0.19602871
49	0xbde5c0de	-0.11218427
50	0x3dbb7f71	0.09155167
51	0x3d659c1b	0.056057077
52	0x3d8c1abf	0.06841039
53	0x3da19fdd	0.078918196
54	0xbe116d6f	-0.14201902
55	0xbe27cc7d	-0.163866
56	0x3ce8bf3b	0.028411498
57	0xbe4266c6	-0.18984517
58	0xbd08eee5	-0.033430953
59	0x3d8fc34d	0.070196725
60	0x3dd94326	0.10608511
61	0x3d9cc08c	0.07653913
62	0x3d70b3d3	0.058765244
63	0x3cb71683	0.022349602
64	0x3dd76613	0.10517516
65	0xbe1ae826	-0.1512762
66	0x3ec4c437	0.3843095
67	0xbe68dac5	-0.22739704
68	0xbdf6e033	-0.12054481
69	0x3d907e8e	0.070553884
70	0x3dc1f661	0.09470821
71	0x3e51debf	0.20495127
72	0x3df2c13f	0.11853265
73	0xbe2d68e9	-0.16934551
74	0xbe01be38	-0.12670219
75	0x3e5b4670	0.21413589
76	0x3dd5d6fb	0.10441395
77	0x3ca49b2e	0.020093527
78	0x3dc393b4	0.095496565
79	0xbc1eb34e	-0.009686304
80	0xbdf7d005	-0.121002235
81	0xbd660ed8	-0.0561665
82	0xbea7c4c6	-0.32767314
83	0x3d98e3a6	0.074652955
84	0x3b39fa10	0.0028377809
85	0xbdbb8117	-0.09155481
86	0xbcc84798	-0.024448201
87	0x3cd41caa	0.025892574
88	0x3d196a1b	0.037454706
89	0xbd5e7250	-0.054308236
90	0x3e9f6a1c	0.31135643
91	0xbe1268ee	-0.1429784
92	0xbe1e3434	-0.15449601
93	0xbcc78222	-0.024354044
94	0xbc94f401	-0.018182756
95	0x3e039ef7	0.12853609
96	0xbe117711	-0.14205576
97	0xbe3b02f8	-0.18262851
98	0xbe3a9295	-0.18219979
99	0x3cfbed3a	0.030752767
100	0x3dbf9fed	0.09356675
101	0x3d9aa8f5	0.07551757
102	0xbac15e57	-0.0014752847
103	0x3cd417f2	0.025890324
104	0x3d8c8fe8	0.068633854
105	0x3e1f2251	0.15540434
106	0x3d66f522	0.05638612
107	0xbe6475b4	-0.22310525
108	0xbc9ae2d4	-0.018906988
109	0x3c480939	0.01220923
110	0xbe02778a	-0.12740913
111	0xbe950f5d	-0.29113284
112	0xbe285701	-0.1643944
113	0x3c9f5442	0.019449357
114	0x3cd1b33c	0.02559816
115	0xbb2f6f60	-0.0026769266
116	0xbe9f4566	-0.31107634
117	0x3e0a7a6c	0.13523263
118	0x3d3dba3e	0.046320193
119	0x3cf70992	0.03015593
120	0xbd242e65	-0.040083308
121	0xbebb3d54	-0.36570227
122	0xbe7e56f9	-0.24837865
123	0x3cf7d115	0.030251065
124	0xbd1cff4f	-0.03832942
125	0x3b0f3473	0.002185133
126	0xbef8ab28	-0.48568082
127	0xb8e13c96	-0.00010740121

final.weight f4 [61, 128]
0	0x3c70ac77	0.014689556
1	0xbc66b790	-0.014081851
2	0x3cab9015	0.020942727
3	0x3dd2998a	0.102831915
4	0x3e00cedf	0.12578915
5	0xbd98bfd7	-0.074584655
6	0x3b579326	0.0032894104
7	0xbc412b62	-0.011790128
8	0xbd7e98ee	-0.062157564
9	0xbd83104d	-0.063995935
10	0xbddfb4af	-0.109231345
11	0xbc3b8df8	-0.011447422
12	0x3d9e1c61	0.077202566
13	0x3e12de81	0.14342691
14	0xbd98f7f7	-0.074691705
15	0x3e136e98	0.14397657
16	0x3da32e38	0.079678
17	0xbde5f926	-0.11229162
18	0x3c122b39	0.008921438
19	0x3c940f3b	0.018073669
20	0xbb9ae212	-0.0047266567
21	0x3e73df30	0.23815608
22	0xbe184a88	-0.14872181
23	0xbe097f7d	-0.13427539
24	0x3e6c7d9e	0.23094794
25	0xbd92c849	-0.071671076
26	0xbe3a87f2	-0.18215922
27	0xbd903bfe	-0.070426926
28	0x3e042ae7	0.12906991
29	0xbe0529ce	-0.13004228
30	0x3d0c624f	0.034273442
31	0x3c84e795	0.016223708
32	0xbe18fc6e	-0.14940044
33	0xbd7d9916	-0.061913572
34	0x3dd87c16	0.105705425
35	0xbd9e594d	-0.077318765
36	0x3dfcafb3	0.123381995
37	0xbe11154d	-0.14168282
38	0x3b8ceb21	0.0043004905
39	0xbd83b5ae	-0.06431137
40	0x3d774c38	0.060375422
41	0xbd886f28	-0.06661826
42	0x3e8e76c1	0.27824977
43	0xbd5afaa5	-0.05346169
44	0xbe0ae3d7	-0.13563477
45	0x3e19d8a7	0.15024053
46	0x3d71d402	0.059040077
47	0xbb919cc1	-0.0044437353
48	0xbd27b4a8	-0.04094377
49	0x3e0b084a	0.13577381
50	0xbe15260d	-0.14565296
51	0xbdc85e35	-0.097835936
52	0x3de8fecc	0.11376724
53	0x3c82956a	0.015940387
54	0x3e25ad2b	0.1617934
55	0x3e523bed	0.20530672
56	0x3d2f839a	0.042850114
57	0x3e2e4dc4	0.17021853
58	0xbd6dc45f	-0.058048602
59	0xbda0a93b	-0.07844778
60	0xbe361e29	-0.17784943
61	0xbd92fbb3	-0.07176914
62	0x3dba0983	0.090838455
63	0x3db834f2	0.089944735
64	0xbe32b2ff	-0.17451094
65	0xbc91312e	-0.017723646
66	0xbe1a4d62	-0.15068582
67	0x3e8f706b	0.28015456
68	0x3df74521	0.12073732
69	0xbd9cb7e3	-0.07652261
70	0x3c5d0a3b	0.013491209
71	0xbddf1399	-0.1089241
72	0xbd9eae0b	-0.0774804
73	0x3dd14153	0.10217538
74	0x3dde4c41	0.10854388
75	0xbe28b1c4	-0.16474062
76	0xbc71a4ea	-0.014748791
77	0xbcfb62f3	-0.030686831
78	0xbd4b1105	-0.049576778
79	0xbba55141	-0.0050450866
80	0x3e04d53f	0.12971972
81	0x3c6b55b7	0.014363698
82	0x3e2d80ed	0.16943713
83	0xbdb549c8	-0.08851963
84	0xbb9f1d4c	-0.0048557874
85	0x3d4e7297	0.05040225
86	0xbcd83ed0	-0.026397139
87	0x3d716de9	0.05894271
88	0xbc24e3c1	-0.010064066
89	0x3d984aa7	0.07436114
90	0xbe63e03f	-0.22253512
91	0x3e11325f	0.14179371
92	0x3d552cd1	0.052044693
93	0x3df48544	0.11939481
94	0x3d94b40e	0.07260905
95	0xbe39100f	-0.18072532
96	0x3dab75b3	0.08372059
97	0x3e2e6699	0.17031325
98	0x3d3f6ea6	0.046736382
99	0xbc4753bc	-0.01216596
100	0x3d292ee4	0.041304484
101	0xbdf33b4b	-0.118765436
102	0xbd1c31d8	-0.038133472
103	0x3d87424d	0.06604443
104	0xbc9b55bc	-0.01896178
105	0xbe200501	-0.15626909
106	0xbbd5997a	-0.00651854
107	0x3e1c10cb	0.15240781
108	0xbd82385e	-0.063584074
109	0x3dd5c8c2	0.10438682
110	0x3dd0a1ed	0.10187135
111	0x3e0cc88f	0.13748382
112	0x3d98a273	0.0745286
113	0xbc784479	-0.015153044
114	0xbe1e509d	-0.15460439
115	0x3db55962	0.08854939
116	0x3dd34a5f	0.103169195
117	0xbd13cb70	-0.036082685
118	0x3d0dd602	0.034627922
119	0xbe0ca2bd	-0.13733955
120	0x3d9076b1	0.070538886
121	0x3e5d8a3a	0.2163476
122	0x3e29b87a	0.16574278
123	0x3e18ec35	0.14933856
124	0x3e18c963	0.14920573
125	0xbd7ddd64	-0.061978713
126	0x3e893d7a	0.26804715
127	0xbd020e7a	-0.031752087
128	0xbd4d167a	-0.050070263
129	0xbd932eeb	-0.07186683
130	0x3da31f26	0.079649255
131	0xbd9472c4	-0.07248452
132	0xbd6e9a40	-0.058252573
133	0x3e106b76	0.14103493
134	0x3da82091	0.082093365
135	0x3db48ffc	0.08816525
136	0xbdb20619	-0.08692569
137	0x3e0885c0	0.13332272
138	0x3e3fa72c	0.18716115
139	0xbad9bb3f	-0.001661159
140	0xbbd0ce19	-0.006372225
141	0x3e291bcf	0.16514514
142	0xbe1d8778	-0.15383708
143	0xbd04c502	-0.032414444
144	0x3c46a8fb	0.012125249
145	0xbdd20a39	-0.10255856
146	0xbda8f17f	-0.08249187
147	0x3d1e41d5	0.038637
148	0x3b709bc3	0.0036713935
149	0x3d289768	0.041160017
150	0x3d574b46	0.05256202
151	0xbd292bfe	-0.04130172
152	0xbc4500e3	-0.012024137
153	0xbdcc8721	-0.09986711
154	0xbe70f2d2	-0.23530129
155	0xbcc35a57	-0.023846788
156	0x3a0ac9aa	0.00052943325
157	0xbe1f2476	-0.15541252
158	0xbdf5113f	-0.1196618
159	0xbbdbbf04	-0.0067061204
160	0x3d8ed468	0.06974107
161	0x3b185e04	0.0023249397
162	0xbe72b5ff	-0.23702239
163	0x3d9de87b	0.07710358
164	0x3d0259eb	0.031824034
165	0x3dc5bef3	0.09655561
166	0x3d233acf	0.039851006
167	0xbbae48ce	-0.0053187376
168	0xbdb94cb8	-0.09047836
169	0x3c5dee0e	0.013545526
170	0x3db589fa	0.088642076
171	0xbcd71095	-0.026253024
172	0xbdb19639	-0.08671231
173	0xbd2f5d2a	-0.042813458
174	0x3d347d9c	0.044065103
175	0x3d1225be	0.035680525
176	0xbdfbf261	-0.123020895
177	0x3d2ede3b	0.042692404
178	0x3c6ca114	0.014442701
179	0x3d8275e6	0.063701436
180	0x3e05a6ea	0.13051954
181	0x3cc8615b	0.024460485
182	0x3e29c2c1	0.16578199
183	0xbdbc6feb	-0.09201034
184	0xbd87b24f	-0.066258065
185	0x3d018881	0.03162432
186	0x3e077de7	0.13231622
187	0x3e342646	0.17592725
188	0x3ce3fc31	0.027830215
189	0xbd2a02a2	-0.041506417
190	0x3deced4f	0.115687005
191	0x3dde6722	0.10859515
192	0xbae30cf9	-0.0017322592
193	0xbe55e72a	-0.20888963
194	0xbd22c086	-0.039734386
195	0x3c796160	0.01522097
196	0x3d7e651c	0.062108144
197	0xbc581ef7	-0.013190976
198	0xbd006732	-0.031348415
199	0xbd2972ce	-0.041369252
200	0xbca77104	-0.020439632
201	0x3e15560d	0.14583607
202	0xbd4ea44a	-0.050449647
203	0xbdd2721e	-0.102756724
204	0xbe1ed924	-0.1551252
205	0x3e22a830	0.15884471
206	0xbd57d677	-0.052694764
207	0x3da81ad4	0.08208242
208	0x3d3c38c3	0.04595257
209	0xbd354fc4	-0.044265524
210	0x3e631a01	0.22177888
211	0xbc9bd782	-0.01902366
212	0xbcf9babf	-0.030484555
213	0x3e0e72b5	0.13910945
214	0x3dbd6c74	0.092492014
215	0x3c9a5709	0.01884033
216	0x3c9e9599	0.019358443
217	0x3e097ee9	0.13427319
218	0xbd98eade	-0.07466672
219	0x3c4d2f80	0.012523532
220	0x3d79747c	0.060902104
221	0xbb8c9287	-0.0042899284
222	0x3d23716f	0.0399031
223	0x3dba03e5	0.09082774
224	0x3d1a07a7	0.037604954
225	0x3e23f84c	0.16012686
226	0x3d295fc9	0.041351113
227	0x3d3fe33a	0.04684756
228	0x3c604635	0.013688614
229	0x3d151a86	0.036402248
230	0xbdf590d8	-0.119905174
231	0x3db8d152	0.090243
232	0x3b852c9e	0.0040641567
233	0xbd15694a	-0.036477365
234	0xbdd8e33f	-0.10590219
235	0x3da64d48	0.08120209
236	0xbe1d5a51	-0.15366484
237	0x3d85a57c	0.06525704
238	0x3d14a246	0.03628757
239	0x3e158f32	0.14605406
240	0xbd455864	-0.04818
241	0x3bc7d36d	0.006098202
242	0xbdd645eb	-0.104625545
243	0xbd9bf066	-0.07614212
244	0x3d1b02ff	0.037844654
245	0x3c24a283	0.010048511
246	0x3c7bc2d3	0.015366274
247	0xbc2436be	-0.010022817
248	0x3da8b526	0.08237676
249	0xbc36bfce	-0.011154128
250	0x3d74e3e7	0.059787657
251	0x3d8dc956	0.069231674
252	0x3cf52618	0.029925391
253	0x3cc1e2fa	0.023667801
254	0x3d95f310	0.07321751
255	0x3dc36efa	0.095426515

final.bias f4 [61]
0	0xbea98c84	-0.33115017
1	0xbe79afc6	-0.24383458
2	0xbe3e0b42	-0.18558982
3	0xbe822200	-0.25416565
4	0xbed200e5	-0.41016307
5	0xbeacd5e0	-0.33756924
6	0xbeb8b825	-0.3607799
7	0xbeb9b572	-0.36271244
8	0xbecf234c	-0.40456617
9	0xbeedf03d	-0.4647235
10	0xbec394b4	-0.3819939
11	0xbed3e476	-0.4138524
12	0xbeab2342	-0.33425337
13	0xbeb91d6f	-0.3615527
14	0x3f439dd8	0.76412725
15	0x3eb63f6f	0.3559527
16	0xbd80e001	-0.06292725
17	0x3f00d8e2	0.50330937
18	0x3fc7001e	1.5546911
19	0xbc13445b	-0.008988465
20	0x3f358018	0.7089858
21	0x3e6af012	0.22943142
22	0x3f482ff3	0.78198165
23	0xbdabb2af	-0.083836906
24	0x3ef93ba1	0.48678306
25	0x3f00126f	0.5002813
26	0x3e8544dc	0.26029098
27	0x3f14c23d	0.58108884
28	0x3f026ca6	0.50947034
29	0x3ecdacd1	0.4017091
30	0xbda2d20b	-0.07950219
31	0x3f5a64b3	0.85309905
32	0x3f89800a	1.07422
33	0x3f22c6eb	0.63584775
34	0x3d1480fa	0.036255814
35	0x3f3382e2	0.70121586
36	0x3ecab842	0.39593703
37	0xbe8a15a6	-0.2696964
38	0xbe772431	-0.241349
39	0x3dd6d849	0.10490472
40	0xbed79711	-0.42107442
41	0xbedc5f27	-0.43041345
42	0xbec4af19	-0.3841484
43	0xbeaa1a35	-0.3322312
44	0xbece2dcf	-0.40269324
45	0xbe68d60c	-0.22737902
46	0xbe94914d	-0.29017106
47	0xbeb4c36b	-0.35305342
48	0xbe9e9992	-0.3097654
49	0xbea14f6d	-0.3150591
50	0xbec25514	-0.37955534
51	0xbe7a04b0	-0.2441585
52	0xbed8574f	-0.4225411
53	0xbeb7ca7c	-0.3589667
54	0xbece34e0	-0.40274715
55	0xbe92b1d5	-0.286513
56	0xbee3abfa	-0.44467145
57	0xbedf053d	-0.43558684
58	0xbe880bb1	-0.2657142
59	0xbed35b37	-0.4128053
60	0x3e8009ba	0.2500742

momentum_buffer f4 [128, 61]
0	0x80000004	-6e-45
1	0x0adae586	2.1078974e-32
2	0xbdad0206	-0.084476516
3	0x80000004	-6e-45
4	0x80000004	-6e-45
5	0x80000004	-6e-45
6	0x80000004	-6e-45
7	0x80000004	-6e-45
8	0x80000004	-6e-45
9	0x80000004	-6e-45
10	0x00000004	6e-45
11	0x00000004	6e-45
12	0x00000004	6e-45
13	0x00000004	6e-45
14	0xbe9eaa1d	-0.3098916
15	0xbbd5319a	-0.006506157
16	0x3aebd290	0.001799183
17	0x3d9dab7f	0.07698726
18	0xbe3a1a75	-0.18174155
19	0x3d114df8	0.035474747
20	0x3e14cc2d	0.14531012
21	0x3e84e25b	0.25953946
22	0x3e9ca74a	0.3059638
23	0x3d8d5300	0.069005966
24	0x3ca1329f	0.019677458
25	0x3eb1bade	0.3471288
26	0x3d997607	0.07493215
27	0xbebad6a9	-0.36491898
28	0x3e658d0a	0.22417083
29	0xbd9e6e6b	-0.07735904
30	0xb185704d	-3.8835766e-09
31	0xbe808088	-0.25098062
32	0x3e15b3b3	0.14619331
33	0x3ee30948	0.4434302
34	0xbec799ca	-0.3898452
35	0xbe5af6b6	-0.21383175
36	0xbd213773	-0.03935952
37	0xb6e5b88a	-6.846215e-06
38	0x3d2d78d4	0.04235156
39	0x3d7fb105	0.06242468
40	0x00000004	6e-45
41	0x80000004	-6e-45
42	0x80000004	-6e-45
43	0x80000004	-6e-45
44	0x00000004	6e-45
45	0x00000004	6e-45
46	0xa6a072e6	-1.1133374e-15
47	0x00000004	6e-45
48	0x3c911fab	0.017715296
49	0x00000004	6e-45
50	0x00000004	6e-45
51	0x0485ad8c	3.1427527e-36
52	0x00000004	6e-45
53	0x1b4ae59f	1.6783243e-22
54	0x80000004	-6e-45
55	0x80000004	-6e-45
56	0x80000004	-6e-45
57	0x00000004	6e-45
58	0x00000004	6e-45
59	0x3e96410d	0.29346505
60	0x00000000	0.0
61	0x00000004	6e-45
62	0x0a194ecc	7.381502e-33
63	0x3d7d23f7	0.061801877
64	0x00000004	6e-45
65	0x00000004	6e-45
66	0x80000004	-6e-45
67	0x80000004	-6e-45
68	0x00000004	6e-45
69	0x00000004	6e-45
70	0x00000004	6e-45
71	0x00000004	6e-45
72	0x00000004	6e-45
73	0x00000004	6e-45
74	0x00000004	6e-45
75	0x3e08ac98	0.1334709
76	0x3cfef908	0.031124607
77	0xbc53c0e7	-0.0129244095
78	0x3e7f468d	0.24929257
79	0x3e9e2cf4	0.30893672
80	0xbe85ec69	-0.2615693
81	0xbdf31012	-0.118682995
82	0x3f3929d8	0.72329473
83	0x3f226d42	0.63447964
84	0x3ce408ba	0.027836192
85	0xbe4e03ee	-0.20118687
86	0x3e3b0ee5	0.182674
87	0xbd1e476f	-0.038642343
88	0x3edf7299	0.4364212
89	0x3ef43c86	0.47702426
90	0xbaa88f58	-0.0012860103
91	0x3203895e	7.656437e-09
92	0xbe5a6d9b	-0.21330874
93	0xbe40c737	-0.18825994
94	0x3d9641a4	0.07336739
95	0xbdcc46fa	-0.09974475
96	0xbc3fab6a	-0.011698583
97	0xbe259d2f	-0.16173242
98	0x347815c7	2.3104722e-07
99	0xbd66d8d7	-0.05635914
100	0xbe172afe	-0.14762494
101	0x00000004	6e-45
102	0x00000004	6e-45
103	0x00000004	6e-45
104	0x00000004	6e-45
105	0x80000004	-6e-45
106	0x00000004	6e-45
107	0x24e93cfd	1.0115096e-16
108	0x00000004	6e-45
109	0xbc138489	-0.009003767
110	0x80000004	-6e-45
111	0x80000004	-6e-45
112	0x05d112e6	1.9661208e-35
113	0x80000004	-6e-45
114	0x1b3773a6	1.5174773e-22
115	0x00000004	6e-45
116	0x80000004	-6e-45
117	0x00000004	6e-45
118	0x00000004	6e-45
119	0x00000004	6e-45
120	0xbdba128c	-0.09085569
121	0x00000000	0.0
122	0x00000004	6e-45
123	0x0a3da6f8	9.131422e-33
124	0x3d77476d	0.06037085
125	0x80000004	-6e-45
126	0x80000004	-6e-45
127	0x80000004	-6e-45
128	0x00000004	6e-45
129	0x00000004	6e-45
130	0x80000004	-6e-45
131	0x00000004	6e-45
132	0x00000004	6e-45
133	0x00000004	6e-45
134	0x00000004	6e-45
135	0x00000004	6e-45
136	0x3ea1141a	0.3146065
137	0xbd194f0e	-0.037428908
138	0x3cc1e840	0.023670316
139	0xbe059100	-0.13043594
140	0xbea6678f	-0.32500884
141	0xbe82e925	-0.255685
142	0xbf0a2c6f	-0.5397405
143	0x3ea96af0	0.330894
144	0x3dcfe164	0.10150412
145	0xbbf97a35	-0.007613445
146	0x3e210560	0.15724707
147	0xbe42df4b	-0.19030492
148	0xbe1f7061	-0.15570213
149	0xbe902430	-0.2815261
150	0x3ea704aa	0.32620746
151	0x3be99991	0.0071289022
152	0xb2112314	-8.448087e-09
153	0x3efc13dd	0.49233904
154	0xbe2a6f0f	-0.16643928
155	0x3f3050d1	0.68873316
156	0x3d180dff	0.037122723
157	0xbbbbca8f	-0.005730934
158	0xbd01a736	-0.031653605
159	0x36c13aea	5.7587067e-06
160	0xbceeff8f	-0.029174594
161	0xbe3644af	-0.17799638
162	0x00000004	6e-45
163	0x00000004	6e-45
164	0x00000004	6e-45
165	0x00000004	6e-45
166	0x80000004	-6e-45
167	0x00000004	6e-45
168	0x00000004	6e-45
169	0x00000004	6e-45
170	0xba125cd6	-0.00055832916
171	0x00000004	6e-45
172	0x00000004	6e-45
173	0x06af6e5b	6.5989836e-35
174	0x80000004	-6e-45
175	0x1b26e8f0	1.3806464e-22
176	0x80000004	-6e-45
177	0x00000004	6e-45
178	0x00000004	6e-45
179	0x00000004	6e-45
180	0x00000004	6e-45
181	0xbe83d5f5	-0.25749174
182	0x00000000	0.0
183	0x00000004	6e-45
184	0x0a9135b4	1.3983193e-32
185	0x3d062175	0.03274675
186	0x80000004	-6e-45
187	0x80000004	-6e-45
188	0x00000004	6e-45
189	0x00000004	6e-45
190	0x00000004	6e-45
191	0x00000004	6e-45
192	0x00000004	6e-45
193	0x80000004	-6e-45
194	0x00000004	6e-45
195	0x00000004	6e-45
196	0x00000004	6e-45
197	0xbd8a0278	-0.06738752
198	0x3d8b4ef7	0.06802171
199	0xbb8e19aa	-0.0043365555
200	0x3e60b0f5	0.21942504
201	0x3e59269e	0.21206138
202	0xbe80a3a6	-0.25124854
203	0xbdd21b7d	-0.10259149
204	0x3e1b7942	0.15182975
205	0x3ed6cafa	0.41951734
206	0xbc2a0523	-0.010377201
207	0xbe09f4ed	-0.13472338
208	0xbe614a2a	-0.22000948
209	0x3eb51aaa	0.35371906
210	0xbdc3cc33	-0.09560432
211	0xbebda483	-0.37039575
212	0xbbec21ff	-0.007206201
213	0xaf7052c3	-2.1857276e-10
214	0x3da5a01a	0.080871776
215	0xbc600474	-0.013672937
216	0xbdcfeefc	-0.101530045
217	0x3b38aba8	0.0028178487
218	0x3c80887e	0.015690085
219	0xbed51eb6	-0.41624993
220	0x3650c1f7	3.1107318e-06
221	0xbd6604a5	-0.056156773
222	0x3e08c139	0.13354959
223	0x80000004	-6e-45
224	0x00000004	6e-45
225	0x00000004	6e-45
226	0x00000004	6e-45
227	0x00000004	6e-45
228	0x80000004	-6e-45
229	0x2717acde	2.1049171e-15
230	0x00000004	6e-45
231	0xbab9be02	-0.0014171007
232	0x80000004	-6e-45
233	0x80000004	-6e-45
234	0x069248b3	5.502592e-35
235	0x00000004	6e-45
236	0x9998b3ed	-1.5789103e-23
237	0x00000004	6e-45
238	0x00000004	6e-45
239	0x00000004	6e-45
240	0x00000004	6e-45
241	0x00000004	6e-45
242	0x3ee25dc2	0.44212157
243	0x00000000	0.0
244	0x80000004	-6e-45
245	0x8a64e189	-1.1020219e-32
246	0x3cce8975	0.025212029
247	0x00000004	6e-45
248	0x80000004	-6e-45
249	0x80000004	-6e-45
250	0x80000004	-6e-45
251	0x80000004	-6e-45
252	0x80000004	-6e-45
253	0x80000004	-6e-45
254	0x80000004	-6e-45
255	0x80000004	-6e-45

momentum_buffer f4 [128, 128]
0	0xbe85253c	-0.2600497
1	0xbe420c14	-0.1894992
2	0xbf522b72	-0.8209754
3	0x3e112392	0.14173725
4	0xbf539e7d	-0.8266371
5	0x3f7a6877	0.9781565
6	0x3e8fed1e	0.28110594
7	0xbd5a13f4	-0.053241685
8	0x3d9ff04a	0.078095034
9	0xbd498dc0	-0.04920745
10	0xbf996ee4	-1.1986966
11	0xbec3ef43	-0.3826848
12	0xbe144deb	-0.14482848
13	0xbf5517ec	-0.83239627
14	0x3e1b684a	0.15176502
15	0xbf98d036	-1.1938541
16	0xbee65cc8	-0.4499266
17	0xbd16cdf4	-0.036817506
18	0x3f5a6446	0.85309255
19	0x3e42ffee	0.19042942
20	0x3f673264	0.90311265
21	0xbef477b4	-0.47747576
22	0x3f917f7a	1.1367028
23	0x3f3ba997	0.7330565
24	0xbe37ef84	-0.17962462
25	0xbe5f7088	-0.21820271
26	0xbf03de0c	-0.5151069
27	0xbf0a3c60	-0.53998375
28	0x3f4740d3	0.7783329
29	0x3de2828c	0.11060056
30	0x3f8bf079	1.0932761
31	0x3ed244c7	0.41068098
32	0x3c697d80	0.014251113
33	0xbe3936c4	-0.18087298
34	0xbeffea52	-0.4998346
35	0x3f022984	0.508446
36	0x3f1e08c3	0.6173212
37	0x3efed8d0	0.4977479
38	0xbc75a1a0	-0.014992148
39	0xbf229ab6	-0.6351732
40	0x3e0e86c4	0.13918597
41	0x3f26f2b2	0.65214074
42	0x3f593b8c	0.84856486
43	0xbd35426c	-0.044252798
44	0x3d8437e2	0.06455971
45	0xbf01cfcf	-0.50707716
46	0xbd1c7830	-0.038200557
47	0xbf07ffd3	-0.5312473
48	0xbe8af6ad	-0.27141324
49	0xbe25250a	-0.1612741
50	0x3f0775a2	0.5291387
51	0xbf8fa5cf	-1.1222476
52	0x3f46e3e6	0.77691495
53	0xbf9f7d56	-1.2460124
54	0xbdb27736	-0.08714144
55	0x3eda0649	0.4258292
56	0x3f2a5326	0.66533124
57	0x3f2f3f10	0.684556
58	0x3eca59b5	0.39521566
59	0xbf042e76	-0.51633394
60	0xbeb72589	-0.35770825
61	0xbf06e844	-0.5269816
62	0x3f22efbb	0.6364705
63	0x3f03b6c0	0.5145073
64	0xbf42b290	-0.76053715
65	0xbe5ffaf4	-0.21873075
66	0x3f47f0db	0.7810189
67	0x3f18259c	0.5943239
68	0xbdc9fb70	-0.09862411
69	0x3e777907	0.24167262
70	0xbf5de4c2	-0.8667718
71	0xbe451955	-0.19247945
72	0x3eae5236	0.34047097
73	0x3dd61ac0	0.10454321
74	0xbf4bb528	-0.795733
75	0xbda02c54	-0.07820955
76	0xbb5ac530	-0.0033381693
77	0xbe5d4d6f	-0.2161157
78	0x3e54d358	0.20783746
79	0x3f3ad982	0.7298814
80	0x3e129ce3	0.1431766
81	0x3f85584d	1.0417572
82	0x3f45f471	0.77326113
83	0xbf5c2cc4	-0.86005807
84	0x3f6c2893	0.9224941
85	0x3f45baf6	0.77238405
86	0x3e2f42b4	0.17115289
87	0xbf327271	-0.69705874
88	0x3f35729e	0.70878017
89	0xbe348040	-0.17627048
90	0x3ec85ee4	0.39134896
91	0x3eb84d67	0.35996553
92	0xbec8908c	-0.3917278
93	0xbf8a5568	-1.0807314
94	0xbd9cb8a8	-0.07652408
95	0x3f4cddb3	0.80025786
96	0x3ca0fde0	0.019652307
97	0xbe8d3ee5	-0.27587047
98	0xbf886c71	-1.0658094
99	0x3f25dd58	0.6479087
100	0x3f17608b	0.5913169
101	0x3e8f501b	0.27990803
102	0xbe152793	-0.14565878
103	0x3e0e1c0f	0.13877891
104	0x3e361330	0.17780757
105	0x3f094d9d	0.53634053
106	0xbe2eba2e	-0.1706321
107	0x3e8a1a72	0.269733
108	0x3e207d90	0.15672898
109	0x3da01060	0.07815623
110	0x3e2d9508	0.16951382
111	0xbf4c8b87	-0.799004
112	0xbebb458a	-0.36576492
113	0xbf413513	-0.7547161
114	0x3f10c263	0.5654661
115	0xbef393f2	-0.4757381
116	0xbe675c34	-0.22593766
117	0xbe9a486d	-0.3013338
118	0xbe838802	-0.25689703
119	0xbae43500	-0.0017410815
120	0xbf3f0403	-0.74615496
121	0xbefa4f6a	-0.48888713
122	0xbeaaa00d	-0.33325234
123	0x3e28acba	0.1647214
124	0x3d979080	0.07400608
125	0x3f3a440a	0.7276007
126	0xbe595d86	-0.21227083
127	0xbeb85794	-0.36004317
128	0xbd821f44	-0.0635362
129	0x3f416267	0.75540775
130	0x3e7b99a0	0.24570322
131	0x3f4c5321	0.79814345
132	0xbf7f0259	-0.9961296
133	0x3ea5e859	0.3240383
134	0xbd52f7b8	-0.051505774
135	0xbe08726c	-0.13324898
136	0x3da90c3a	0.08254285
137	0xbe89efcc	-0.26940763
138	0xbe2d064c	-0.16896933
139	0xbd897e32	-0.06713523
140	0x3ea8ca65	0.32966915
141	0xbebacf03	-0.36486062
142	0x3f0692ea	0.52567923
143	0xbe67eb0a	-0.22648254
144	0x3c8e4498	0.017366692
145	0x3f1eecdc	0.6208017
146	0xbdbe19e3	-0.09282281
147	0x3d12866a	0.03577272
148	0x3e9f2fac	0.31091058
149	0xbfd7d66a	-1.6862309
150	0x3f581e2a	0.84421027
151	0x3e11fd8a	0.14256874
152	0xbfd32bb0	-1.6497707
153	0xbdf071a0	-0.11740422
154	0x3f81cf3d	1.0141369
155	0xbe2b1628	-0.1670767
156	0x3f4694b9	0.7757068
157	0xbe9d72b8	-0.30751586
158	0x3f4fb7cc	0.81139827
159	0xbe3fbbd0	-0.18723989
160	0x3fc690d1	1.5512944
161	0x3e1bdc00	0.15220642
162	0xbf0cd408	-0.55011034
163	0x3d3225b2	0.04349298
164	0xbe301979	-0.17197217
165	0xbd2c0cb0	-0.042004287
166	0x3f176cc7	0.59150356
167	0x3d866238	0.065617025
168	0xbf2cdb59	-0.675222
169	0x3d68b848	0.05681637
170	0xbe51be09	-0.20482649
171	0x3e9fd2d5	0.3121554
172	0x3f0f3d99	0.55953366
173	0x3e57d6a3	0.21077971
174	0xbf1757ba	-0.59118235
175	0x3f59f39a	0.8513733
176	0xbf1d9be6	-0.6156601
177	0x3d521018	0.05128488
178	0x3f86ad69	1.052167
179	0x3f1663b2	0.5874587
180	0xbf32bda3	-0.6982061
181	0xbf41a4b8	-0.75641966
182	0xbf4ddd78	-0.8041606
183	0xbf8d7e6c	-1.1054206
184	0x3ef54134	0.4790131
185	0xbf960c8a	-1.1722577
186	0x3f7b5227	0.9817223
187	0x3f8eed06	1.1166084
188	0x3f3aa0f4	0.72901845
189	0xbf71175a	-0.94176257
190	0xbea11310	-0.31459856
191	0xbee97114	-0.45594084
192	0x3df32f8d	0.11874304
193	0xbfeaebd7	-1.8353223
194	0x3fa04d54	1.2523599
195	0xbebc0e7a	-0.36729795
196	0xbf96e336	-1.1788089
197	0xbe3163fd	-0.17323299
198	0xbe6bde49	-0.23034014
199	0x3f81f654	1.0153298
200	0x3ef93e41	0.48680308
201	0xbf48927c	-0.7834852
202	0x3d42ea24	0.047586575
203	0x3c7d0b40	0.015444577
204	0x3efc894a	0.49323493
205	0xbea4131c	-0.3204583
206	0xbec83356	-0.39101666
207	0x3f266ebd	0.65012723
208	0xbf14a0f9	-0.58058125
209	0xbeb1e9da	-0.34748727
210	0xbf93126e	-1.1489999
211	0xbf4e49ae	-0.80581176
212	0x3efe4fc8	0.49670243
213	0xbe53eae8	-0.20695078
214	0xbe34c246	-0.17652234
215	0xbed93a29	-0.42427185
216	0x3f541d0a	0.8285681
217	0xbe351ff4	-0.1768797
218	0x400dadb2	2.2137265
219	0xbeafdcec	-0.34348238
220	0xbf67ba34	-0.905185
221	0xbf951b75	-1.1649004
222	0x3d032820	0.032020688
223	0x3ecda354	0.40163672
224	0xbf84598a	-1.0339825
225	0xbf84dacf	-1.0379275
226	0xbf6a7382	-0.915825
227	0xbdecfa3c	-0.11571166
228	0x3e7f2bb2	0.24919012
229	0x3dd94730	0.10609281
230	0xbe873672	-0.26408726
231	0xbed23c12	-0.41061455
232	0xbe9d49e2	-0.3072043
233	0x3ec47784	0.38372433
234	0xbec4d897	-0.38446495
235	0xbf2e09c8	-0.67983675
236	0x3fd71ae8	1.6805086
237	0xbdd372d6	-0.103246376
238	0xbde47cf6	-0.11156647
239	0x3e37e260	0.17957449
240	0xbf88d504	-1.0690007
241	0x3f1485b0	0.5801649
242	0x3eb3a80a	0.3508914
243	0xbf0294f4	-0.51008534
244	0xbf6d4e6e	-0.926978
245	0x3f7f111d	0.9963549
246	0x3de3a394	0.111151844
247	0xbe7941f8	-0.24341571
248	0xbf17482e	-0.5909451
249	0xbf6d752e	-0.92756927
250	0xbf8c6aef	-1.0970134
251	0xbdb2cd19	-0.087305255
252	0xbf4a5369	-0.79033524
253	0x3e98af53	0.29821262
254	0xbff852b4	-1.9400239
255	0x3f88dbaf	1.0692042

momentum_buffer f4 [128]
0	0x3f258afa	0.64665186
1	0x3fdd093a	1.7268441
2	0xbd57b2c8	-0.052660733
3	0x3e8f1668	0.27946782
4	0xbf488758	-0.7833152
5	0x3f1e0064	0.61719346
6	0x3fea7492	1.8316824
7	0x3f11949b	0.5686738
8	0xbf3818fa	-0.7191311
9	0xbfc714ae	-1.5553186
10	0x3f162be9	0.5866075
11	0x3fa4db88	1.2879496
12	0x3faad9d3	1.3347725
13	0x3ef65554	0.48111975
14	0x3e51ef74	0.205015
15	0x3e809d65	0.25120082
16	0x40813a0a	4.038335
17	0xbf482b43	-0.7819101
18	0xbfecb6e7	-1.8493317
19	0xbf44b52c	-0.76838946
20	0xbf43584c	-0.76306605
21	0x3ff19a68	1.8875246
22	0x3fb06682	1.3781283
23	0xbfdd01da	-1.726619
24	0xbf10c9a4	-0.5655768
25	0xbfb4fc36	-1.4139469
26	0x3fa89a2f	1.3172053
27	0x3ec10a8e	0.37703365
28	0x3f305530	0.68879986
29	0xbfd0671c	-1.6281466
30	0xbfa5d370	-1.2955151
31	0xbd0fded0	-0.0351246
32	0xbfeb1e0e	-1.8368547
33	0xbe4bc17b	-0.19898026
34	0xc040dab0	-3.0133476
35	0xbfc1fed2	-1.515589
36	0xbfe8b4ea	-1.818021
37	0x3eedac60	0.46420574
38	0xbefbacce	-0.49155277
39	0xbfb5545c	-1.416637
40	0x3e1e6028	0.15466368
41	0xbe5501ec	-0.20801514
42	0xc02aad58	-2.66683
43	0x3fa58195	1.293017
44	0x3ec8f2a3	0.39247617
45	0xbd3102c0	-0.043215513
46	0xbfe38a45	-1.7776572
47	0x3ea6162c	0.3243879
48	0xbf00a249	-0.5024763
49	0x3fe0127f	1.7505645
50	0xbf91ab2c	-1.1380363
51	0xbf52cb80	-0.82341766
52	0x40541554	3.3138018
53	0x3fc30fb1	1.5239164
54	0xbfa29c9e	-1.2704046
55	0xbf48bc75	-0.7841256
56	0x3fd0b8fa	1.630645
57	0xbfb9721e	-1.4487951
58	0x3ff7e43f	1.936653
59	0x3fe01147	1.7505273
60	0x3fc421c4	1.5322804
61	0xbedf5484	-0.43619168
62	0x3fdfcee7	1.7485017
63	0xbfe3d0e2	-1.7798121
64	0xbe9d1885	-0.3068277
65	0xbf906dc4	-1.1283498
66	0x3ecc2a8a	0.39876205
67	0x3dd79c27	0.105278306
68	0xbfa5f9c5	-1.2966849
69	0x3f8fc31b	1.1231416
70	0x3fb9de90	1.4521046
71	0x3ee0bcbb	0.4389399
72	0x405355d2	3.302113
73	0x3fa45b65	1.2840391
74	0x3ebfbc48	0.37448335
75	0x3feb7e98	1.8398008
76	0x3f7ed958	0.9955039
77	0x3f24c6b2	0.64365685
78	0x3fa0fc97	1.2577084
79	0xbdba6bc6	-0.091025874
80	0x3efd6894	0.4949385
81	0x3f5e8de0	0.86935234
82	0x3efc0efe	0.49230188
83	0x3fc55b43	1.5418476
84	0xc0195231	-2.3956416
85	0x4033796a	2.8042855
86	0x3f3eefec	0.7458484
87	0x3f4cf63b	0.8006322
88	0x4052c54d	3.2932923
89	0xbff66da4	-1.925221
90	0xbf3df1dc	-0.74197173
91	0x3fb25926	1.3933456
92	0xc002d6b8	-2.0443554
93	0xc038d114	-2.887761
94	0x3f4bbcbc	0.7958486
95	0x3e75e0cc	0.24011534
96	0x3d2cde60	0.04220426
97	0xbefed12c	-0.4976896
98	0xbfcaf57a	-1.5856164
99	0xbf70d3de	-0.94073284
100	0x400f2b7b	2.2370288
101	0xbfa2a2f4	-1.2705979
102	0x3f7a37e8	0.97741556
103	0x3ee18b98	0.44051814
104	0x3e25c794	0.16189414
105	0xbf8cb4bf	-1.0992659
106	0xc00225e2	-2.0335622
107	0x3e8b5a33	0.27217254
108	0x3fa0be1d	1.2558018
109	0x405f8fa7	3.4931428
110	0xbfbcbda4	-1.4745374
111	0xbf910e9c	-1.1332583
112	0xbf00b43f	-0.50275034
113	0x3fa228af	1.2668666
114	0xbe930fc6	-0.28722972
115	0x3f55a356	0.83452356
116	0x3f1c360b	0.61019963
117	0xbe0d21e4	-0.1378246
118	0x3f73497e	0.95034015
119	0x3fd4ff23	1.6640362
120	0xc018dde6	-2.3885436
121	0xc021ad26	-2.5261931
122	0x3f628340	0.8848152
123	0x3f8517db	1.0397905
124	0xbfe845cb	-1.8146299
125	0x3f63e395	0.8901914
126	0x3f2ecb8f	0.68279356
127	0xbfefe581	-1.8741914
